#map = affine_map<(d0, d1, d2) -> (d0, d1, d2)>
#map1 = affine_map<(d0, d1, d2) -> (d0, d1, 0)>
#map2 = affine_map<(d0, d1, d2) -> (0, d1, 0)>
#map3 = affine_map<(d0, d1, d2) -> (0, d1, d2)>
#map4 = affine_map<(d0, d1, d2) -> (d2)>
#map5 = affine_map<(d0, d1) -> (d0, d1)>
#map6 = affine_map<(d0, d1) -> (d1, d0)>
#map7 = affine_map<(d0, d1, d2) -> (d1, d2)>
#map8 = affine_map<(d0, d1, d2, d3) -> (d0, d1, d3)>
#map9 = affine_map<(d0, d1, d2, d3) -> (d0, d3, d2)>
#map10 = affine_map<(d0, d1, d2, d3) -> (d0, d1, d2)>
#map11 = affine_map<(d0, d1, d2, d3) -> (d0, d1, d2, d3)>
#map12 = affine_map<(d0, d1, d2, d3) -> (d0, d2, d1, d3)>
#map13 = affine_map<(d0, d1, d2, d3) -> (d0, d1, d3, d2)>
#map14 = affine_map<(d0, d1, d2, d3) -> (0, d1, d2, d3)>
#map15 = affine_map<(d0, d1, d2, d3) -> ()>
#map16 = affine_map<(d0, d1, d2, d3) -> (d0, d1, d2, 0)>
#map17 = affine_map<(d0, d1, d2, d3) -> (0, d1, d2, 0)>
"builtin.module"() ({
  "ml_program.global"() {is_mutable, sym_name = "global_seed", sym_visibility = "private", type = tensor<i64>, value = dense<0> : tensor<i64>} : () -> ()
  "func.func"() ({
  ^bb0(%arg0: tensor<1x197x768xf32>):
    %0 = "arith.constant"() {value = 0 : i64} : () -> i64
    %1 = "arith.constant"() : () -> tensor<1000x768xf32>
    %2 = "arith.constant"() : () -> tensor<1000xf32>
    %3 = "arith.constant"() : () -> tensor<768xf32>
    %4 = "arith.constant"() : () -> tensor<768xf32>
    %5 = "arith.constant"() : () -> tensor<768x3072xf32>
    %6 = "arith.constant"() : () -> tensor<768xf32>
    %7 = "arith.constant"() : () -> tensor<3072x768xf32>
    %8 = "arith.constant"() : () -> tensor<3072xf32>
    %9 = "arith.constant"() : () -> tensor<768xf32>
    %10 = "arith.constant"() : () -> tensor<768xf32>
    %11 = "arith.constant"() : () -> tensor<768x768xf32>
    %12 = "arith.constant"() : () -> tensor<768xf32>
    %13 = "arith.constant"() : () -> tensor<768x768xf32>
    %14 = "arith.constant"() : () -> tensor<768xf32>
    %15 = "arith.constant"() : () -> tensor<768x768xf32>
    %16 = "arith.constant"() : () -> tensor<768xf32>
    %17 = "arith.constant"() : () -> tensor<768x768xf32>
    %18 = "arith.constant"() : () -> tensor<768xf32>
    %19 = "arith.constant"() : () -> tensor<768xf32>
    %20 = "arith.constant"() : () -> tensor<768xf32>
    %21 = "arith.constant"() : () -> tensor<768x3072xf32>
    %22 = "arith.constant"() : () -> tensor<768xf32>
    %23 = "arith.constant"() : () -> tensor<3072x768xf32>
    %24 = "arith.constant"() : () -> tensor<3072xf32>
    %25 = "arith.constant"() : () -> tensor<768xf32>
    %26 = "arith.constant"() : () -> tensor<768xf32>
    %27 = "arith.constant"() : () -> tensor<768x768xf32>
    %28 = "arith.constant"() : () -> tensor<768xf32>
    %29 = "arith.constant"() : () -> tensor<768x768xf32>
    %30 = "arith.constant"() : () -> tensor<768xf32>
    %31 = "arith.constant"() : () -> tensor<768x768xf32>
    %32 = "arith.constant"() : () -> tensor<768xf32>
    %33 = "arith.constant"() : () -> tensor<768x768xf32>
    %34 = "arith.constant"() : () -> tensor<768xf32>
    %35 = "arith.constant"() : () -> tensor<768xf32>
    %36 = "arith.constant"() : () -> tensor<768xf32>
    %37 = "arith.constant"() : () -> tensor<768x3072xf32>
    %38 = "arith.constant"() : () -> tensor<768xf32>
    %39 = "arith.constant"() : () -> tensor<3072x768xf32>
    %40 = "arith.constant"() : () -> tensor<3072xf32>
    %41 = "arith.constant"() : () -> tensor<768xf32>
    %42 = "arith.constant"() : () -> tensor<768xf32>
    %43 = "arith.constant"() : () -> tensor<768x768xf32>
    %44 = "arith.constant"() : () -> tensor<768xf32>
    %45 = "arith.constant"() : () -> tensor<768x768xf32>
    %46 = "arith.constant"() : () -> tensor<768xf32>
    %47 = "arith.constant"() : () -> tensor<768x768xf32>
    %48 = "arith.constant"() : () -> tensor<768xf32>
    %49 = "arith.constant"() : () -> tensor<768x768xf32>
    %50 = "arith.constant"() : () -> tensor<768xf32>
    %51 = "arith.constant"() : () -> tensor<768xf32>
    %52 = "arith.constant"() : () -> tensor<768xf32>
    %53 = "arith.constant"() : () -> tensor<768x3072xf32>
    %54 = "arith.constant"() : () -> tensor<768xf32>
    %55 = "arith.constant"() : () -> tensor<3072x768xf32>
    %56 = "arith.constant"() : () -> tensor<3072xf32>
    %57 = "arith.constant"() : () -> tensor<768xf32>
    %58 = "arith.constant"() : () -> tensor<768xf32>
    %59 = "arith.constant"() : () -> tensor<768x768xf32>
    %60 = "arith.constant"() : () -> tensor<768xf32>
    %61 = "arith.constant"() : () -> tensor<768x768xf32>
    %62 = "arith.constant"() : () -> tensor<768xf32>
    %63 = "arith.constant"() : () -> tensor<768x768xf32>
    %64 = "arith.constant"() : () -> tensor<768xf32>
    %65 = "arith.constant"() : () -> tensor<768x768xf32>
    %66 = "arith.constant"() : () -> tensor<768xf32>
    %67 = "arith.constant"() : () -> tensor<768xf32>
    %68 = "arith.constant"() : () -> tensor<768xf32>
    %69 = "arith.constant"() : () -> tensor<768x3072xf32>
    %70 = "arith.constant"() : () -> tensor<768xf32>
    %71 = "arith.constant"() : () -> tensor<3072x768xf32>
    %72 = "arith.constant"() : () -> tensor<3072xf32>
    %73 = "arith.constant"() : () -> tensor<768xf32>
    %74 = "arith.constant"() : () -> tensor<768xf32>
    %75 = "arith.constant"() : () -> tensor<768x768xf32>
    %76 = "arith.constant"() : () -> tensor<768xf32>
    %77 = "arith.constant"() : () -> tensor<768x768xf32>
    %78 = "arith.constant"() : () -> tensor<768xf32>
    %79 = "arith.constant"() : () -> tensor<768x768xf32>
    %80 = "arith.constant"() : () -> tensor<768xf32>
    %81 = "arith.constant"() : () -> tensor<768x768xf32>
    %82 = "arith.constant"() : () -> tensor<768xf32>
    %83 = "arith.constant"() : () -> tensor<768xf32>
    %84 = "arith.constant"() : () -> tensor<768xf32>
    %85 = "arith.constant"() : () -> tensor<768x3072xf32>
    %86 = "arith.constant"() : () -> tensor<768xf32>
    %87 = "arith.constant"() : () -> tensor<3072x768xf32>
    %88 = "arith.constant"() : () -> tensor<3072xf32>
    %89 = "arith.constant"() : () -> tensor<768xf32>
    %90 = "arith.constant"() : () -> tensor<768xf32>
    %91 = "arith.constant"() : () -> tensor<768x768xf32>
    %92 = "arith.constant"() : () -> tensor<768xf32>
    %93 = "arith.constant"() : () -> tensor<768x768xf32>
    %94 = "arith.constant"() : () -> tensor<768xf32>
    %95 = "arith.constant"() : () -> tensor<768x768xf32>
    %96 = "arith.constant"() : () -> tensor<768xf32>
    %97 = "arith.constant"() : () -> tensor<768x768xf32>
    %98 = "arith.constant"() : () -> tensor<768xf32>
    %99 = "arith.constant"() : () -> tensor<768xf32>
    %100 = "arith.constant"() : () -> tensor<768xf32>
    %101 = "arith.constant"() : () -> tensor<768x3072xf32>
    %102 = "arith.constant"() : () -> tensor<768xf32>
    %103 = "arith.constant"() : () -> tensor<3072x768xf32>
    %104 = "arith.constant"() : () -> tensor<3072xf32>
    %105 = "arith.constant"() : () -> tensor<768xf32>
    %106 = "arith.constant"() : () -> tensor<768xf32>
    %107 = "arith.constant"() : () -> tensor<768x768xf32>
    %108 = "arith.constant"() : () -> tensor<768xf32>
    %109 = "arith.constant"() : () -> tensor<768x768xf32>
    %110 = "arith.constant"() : () -> tensor<768xf32>
    %111 = "arith.constant"() : () -> tensor<768x768xf32>
    %112 = "arith.constant"() : () -> tensor<768xf32>
    %113 = "arith.constant"() : () -> tensor<768x768xf32>
    %114 = "arith.constant"() : () -> tensor<768xf32>
    %115 = "arith.constant"() : () -> tensor<768xf32>
    %116 = "arith.constant"() : () -> tensor<768xf32>
    %117 = "arith.constant"() : () -> tensor<768x3072xf32>
    %118 = "arith.constant"() : () -> tensor<768xf32>
    %119 = "arith.constant"() : () -> tensor<3072x768xf32>
    %120 = "arith.constant"() : () -> tensor<3072xf32>
    %121 = "arith.constant"() : () -> tensor<768xf32>
    %122 = "arith.constant"() : () -> tensor<768xf32>
    %123 = "arith.constant"() : () -> tensor<768x768xf32>
    %124 = "arith.constant"() : () -> tensor<768xf32>
    %125 = "arith.constant"() : () -> tensor<768x768xf32>
    %126 = "arith.constant"() : () -> tensor<768xf32>
    %127 = "arith.constant"() : () -> tensor<768x768xf32>
    %128 = "arith.constant"() : () -> tensor<768xf32>
    %129 = "arith.constant"() : () -> tensor<768x768xf32>
    %130 = "arith.constant"() : () -> tensor<768xf32>
    %131 = "arith.constant"() : () -> tensor<768xf32>
    %132 = "arith.constant"() : () -> tensor<768xf32>
    %133 = "arith.constant"() : () -> tensor<768x3072xf32>
    %134 = "arith.constant"() : () -> tensor<768xf32>
    %135 = "arith.constant"() : () -> tensor<3072x768xf32>
    %136 = "arith.constant"() : () -> tensor<3072xf32>
    %137 = "arith.constant"() : () -> tensor<768xf32>
    %138 = "arith.constant"() : () -> tensor<768xf32>
    %139 = "arith.constant"() : () -> tensor<768x768xf32>
    %140 = "arith.constant"() : () -> tensor<768xf32>
    %141 = "arith.constant"() : () -> tensor<768x768xf32>
    %142 = "arith.constant"() : () -> tensor<768xf32>
    %143 = "arith.constant"() : () -> tensor<768x768xf32>
    %144 = "arith.constant"() : () -> tensor<768xf32>
    %145 = "arith.constant"() : () -> tensor<768x768xf32>
    %146 = "arith.constant"() : () -> tensor<768xf32>
    %147 = "arith.constant"() : () -> tensor<768xf32>
    %148 = "arith.constant"() : () -> tensor<768xf32>
    %149 = "arith.constant"() : () -> tensor<768x3072xf32>
    %150 = "arith.constant"() : () -> tensor<768xf32>
    %151 = "arith.constant"() : () -> tensor<3072x768xf32>
    %152 = "arith.constant"() : () -> tensor<3072xf32>
    %153 = "arith.constant"() : () -> tensor<768xf32>
    %154 = "arith.constant"() : () -> tensor<768xf32>
    %155 = "arith.constant"() : () -> tensor<768x768xf32>
    %156 = "arith.constant"() : () -> tensor<768xf32>
    %157 = "arith.constant"() : () -> tensor<768x768xf32>
    %158 = "arith.constant"() : () -> tensor<768xf32>
    %159 = "arith.constant"() : () -> tensor<768x768xf32>
    %160 = "arith.constant"() : () -> tensor<768xf32>
    %161 = "arith.constant"() : () -> tensor<768x768xf32>
    %162 = "arith.constant"() : () -> tensor<768xf32>
    %163 = "arith.constant"() : () -> tensor<768xf32>
    %164 = "arith.constant"() : () -> tensor<768xf32>
    %165 = "arith.constant"() : () -> tensor<768x3072xf32>
    %166 = "arith.constant"() : () -> tensor<768xf32>
    %167 = "arith.constant"() : () -> tensor<3072x768xf32>
    %168 = "arith.constant"() : () -> tensor<3072xf32>
    %169 = "arith.constant"() : () -> tensor<768xf32>
    %170 = "arith.constant"() : () -> tensor<768xf32>
    %171 = "arith.constant"() : () -> tensor<768x768xf32>
    %172 = "arith.constant"() : () -> tensor<768xf32>
    %173 = "arith.constant"() : () -> tensor<768x768xf32>
    %174 = "arith.constant"() : () -> tensor<768xf32>
    %175 = "arith.constant"() : () -> tensor<768x768xf32>
    %176 = "arith.constant"() : () -> tensor<768xf32>
    %177 = "arith.constant"() : () -> tensor<768x768xf32>
    %178 = "arith.constant"() : () -> tensor<768xf32>
    %179 = "arith.constant"() : () -> tensor<768xf32>
    %180 = "arith.constant"() : () -> tensor<768xf32>
    %181 = "arith.constant"() : () -> tensor<768x3072xf32>
    %182 = "arith.constant"() : () -> tensor<768xf32>
    %183 = "arith.constant"() : () -> tensor<3072x768xf32>
    %184 = "arith.constant"() : () -> tensor<3072xf32>
    %185 = "arith.constant"() : () -> tensor<768xf32>
    %186 = "arith.constant"() : () -> tensor<768xf32>
    %187 = "arith.constant"() : () -> tensor<768x768xf32>
    %188 = "arith.constant"() : () -> tensor<768xf32>
    %189 = "arith.constant"() : () -> tensor<f64>
    %190 = "arith.constant"() : () -> tensor<768x768xf32>
    %191 = "arith.constant"() : () -> tensor<768xf32>
    %192 = "arith.constant"() : () -> tensor<768x768xf32>
    %193 = "arith.constant"() : () -> tensor<768xf32>
    %194 = "arith.constant"() : () -> tensor<768x768xf32>
    %195 = "arith.constant"() : () -> tensor<768xf32>
    %196 = "arith.constant"() : () -> tensor<768xf32>
    %197 = "arith.constant"() : () -> tensor<768xf32>
    %198 = "arith.constant"() : () -> f32
    %199 = "arith.constant"() : () -> f32
    %200 = "arith.constant"() : () -> f32
    %201 = "arith.constant"() : () -> f32
    %202 = "arith.constant"() : () -> f32
    %203 = "arith.constant"() : () -> f64
    %204 = "arith.constant"() : () -> f32
    %205 = "tensor.empty"() : () -> tensor<1x197x1xf32>
    %206 = "linalg.fill"(%198, %205) ({
    ^bb0(%arg1: f32, %arg2: f32):
      "linalg.yield"(%arg1) : (f32) -> ()
    }) {operand_segment_sizes = array<i32: 1, 1>} : (f32, tensor<1x197x1xf32>) -> tensor<1x197x1xf32>
    %207 = "linalg.generic"(%arg0, %206) ({
    ^bb0(%arg1: f32, %arg2: f32):
      %1260 = "arith.addf"(%arg1, %arg2) {fastmath = #arith.fastmath<none>} : (f32, f32) -> f32
      "linalg.yield"(%1260) : (f32) -> ()
    }) {indexing_maps = [#map, #map1], iterator_types = [#linalg.iterator_type<parallel>, #linalg.iterator_type<parallel>, #linalg.iterator_type<reduction>], operand_segment_sizes = array<i32: 1, 1>} : (tensor<1x197x768xf32>, tensor<1x197x1xf32>) -> tensor<1x197x1xf32>
    %208 = "linalg.generic"(%207, %205) ({
    ^bb0(%arg1: f32, %arg2: f32):
      %1260 = "arith.divf"(%arg1, %204) {fastmath = #arith.fastmath<none>} : (f32, f32) -> f32
      "linalg.yield"(%1260) : (f32) -> ()
    }) {indexing_maps = [#map2, #map], iterator_types = [#linalg.iterator_type<parallel>, #linalg.iterator_type<parallel>, #linalg.iterator_type<parallel>], operand_segment_sizes = array<i32: 1, 1>} : (tensor<1x197x1xf32>, tensor<1x197x1xf32>) -> tensor<1x197x1xf32>
    %209 = "tensor.empty"() : () -> tensor<1x197x768xf32>
    %210 = "linalg.generic"(%208, %209) ({
    ^bb0(%arg1: f32, %arg2: f32):
      "linalg.yield"(%arg1) : (f32) -> ()
    }) {indexing_maps = [#map2, #map], iterator_types = [#linalg.iterator_type<parallel>, #linalg.iterator_type<parallel>, #linalg.iterator_type<parallel>], operand_segment_sizes = array<i32: 1, 1>} : (tensor<1x197x1xf32>, tensor<1x197x768xf32>) -> tensor<1x197x768xf32>
    %211 = "linalg.generic"(%arg0, %210, %209) ({
    ^bb0(%arg1: f32, %arg2: f32, %arg3: f32):
      %1260 = "arith.subf"(%arg1, %arg2) {fastmath = #arith.fastmath<none>} : (f32, f32) -> f32
      "linalg.yield"(%1260) : (f32) -> ()
    }) {indexing_maps = [#map3, #map3, #map], iterator_types = [#linalg.iterator_type<parallel>, #linalg.iterator_type<parallel>, #linalg.iterator_type<parallel>], operand_segment_sizes = array<i32: 2, 1>} : (tensor<1x197x768xf32>, tensor<1x197x768xf32>, tensor<1x197x768xf32>) -> tensor<1x197x768xf32>
    %212 = "linalg.generic"(%211, %211, %209) ({
    ^bb0(%arg1: f32, %arg2: f32, %arg3: f32):
      %1260 = "arith.mulf"(%arg1, %arg2) {fastmath = #arith.fastmath<none>} : (f32, f32) -> f32
      "linalg.yield"(%1260) : (f32) -> ()
    }) {indexing_maps = [#map3, #map3, #map], iterator_types = [#linalg.iterator_type<parallel>, #linalg.iterator_type<parallel>, #linalg.iterator_type<parallel>], operand_segment_sizes = array<i32: 2, 1>} : (tensor<1x197x768xf32>, tensor<1x197x768xf32>, tensor<1x197x768xf32>) -> tensor<1x197x768xf32>
    %213 = "linalg.generic"(%212, %206) ({
    ^bb0(%arg1: f32, %arg2: f32):
      %1260 = "arith.addf"(%arg1, %arg2) {fastmath = #arith.fastmath<none>} : (f32, f32) -> f32
      "linalg.yield"(%1260) : (f32) -> ()
    }) {indexing_maps = [#map, #map1], iterator_types = [#linalg.iterator_type<parallel>, #linalg.iterator_type<parallel>, #linalg.iterator_type<reduction>], operand_segment_sizes = array<i32: 1, 1>} : (tensor<1x197x768xf32>, tensor<1x197x1xf32>) -> tensor<1x197x1xf32>
    %214 = "linalg.generic"(%213, %205) ({
    ^bb0(%arg1: f32, %arg2: f32):
      %1260 = "arith.divf"(%arg1, %204) {fastmath = #arith.fastmath<none>} : (f32, f32) -> f32
      "linalg.yield"(%1260) : (f32) -> ()
    }) {indexing_maps = [#map2, #map], iterator_types = [#linalg.iterator_type<parallel>, #linalg.iterator_type<parallel>, #linalg.iterator_type<parallel>], operand_segment_sizes = array<i32: 1, 1>} : (tensor<1x197x1xf32>, tensor<1x197x1xf32>) -> tensor<1x197x1xf32>
    %215 = "linalg.generic"(%214, %205) ({
    ^bb0(%arg1: f32, %arg2: f32):
      %1260 = "arith.truncf"(%203) : (f64) -> f32
      %1261 = "arith.addf"(%arg1, %1260) {fastmath = #arith.fastmath<none>} : (f32, f32) -> f32
      "linalg.yield"(%1261) : (f32) -> ()
    }) {indexing_maps = [#map2, #map], iterator_types = [#linalg.iterator_type<parallel>, #linalg.iterator_type<parallel>, #linalg.iterator_type<parallel>], operand_segment_sizes = array<i32: 1, 1>} : (tensor<1x197x1xf32>, tensor<1x197x1xf32>) -> tensor<1x197x1xf32>
    %216 = "linalg.generic"(%215, %205) ({
    ^bb0(%arg1: f32, %arg2: f32):
      %1260 = "math.rsqrt"(%arg1) {fastmath = #arith.fastmath<none>} : (f32) -> f32
      "linalg.yield"(%1260) : (f32) -> ()
    }) {indexing_maps = [#map2, #map], iterator_types = [#linalg.iterator_type<parallel>, #linalg.iterator_type<parallel>, #linalg.iterator_type<parallel>], operand_segment_sizes = array<i32: 1, 1>} : (tensor<1x197x1xf32>, tensor<1x197x1xf32>) -> tensor<1x197x1xf32>
    %217 = "linalg.generic"(%216, %209) ({
    ^bb0(%arg1: f32, %arg2: f32):
      "linalg.yield"(%arg1) : (f32) -> ()
    }) {indexing_maps = [#map2, #map], iterator_types = [#linalg.iterator_type<parallel>, #linalg.iterator_type<parallel>, #linalg.iterator_type<parallel>], operand_segment_sizes = array<i32: 1, 1>} : (tensor<1x197x1xf32>, tensor<1x197x768xf32>) -> tensor<1x197x768xf32>
    %218 = "linalg.generic"(%211, %217, %209) ({
    ^bb0(%arg1: f32, %arg2: f32, %arg3: f32):
      %1260 = "arith.mulf"(%arg1, %arg2) {fastmath = #arith.fastmath<none>} : (f32, f32) -> f32
      "linalg.yield"(%1260) : (f32) -> ()
    }) {indexing_maps = [#map3, #map3, #map], iterator_types = [#linalg.iterator_type<parallel>, #linalg.iterator_type<parallel>, #linalg.iterator_type<parallel>], operand_segment_sizes = array<i32: 2, 1>} : (tensor<1x197x768xf32>, tensor<1x197x768xf32>, tensor<1x197x768xf32>) -> tensor<1x197x768xf32>
    %219 = "linalg.generic"(%218, %196, %209) ({
    ^bb0(%arg1: f32, %arg2: f32, %arg3: f32):
      %1260 = "arith.mulf"(%arg1, %arg2) {fastmath = #arith.fastmath<none>} : (f32, f32) -> f32
      "linalg.yield"(%1260) : (f32) -> ()
    }) {indexing_maps = [#map3, #map4, #map], iterator_types = [#linalg.iterator_type<parallel>, #linalg.iterator_type<parallel>, #linalg.iterator_type<parallel>], operand_segment_sizes = array<i32: 2, 1>} : (tensor<1x197x768xf32>, tensor<768xf32>, tensor<1x197x768xf32>) -> tensor<1x197x768xf32>
    %220 = "linalg.generic"(%219, %197, %209) ({
    ^bb0(%arg1: f32, %arg2: f32, %arg3: f32):
      %1260 = "arith.addf"(%arg1, %arg2) {fastmath = #arith.fastmath<none>} : (f32, f32) -> f32
      "linalg.yield"(%1260) : (f32) -> ()
    }) {indexing_maps = [#map3, #map4, #map], iterator_types = [#linalg.iterator_type<parallel>, #linalg.iterator_type<parallel>, #linalg.iterator_type<parallel>], operand_segment_sizes = array<i32: 2, 1>} : (tensor<1x197x768xf32>, tensor<768xf32>, tensor<1x197x768xf32>) -> tensor<1x197x768xf32>
    %221 = "tensor.empty"() : () -> tensor<768x768xf32>
    %222 = "linalg.generic"(%194, %221) ({
    ^bb0(%arg1: f32, %arg2: f32):
      "linalg.yield"(%arg1) : (f32) -> ()
    }) {indexing_maps = [#map5, #map6], iterator_types = [#linalg.iterator_type<parallel>, #linalg.iterator_type<parallel>], operand_segment_sizes = array<i32: 1, 1>} : (tensor<768x768xf32>, tensor<768x768xf32>) -> tensor<768x768xf32>
    %223 = "linalg.generic"(%220, %209) ({
    ^bb0(%arg1: f32, %arg2: f32):
      "linalg.yield"(%arg1) : (f32) -> ()
    }) {indexing_maps = [#map3, #map], iterator_types = [#linalg.iterator_type<parallel>, #linalg.iterator_type<parallel>, #linalg.iterator_type<parallel>], operand_segment_sizes = array<i32: 1, 1>} : (tensor<1x197x768xf32>, tensor<1x197x768xf32>) -> tensor<1x197x768xf32>
    %224 = "tensor.empty"() : () -> tensor<1x768x768xf32>
    %225 = "linalg.generic"(%222, %224) ({
    ^bb0(%arg1: f32, %arg2: f32):
      "linalg.yield"(%arg1) : (f32) -> ()
    }) {indexing_maps = [#map7, #map], iterator_types = [#linalg.iterator_type<parallel>, #linalg.iterator_type<parallel>, #linalg.iterator_type<parallel>], operand_segment_sizes = array<i32: 1, 1>} : (tensor<768x768xf32>, tensor<1x768x768xf32>) -> tensor<1x768x768xf32>
    %226 = "linalg.fill"(%198, %209) ({
    ^bb0(%arg1: f32, %arg2: f32):
      "linalg.yield"(%arg1) : (f32) -> ()
    }) {operand_segment_sizes = array<i32: 1, 1>} : (f32, tensor<1x197x768xf32>) -> tensor<1x197x768xf32>
    %227 = "linalg.batch_matmul"(%223, %225, %226) ({
    ^bb0(%arg1: f32, %arg2: f32, %arg3: f32):
      %1260 = "arith.mulf"(%arg1, %arg2) {fastmath = #arith.fastmath<none>} : (f32, f32) -> f32
      %1261 = "arith.addf"(%arg3, %1260) {fastmath = #arith.fastmath<none>} : (f32, f32) -> f32
      "linalg.yield"(%1261) : (f32) -> ()
    }) {linalg.memoized_indexing_maps = [#map8, #map9, #map10], operand_segment_sizes = array<i32: 2, 1>} : (tensor<1x197x768xf32>, tensor<1x768x768xf32>, tensor<1x197x768xf32>) -> tensor<1x197x768xf32>
    %228 = "linalg.generic"(%227, %195, %209) ({
    ^bb0(%arg1: f32, %arg2: f32, %arg3: f32):
      %1260 = "arith.addf"(%arg1, %arg2) {fastmath = #arith.fastmath<none>} : (f32, f32) -> f32
      "linalg.yield"(%1260) : (f32) -> ()
    }) {indexing_maps = [#map3, #map4, #map], iterator_types = [#linalg.iterator_type<parallel>, #linalg.iterator_type<parallel>, #linalg.iterator_type<parallel>], operand_segment_sizes = array<i32: 2, 1>} : (tensor<1x197x768xf32>, tensor<768xf32>, tensor<1x197x768xf32>) -> tensor<1x197x768xf32>
    %229 = "linalg.generic"(%192, %221) ({
    ^bb0(%arg1: f32, %arg2: f32):
      "linalg.yield"(%arg1) : (f32) -> ()
    }) {indexing_maps = [#map5, #map6], iterator_types = [#linalg.iterator_type<parallel>, #linalg.iterator_type<parallel>], operand_segment_sizes = array<i32: 1, 1>} : (tensor<768x768xf32>, tensor<768x768xf32>) -> tensor<768x768xf32>
    %230 = "linalg.generic"(%229, %224) ({
    ^bb0(%arg1: f32, %arg2: f32):
      "linalg.yield"(%arg1) : (f32) -> ()
    }) {indexing_maps = [#map7, #map], iterator_types = [#linalg.iterator_type<parallel>, #linalg.iterator_type<parallel>, #linalg.iterator_type<parallel>], operand_segment_sizes = array<i32: 1, 1>} : (tensor<768x768xf32>, tensor<1x768x768xf32>) -> tensor<1x768x768xf32>
    %231 = "linalg.batch_matmul"(%223, %230, %226) ({
    ^bb0(%arg1: f32, %arg2: f32, %arg3: f32):
      %1260 = "arith.mulf"(%arg1, %arg2) {fastmath = #arith.fastmath<none>} : (f32, f32) -> f32
      %1261 = "arith.addf"(%arg3, %1260) {fastmath = #arith.fastmath<none>} : (f32, f32) -> f32
      "linalg.yield"(%1261) : (f32) -> ()
    }) {linalg.memoized_indexing_maps = [#map8, #map9, #map10], operand_segment_sizes = array<i32: 2, 1>} : (tensor<1x197x768xf32>, tensor<1x768x768xf32>, tensor<1x197x768xf32>) -> tensor<1x197x768xf32>
    %232 = "linalg.generic"(%231, %193, %209) ({
    ^bb0(%arg1: f32, %arg2: f32, %arg3: f32):
      %1260 = "arith.addf"(%arg1, %arg2) {fastmath = #arith.fastmath<none>} : (f32, f32) -> f32
      "linalg.yield"(%1260) : (f32) -> ()
    }) {indexing_maps = [#map3, #map4, #map], iterator_types = [#linalg.iterator_type<parallel>, #linalg.iterator_type<parallel>, #linalg.iterator_type<parallel>], operand_segment_sizes = array<i32: 2, 1>} : (tensor<1x197x768xf32>, tensor<768xf32>, tensor<1x197x768xf32>) -> tensor<1x197x768xf32>
    %233 = "tensor.expand_shape"(%232) {reassociation = [[0], [1], [2, 3]]} : (tensor<1x197x768xf32>) -> tensor<1x197x12x64xf32>
    %234 = "tensor.empty"() : () -> tensor<1x12x197x64xf32>
    %235 = "linalg.generic"(%233, %234) ({
    ^bb0(%arg1: f32, %arg2: f32):
      "linalg.yield"(%arg1) : (f32) -> ()
    }) {indexing_maps = [#map11, #map12], iterator_types = [#linalg.iterator_type<parallel>, #linalg.iterator_type<parallel>, #linalg.iterator_type<parallel>, #linalg.iterator_type<parallel>], operand_segment_sizes = array<i32: 1, 1>} : (tensor<1x197x12x64xf32>, tensor<1x12x197x64xf32>) -> tensor<1x12x197x64xf32>
    %236 = "linalg.generic"(%190, %221) ({
    ^bb0(%arg1: f32, %arg2: f32):
      "linalg.yield"(%arg1) : (f32) -> ()
    }) {indexing_maps = [#map5, #map6], iterator_types = [#linalg.iterator_type<parallel>, #linalg.iterator_type<parallel>], operand_segment_sizes = array<i32: 1, 1>} : (tensor<768x768xf32>, tensor<768x768xf32>) -> tensor<768x768xf32>
    %237 = "linalg.generic"(%236, %224) ({
    ^bb0(%arg1: f32, %arg2: f32):
      "linalg.yield"(%arg1) : (f32) -> ()
    }) {indexing_maps = [#map7, #map], iterator_types = [#linalg.iterator_type<parallel>, #linalg.iterator_type<parallel>, #linalg.iterator_type<parallel>], operand_segment_sizes = array<i32: 1, 1>} : (tensor<768x768xf32>, tensor<1x768x768xf32>) -> tensor<1x768x768xf32>
    %238 = "linalg.batch_matmul"(%223, %237, %226) ({
    ^bb0(%arg1: f32, %arg2: f32, %arg3: f32):
      %1260 = "arith.mulf"(%arg1, %arg2) {fastmath = #arith.fastmath<none>} : (f32, f32) -> f32
      %1261 = "arith.addf"(%arg3, %1260) {fastmath = #arith.fastmath<none>} : (f32, f32) -> f32
      "linalg.yield"(%1261) : (f32) -> ()
    }) {linalg.memoized_indexing_maps = [#map8, #map9, #map10], operand_segment_sizes = array<i32: 2, 1>} : (tensor<1x197x768xf32>, tensor<1x768x768xf32>, tensor<1x197x768xf32>) -> tensor<1x197x768xf32>
    %239 = "linalg.generic"(%238, %191, %209) ({
    ^bb0(%arg1: f32, %arg2: f32, %arg3: f32):
      %1260 = "arith.addf"(%arg1, %arg2) {fastmath = #arith.fastmath<none>} : (f32, f32) -> f32
      "linalg.yield"(%1260) : (f32) -> ()
    }) {indexing_maps = [#map3, #map4, #map], iterator_types = [#linalg.iterator_type<parallel>, #linalg.iterator_type<parallel>, #linalg.iterator_type<parallel>], operand_segment_sizes = array<i32: 2, 1>} : (tensor<1x197x768xf32>, tensor<768xf32>, tensor<1x197x768xf32>) -> tensor<1x197x768xf32>
    %240 = "tensor.expand_shape"(%239) {reassociation = [[0], [1], [2, 3]]} : (tensor<1x197x768xf32>) -> tensor<1x197x12x64xf32>
    %241 = "linalg.generic"(%240, %234) ({
    ^bb0(%arg1: f32, %arg2: f32):
      "linalg.yield"(%arg1) : (f32) -> ()
    }) {indexing_maps = [#map11, #map12], iterator_types = [#linalg.iterator_type<parallel>, #linalg.iterator_type<parallel>, #linalg.iterator_type<parallel>, #linalg.iterator_type<parallel>], operand_segment_sizes = array<i32: 1, 1>} : (tensor<1x197x12x64xf32>, tensor<1x12x197x64xf32>) -> tensor<1x12x197x64xf32>
    %242 = "tensor.expand_shape"(%228) {reassociation = [[0], [1], [2, 3]]} : (tensor<1x197x768xf32>) -> tensor<1x197x12x64xf32>
    %243 = "linalg.generic"(%242, %234) ({
    ^bb0(%arg1: f32, %arg2: f32):
      "linalg.yield"(%arg1) : (f32) -> ()
    }) {indexing_maps = [#map11, #map12], iterator_types = [#linalg.iterator_type<parallel>, #linalg.iterator_type<parallel>, #linalg.iterator_type<parallel>, #linalg.iterator_type<parallel>], operand_segment_sizes = array<i32: 1, 1>} : (tensor<1x197x12x64xf32>, tensor<1x12x197x64xf32>) -> tensor<1x12x197x64xf32>
    %244 = "tensor.empty"() : () -> tensor<1x12x64x197xf32>
    %245 = "linalg.generic"(%235, %244) ({
    ^bb0(%arg1: f32, %arg2: f32):
      "linalg.yield"(%arg1) : (f32) -> ()
    }) {indexing_maps = [#map11, #map13], iterator_types = [#linalg.iterator_type<parallel>, #linalg.iterator_type<parallel>, #linalg.iterator_type<parallel>, #linalg.iterator_type<parallel>], operand_segment_sizes = array<i32: 1, 1>} : (tensor<1x12x197x64xf32>, tensor<1x12x64x197xf32>) -> tensor<1x12x64x197xf32>
    %246 = "linalg.generic"(%243, %234) ({
    ^bb0(%arg1: f32, %arg2: f32):
      "linalg.yield"(%arg1) : (f32) -> ()
    }) {indexing_maps = [#map14, #map11], iterator_types = [#linalg.iterator_type<parallel>, #linalg.iterator_type<parallel>, #linalg.iterator_type<parallel>, #linalg.iterator_type<parallel>], operand_segment_sizes = array<i32: 1, 1>} : (tensor<1x12x197x64xf32>, tensor<1x12x197x64xf32>) -> tensor<1x12x197x64xf32>
    %247 = "linalg.generic"(%245, %244) ({
    ^bb0(%arg1: f32, %arg2: f32):
      "linalg.yield"(%arg1) : (f32) -> ()
    }) {indexing_maps = [#map14, #map11], iterator_types = [#linalg.iterator_type<parallel>, #linalg.iterator_type<parallel>, #linalg.iterator_type<parallel>, #linalg.iterator_type<parallel>], operand_segment_sizes = array<i32: 1, 1>} : (tensor<1x12x64x197xf32>, tensor<1x12x64x197xf32>) -> tensor<1x12x64x197xf32>
    %248 = "tensor.collapse_shape"(%246) {reassociation = [[0, 1], [2], [3]]} : (tensor<1x12x197x64xf32>) -> tensor<12x197x64xf32>
    %249 = "tensor.collapse_shape"(%247) {reassociation = [[0, 1], [2], [3]]} : (tensor<1x12x64x197xf32>) -> tensor<12x64x197xf32>
    %250 = "tensor.empty"() : () -> tensor<12x197x197xf32>
    %251 = "linalg.fill"(%198, %250) ({
    ^bb0(%arg1: f32, %arg2: f32):
      "linalg.yield"(%arg1) : (f32) -> ()
    }) {operand_segment_sizes = array<i32: 1, 1>} : (f32, tensor<12x197x197xf32>) -> tensor<12x197x197xf32>
    %252 = "linalg.batch_matmul"(%248, %249, %251) ({
    ^bb0(%arg1: f32, %arg2: f32, %arg3: f32):
      %1260 = "arith.mulf"(%arg1, %arg2) {fastmath = #arith.fastmath<none>} : (f32, f32) -> f32
      %1261 = "arith.addf"(%arg3, %1260) {fastmath = #arith.fastmath<none>} : (f32, f32) -> f32
      "linalg.yield"(%1261) : (f32) -> ()
    }) {linalg.memoized_indexing_maps = [#map8, #map9, #map10], operand_segment_sizes = array<i32: 2, 1>} : (tensor<12x197x64xf32>, tensor<12x64x197xf32>, tensor<12x197x197xf32>) -> tensor<12x197x197xf32>
    %253 = "tensor.expand_shape"(%252) {reassociation = [[0, 1], [2], [3]]} : (tensor<12x197x197xf32>) -> tensor<1x12x197x197xf32>
    %254 = "tensor.empty"() : () -> tensor<1x12x197x197xf32>
    %255 = "linalg.generic"(%253, %189, %254) ({
    ^bb0(%arg1: f32, %arg2: f64, %arg3: f32):
      %1260 = "arith.truncf"(%arg2) : (f64) -> f32
      %1261 = "arith.divf"(%arg1, %1260) {fastmath = #arith.fastmath<none>} : (f32, f32) -> f32
      "linalg.yield"(%1261) : (f32) -> ()
    }) {indexing_maps = [#map14, #map15, #map11], iterator_types = [#linalg.iterator_type<parallel>, #linalg.iterator_type<parallel>, #linalg.iterator_type<parallel>, #linalg.iterator_type<parallel>], operand_segment_sizes = array<i32: 2, 1>} : (tensor<1x12x197x197xf32>, tensor<f64>, tensor<1x12x197x197xf32>) -> tensor<1x12x197x197xf32>
    %256 = "tensor.empty"() : () -> tensor<1x12x197x1xi64>
    %257 = "linalg.fill"(%0, %256) ({
    ^bb0(%arg1: i64, %arg2: i64):
      "linalg.yield"(%arg1) : (i64) -> ()
    }) {operand_segment_sizes = array<i32: 1, 1>} : (i64, tensor<1x12x197x1xi64>) -> tensor<1x12x197x1xi64>
    %258 = "tensor.empty"() : () -> tensor<1x12x197x1xf32>
    %259 = "linalg.fill"(%199, %258) ({
    ^bb0(%arg1: f32, %arg2: f32):
      "linalg.yield"(%arg1) : (f32) -> ()
    }) {operand_segment_sizes = array<i32: 1, 1>} : (f32, tensor<1x12x197x1xf32>) -> tensor<1x12x197x1xf32>
    %260:2 = "linalg.generic"(%255, %259, %257) ({
    ^bb0(%arg1: f32, %arg2: f32, %arg3: i64):
      %1260 = "linalg.index"() {dim = 3 : i64} : () -> index
      %1261 = "arith.index_cast"(%1260) : (index) -> i64
      %1262 = "arith.maxf"(%arg1, %arg2) {fastmath = #arith.fastmath<none>} : (f32, f32) -> f32
      %1263 = "arith.cmpf"(%arg1, %arg2) {predicate = 2 : i64} : (f32, f32) -> i1
      %1264 = "arith.select"(%1263, %1261, %arg3) : (i1, i64, i64) -> i64
      "linalg.yield"(%1262, %1264) : (f32, i64) -> ()
    }) {indexing_maps = [#map11, #map16, #map16], iterator_types = [#linalg.iterator_type<parallel>, #linalg.iterator_type<parallel>, #linalg.iterator_type<parallel>, #linalg.iterator_type<reduction>], operand_segment_sizes = array<i32: 1, 2>} : (tensor<1x12x197x197xf32>, tensor<1x12x197x1xf32>, tensor<1x12x197x1xi64>) -> (tensor<1x12x197x1xf32>, tensor<1x12x197x1xi64>)
    %261 = "linalg.generic"(%255, %260#0, %254) ({
    ^bb0(%arg1: f32, %arg2: f32, %arg3: f32):
      %1260 = "arith.subf"(%arg1, %arg2) {fastmath = #arith.fastmath<none>} : (f32, f32) -> f32
      "linalg.yield"(%1260) : (f32) -> ()
    }) {indexing_maps = [#map14, #map17, #map11], iterator_types = [#linalg.iterator_type<parallel>, #linalg.iterator_type<parallel>, #linalg.iterator_type<parallel>, #linalg.iterator_type<parallel>], operand_segment_sizes = array<i32: 2, 1>} : (tensor<1x12x197x197xf32>, tensor<1x12x197x1xf32>, tensor<1x12x197x197xf32>) -> tensor<1x12x197x197xf32>
    %262 = "linalg.generic"(%261, %254) ({
    ^bb0(%arg1: f32, %arg2: f32):
      %1260 = "math.exp"(%arg1) {fastmath = #arith.fastmath<none>} : (f32) -> f32
      "linalg.yield"(%1260) : (f32) -> ()
    }) {indexing_maps = [#map14, #map11], iterator_types = [#linalg.iterator_type<parallel>, #linalg.iterator_type<parallel>, #linalg.iterator_type<parallel>, #linalg.iterator_type<parallel>], operand_segment_sizes = array<i32: 1, 1>} : (tensor<1x12x197x197xf32>, tensor<1x12x197x197xf32>) -> tensor<1x12x197x197xf32>
    %263 = "linalg.fill"(%198, %258) ({
    ^bb0(%arg1: f32, %arg2: f32):
      "linalg.yield"(%arg1) : (f32) -> ()
    }) {operand_segment_sizes = array<i32: 1, 1>} : (f32, tensor<1x12x197x1xf32>) -> tensor<1x12x197x1xf32>
    %264 = "linalg.generic"(%262, %263) ({
    ^bb0(%arg1: f32, %arg2: f32):
      %1260 = "arith.addf"(%arg1, %arg2) {fastmath = #arith.fastmath<none>} : (f32, f32) -> f32
      "linalg.yield"(%1260) : (f32) -> ()
    }) {indexing_maps = [#map11, #map16], iterator_types = [#linalg.iterator_type<parallel>, #linalg.iterator_type<parallel>, #linalg.iterator_type<parallel>, #linalg.iterator_type<reduction>], operand_segment_sizes = array<i32: 1, 1>} : (tensor<1x12x197x197xf32>, tensor<1x12x197x1xf32>) -> tensor<1x12x197x1xf32>
    %265 = "linalg.generic"(%262, %264, %254) ({
    ^bb0(%arg1: f32, %arg2: f32, %arg3: f32):
      %1260 = "arith.divf"(%arg1, %arg2) {fastmath = #arith.fastmath<none>} : (f32, f32) -> f32
      "linalg.yield"(%1260) : (f32) -> ()
    }) {indexing_maps = [#map14, #map17, #map11], iterator_types = [#linalg.iterator_type<parallel>, #linalg.iterator_type<parallel>, #linalg.iterator_type<parallel>, #linalg.iterator_type<parallel>], operand_segment_sizes = array<i32: 2, 1>} : (tensor<1x12x197x197xf32>, tensor<1x12x197x1xf32>, tensor<1x12x197x197xf32>) -> tensor<1x12x197x197xf32>
    %266 = "linalg.generic"(%265, %254) ({
    ^bb0(%arg1: f32, %arg2: f32):
      "linalg.yield"(%arg1) : (f32) -> ()
    }) {indexing_maps = [#map14, #map11], iterator_types = [#linalg.iterator_type<parallel>, #linalg.iterator_type<parallel>, #linalg.iterator_type<parallel>, #linalg.iterator_type<parallel>], operand_segment_sizes = array<i32: 1, 1>} : (tensor<1x12x197x197xf32>, tensor<1x12x197x197xf32>) -> tensor<1x12x197x197xf32>
    %267 = "linalg.generic"(%241, %234) ({
    ^bb0(%arg1: f32, %arg2: f32):
      "linalg.yield"(%arg1) : (f32) -> ()
    }) {indexing_maps = [#map14, #map11], iterator_types = [#linalg.iterator_type<parallel>, #linalg.iterator_type<parallel>, #linalg.iterator_type<parallel>, #linalg.iterator_type<parallel>], operand_segment_sizes = array<i32: 1, 1>} : (tensor<1x12x197x64xf32>, tensor<1x12x197x64xf32>) -> tensor<1x12x197x64xf32>
    %268 = "tensor.collapse_shape"(%266) {reassociation = [[0, 1], [2], [3]]} : (tensor<1x12x197x197xf32>) -> tensor<12x197x197xf32>
    %269 = "tensor.collapse_shape"(%267) {reassociation = [[0, 1], [2], [3]]} : (tensor<1x12x197x64xf32>) -> tensor<12x197x64xf32>
    %270 = "tensor.empty"() : () -> tensor<12x197x64xf32>
    %271 = "linalg.fill"(%198, %270) ({
    ^bb0(%arg1: f32, %arg2: f32):
      "linalg.yield"(%arg1) : (f32) -> ()
    }) {operand_segment_sizes = array<i32: 1, 1>} : (f32, tensor<12x197x64xf32>) -> tensor<12x197x64xf32>
    %272 = "linalg.batch_matmul"(%268, %269, %271) ({
    ^bb0(%arg1: f32, %arg2: f32, %arg3: f32):
      %1260 = "arith.mulf"(%arg1, %arg2) {fastmath = #arith.fastmath<none>} : (f32, f32) -> f32
      %1261 = "arith.addf"(%arg3, %1260) {fastmath = #arith.fastmath<none>} : (f32, f32) -> f32
      "linalg.yield"(%1261) : (f32) -> ()
    }) {linalg.memoized_indexing_maps = [#map8, #map9, #map10], operand_segment_sizes = array<i32: 2, 1>} : (tensor<12x197x197xf32>, tensor<12x197x64xf32>, tensor<12x197x64xf32>) -> tensor<12x197x64xf32>
    %273 = "tensor.expand_shape"(%272) {reassociation = [[0, 1], [2], [3]]} : (tensor<12x197x64xf32>) -> tensor<1x12x197x64xf32>
    %274 = "tensor.empty"() : () -> tensor<1x197x12x64xf32>
    %275 = "linalg.generic"(%273, %274) ({
    ^bb0(%arg1: f32, %arg2: f32):
      "linalg.yield"(%arg1) : (f32) -> ()
    }) {indexing_maps = [#map11, #map12], iterator_types = [#linalg.iterator_type<parallel>, #linalg.iterator_type<parallel>, #linalg.iterator_type<parallel>, #linalg.iterator_type<parallel>], operand_segment_sizes = array<i32: 1, 1>} : (tensor<1x12x197x64xf32>, tensor<1x197x12x64xf32>) -> tensor<1x197x12x64xf32>
    %276 = "tensor.collapse_shape"(%275) {reassociation = [[0], [1], [2, 3]]} : (tensor<1x197x12x64xf32>) -> tensor<1x197x768xf32>
    %277 = "linalg.generic"(%187, %221) ({
    ^bb0(%arg1: f32, %arg2: f32):
      "linalg.yield"(%arg1) : (f32) -> ()
    }) {indexing_maps = [#map5, #map6], iterator_types = [#linalg.iterator_type<parallel>, #linalg.iterator_type<parallel>], operand_segment_sizes = array<i32: 1, 1>} : (tensor<768x768xf32>, tensor<768x768xf32>) -> tensor<768x768xf32>
    %278 = "linalg.generic"(%276, %209) ({
    ^bb0(%arg1: f32, %arg2: f32):
      "linalg.yield"(%arg1) : (f32) -> ()
    }) {indexing_maps = [#map3, #map], iterator_types = [#linalg.iterator_type<parallel>, #linalg.iterator_type<parallel>, #linalg.iterator_type<parallel>], operand_segment_sizes = array<i32: 1, 1>} : (tensor<1x197x768xf32>, tensor<1x197x768xf32>) -> tensor<1x197x768xf32>
    %279 = "linalg.generic"(%277, %224) ({
    ^bb0(%arg1: f32, %arg2: f32):
      "linalg.yield"(%arg1) : (f32) -> ()
    }) {indexing_maps = [#map7, #map], iterator_types = [#linalg.iterator_type<parallel>, #linalg.iterator_type<parallel>, #linalg.iterator_type<parallel>], operand_segment_sizes = array<i32: 1, 1>} : (tensor<768x768xf32>, tensor<1x768x768xf32>) -> tensor<1x768x768xf32>
    %280 = "linalg.batch_matmul"(%278, %279, %226) ({
    ^bb0(%arg1: f32, %arg2: f32, %arg3: f32):
      %1260 = "arith.mulf"(%arg1, %arg2) {fastmath = #arith.fastmath<none>} : (f32, f32) -> f32
      %1261 = "arith.addf"(%arg3, %1260) {fastmath = #arith.fastmath<none>} : (f32, f32) -> f32
      "linalg.yield"(%1261) : (f32) -> ()
    }) {linalg.memoized_indexing_maps = [#map8, #map9, #map10], operand_segment_sizes = array<i32: 2, 1>} : (tensor<1x197x768xf32>, tensor<1x768x768xf32>, tensor<1x197x768xf32>) -> tensor<1x197x768xf32>
    %281 = "linalg.generic"(%280, %188, %209) ({
    ^bb0(%arg1: f32, %arg2: f32, %arg3: f32):
      %1260 = "arith.addf"(%arg1, %arg2) {fastmath = #arith.fastmath<none>} : (f32, f32) -> f32
      "linalg.yield"(%1260) : (f32) -> ()
    }) {indexing_maps = [#map3, #map4, #map], iterator_types = [#linalg.iterator_type<parallel>, #linalg.iterator_type<parallel>, #linalg.iterator_type<parallel>], operand_segment_sizes = array<i32: 2, 1>} : (tensor<1x197x768xf32>, tensor<768xf32>, tensor<1x197x768xf32>) -> tensor<1x197x768xf32>
    %282 = "linalg.generic"(%281, %arg0, %209) ({
    ^bb0(%arg1: f32, %arg2: f32, %arg3: f32):
      %1260 = "arith.addf"(%arg1, %arg2) {fastmath = #arith.fastmath<none>} : (f32, f32) -> f32
      "linalg.yield"(%1260) : (f32) -> ()
    }) {indexing_maps = [#map3, #map3, #map], iterator_types = [#linalg.iterator_type<parallel>, #linalg.iterator_type<parallel>, #linalg.iterator_type<parallel>], operand_segment_sizes = array<i32: 2, 1>} : (tensor<1x197x768xf32>, tensor<1x197x768xf32>, tensor<1x197x768xf32>) -> tensor<1x197x768xf32>
    %283 = "linalg.generic"(%282, %206) ({
    ^bb0(%arg1: f32, %arg2: f32):
      %1260 = "arith.addf"(%arg1, %arg2) {fastmath = #arith.fastmath<none>} : (f32, f32) -> f32
      "linalg.yield"(%1260) : (f32) -> ()
    }) {indexing_maps = [#map, #map1], iterator_types = [#linalg.iterator_type<parallel>, #linalg.iterator_type<parallel>, #linalg.iterator_type<reduction>], operand_segment_sizes = array<i32: 1, 1>} : (tensor<1x197x768xf32>, tensor<1x197x1xf32>) -> tensor<1x197x1xf32>
    %284 = "linalg.generic"(%283, %205) ({
    ^bb0(%arg1: f32, %arg2: f32):
      %1260 = "arith.divf"(%arg1, %204) {fastmath = #arith.fastmath<none>} : (f32, f32) -> f32
      "linalg.yield"(%1260) : (f32) -> ()
    }) {indexing_maps = [#map2, #map], iterator_types = [#linalg.iterator_type<parallel>, #linalg.iterator_type<parallel>, #linalg.iterator_type<parallel>], operand_segment_sizes = array<i32: 1, 1>} : (tensor<1x197x1xf32>, tensor<1x197x1xf32>) -> tensor<1x197x1xf32>
    %285 = "linalg.generic"(%284, %209) ({
    ^bb0(%arg1: f32, %arg2: f32):
      "linalg.yield"(%arg1) : (f32) -> ()
    }) {indexing_maps = [#map2, #map], iterator_types = [#linalg.iterator_type<parallel>, #linalg.iterator_type<parallel>, #linalg.iterator_type<parallel>], operand_segment_sizes = array<i32: 1, 1>} : (tensor<1x197x1xf32>, tensor<1x197x768xf32>) -> tensor<1x197x768xf32>
    %286 = "linalg.generic"(%282, %285, %209) ({
    ^bb0(%arg1: f32, %arg2: f32, %arg3: f32):
      %1260 = "arith.subf"(%arg1, %arg2) {fastmath = #arith.fastmath<none>} : (f32, f32) -> f32
      "linalg.yield"(%1260) : (f32) -> ()
    }) {indexing_maps = [#map3, #map3, #map], iterator_types = [#linalg.iterator_type<parallel>, #linalg.iterator_type<parallel>, #linalg.iterator_type<parallel>], operand_segment_sizes = array<i32: 2, 1>} : (tensor<1x197x768xf32>, tensor<1x197x768xf32>, tensor<1x197x768xf32>) -> tensor<1x197x768xf32>
    %287 = "linalg.generic"(%286, %286, %209) ({
    ^bb0(%arg1: f32, %arg2: f32, %arg3: f32):
      %1260 = "arith.mulf"(%arg1, %arg2) {fastmath = #arith.fastmath<none>} : (f32, f32) -> f32
      "linalg.yield"(%1260) : (f32) -> ()
    }) {indexing_maps = [#map3, #map3, #map], iterator_types = [#linalg.iterator_type<parallel>, #linalg.iterator_type<parallel>, #linalg.iterator_type<parallel>], operand_segment_sizes = array<i32: 2, 1>} : (tensor<1x197x768xf32>, tensor<1x197x768xf32>, tensor<1x197x768xf32>) -> tensor<1x197x768xf32>
    %288 = "linalg.generic"(%287, %206) ({
    ^bb0(%arg1: f32, %arg2: f32):
      %1260 = "arith.addf"(%arg1, %arg2) {fastmath = #arith.fastmath<none>} : (f32, f32) -> f32
      "linalg.yield"(%1260) : (f32) -> ()
    }) {indexing_maps = [#map, #map1], iterator_types = [#linalg.iterator_type<parallel>, #linalg.iterator_type<parallel>, #linalg.iterator_type<reduction>], operand_segment_sizes = array<i32: 1, 1>} : (tensor<1x197x768xf32>, tensor<1x197x1xf32>) -> tensor<1x197x1xf32>
    %289 = "linalg.generic"(%288, %205) ({
    ^bb0(%arg1: f32, %arg2: f32):
      %1260 = "arith.divf"(%arg1, %204) {fastmath = #arith.fastmath<none>} : (f32, f32) -> f32
      "linalg.yield"(%1260) : (f32) -> ()
    }) {indexing_maps = [#map2, #map], iterator_types = [#linalg.iterator_type<parallel>, #linalg.iterator_type<parallel>, #linalg.iterator_type<parallel>], operand_segment_sizes = array<i32: 1, 1>} : (tensor<1x197x1xf32>, tensor<1x197x1xf32>) -> tensor<1x197x1xf32>
    %290 = "linalg.generic"(%289, %205) ({
    ^bb0(%arg1: f32, %arg2: f32):
      %1260 = "arith.truncf"(%203) : (f64) -> f32
      %1261 = "arith.addf"(%arg1, %1260) {fastmath = #arith.fastmath<none>} : (f32, f32) -> f32
      "linalg.yield"(%1261) : (f32) -> ()
    }) {indexing_maps = [#map2, #map], iterator_types = [#linalg.iterator_type<parallel>, #linalg.iterator_type<parallel>, #linalg.iterator_type<parallel>], operand_segment_sizes = array<i32: 1, 1>} : (tensor<1x197x1xf32>, tensor<1x197x1xf32>) -> tensor<1x197x1xf32>
    %291 = "linalg.generic"(%290, %205) ({
    ^bb0(%arg1: f32, %arg2: f32):
      %1260 = "math.rsqrt"(%arg1) {fastmath = #arith.fastmath<none>} : (f32) -> f32
      "linalg.yield"(%1260) : (f32) -> ()
    }) {indexing_maps = [#map2, #map], iterator_types = [#linalg.iterator_type<parallel>, #linalg.iterator_type<parallel>, #linalg.iterator_type<parallel>], operand_segment_sizes = array<i32: 1, 1>} : (tensor<1x197x1xf32>, tensor<1x197x1xf32>) -> tensor<1x197x1xf32>
    %292 = "linalg.generic"(%291, %209) ({
    ^bb0(%arg1: f32, %arg2: f32):
      "linalg.yield"(%arg1) : (f32) -> ()
    }) {indexing_maps = [#map2, #map], iterator_types = [#linalg.iterator_type<parallel>, #linalg.iterator_type<parallel>, #linalg.iterator_type<parallel>], operand_segment_sizes = array<i32: 1, 1>} : (tensor<1x197x1xf32>, tensor<1x197x768xf32>) -> tensor<1x197x768xf32>
    %293 = "linalg.generic"(%286, %292, %209) ({
    ^bb0(%arg1: f32, %arg2: f32, %arg3: f32):
      %1260 = "arith.mulf"(%arg1, %arg2) {fastmath = #arith.fastmath<none>} : (f32, f32) -> f32
      "linalg.yield"(%1260) : (f32) -> ()
    }) {indexing_maps = [#map3, #map3, #map], iterator_types = [#linalg.iterator_type<parallel>, #linalg.iterator_type<parallel>, #linalg.iterator_type<parallel>], operand_segment_sizes = array<i32: 2, 1>} : (tensor<1x197x768xf32>, tensor<1x197x768xf32>, tensor<1x197x768xf32>) -> tensor<1x197x768xf32>
    %294 = "linalg.generic"(%293, %185, %209) ({
    ^bb0(%arg1: f32, %arg2: f32, %arg3: f32):
      %1260 = "arith.mulf"(%arg1, %arg2) {fastmath = #arith.fastmath<none>} : (f32, f32) -> f32
      "linalg.yield"(%1260) : (f32) -> ()
    }) {indexing_maps = [#map3, #map4, #map], iterator_types = [#linalg.iterator_type<parallel>, #linalg.iterator_type<parallel>, #linalg.iterator_type<parallel>], operand_segment_sizes = array<i32: 2, 1>} : (tensor<1x197x768xf32>, tensor<768xf32>, tensor<1x197x768xf32>) -> tensor<1x197x768xf32>
    %295 = "linalg.generic"(%294, %186, %209) ({
    ^bb0(%arg1: f32, %arg2: f32, %arg3: f32):
      %1260 = "arith.addf"(%arg1, %arg2) {fastmath = #arith.fastmath<none>} : (f32, f32) -> f32
      "linalg.yield"(%1260) : (f32) -> ()
    }) {indexing_maps = [#map3, #map4, #map], iterator_types = [#linalg.iterator_type<parallel>, #linalg.iterator_type<parallel>, #linalg.iterator_type<parallel>], operand_segment_sizes = array<i32: 2, 1>} : (tensor<1x197x768xf32>, tensor<768xf32>, tensor<1x197x768xf32>) -> tensor<1x197x768xf32>
    %296 = "tensor.empty"() : () -> tensor<768x3072xf32>
    %297 = "linalg.generic"(%183, %296) ({
    ^bb0(%arg1: f32, %arg2: f32):
      "linalg.yield"(%arg1) : (f32) -> ()
    }) {indexing_maps = [#map5, #map6], iterator_types = [#linalg.iterator_type<parallel>, #linalg.iterator_type<parallel>], operand_segment_sizes = array<i32: 1, 1>} : (tensor<3072x768xf32>, tensor<768x3072xf32>) -> tensor<768x3072xf32>
    %298 = "linalg.generic"(%295, %209) ({
    ^bb0(%arg1: f32, %arg2: f32):
      "linalg.yield"(%arg1) : (f32) -> ()
    }) {indexing_maps = [#map3, #map], iterator_types = [#linalg.iterator_type<parallel>, #linalg.iterator_type<parallel>, #linalg.iterator_type<parallel>], operand_segment_sizes = array<i32: 1, 1>} : (tensor<1x197x768xf32>, tensor<1x197x768xf32>) -> tensor<1x197x768xf32>
    %299 = "tensor.empty"() : () -> tensor<1x768x3072xf32>
    %300 = "linalg.generic"(%297, %299) ({
    ^bb0(%arg1: f32, %arg2: f32):
      "linalg.yield"(%arg1) : (f32) -> ()
    }) {indexing_maps = [#map7, #map], iterator_types = [#linalg.iterator_type<parallel>, #linalg.iterator_type<parallel>, #linalg.iterator_type<parallel>], operand_segment_sizes = array<i32: 1, 1>} : (tensor<768x3072xf32>, tensor<1x768x3072xf32>) -> tensor<1x768x3072xf32>
    %301 = "tensor.empty"() : () -> tensor<1x197x3072xf32>
    %302 = "linalg.fill"(%198, %301) ({
    ^bb0(%arg1: f32, %arg2: f32):
      "linalg.yield"(%arg1) : (f32) -> ()
    }) {operand_segment_sizes = array<i32: 1, 1>} : (f32, tensor<1x197x3072xf32>) -> tensor<1x197x3072xf32>
    %303 = "linalg.batch_matmul"(%298, %300, %302) ({
    ^bb0(%arg1: f32, %arg2: f32, %arg3: f32):
      %1260 = "arith.mulf"(%arg1, %arg2) {fastmath = #arith.fastmath<none>} : (f32, f32) -> f32
      %1261 = "arith.addf"(%arg3, %1260) {fastmath = #arith.fastmath<none>} : (f32, f32) -> f32
      "linalg.yield"(%1261) : (f32) -> ()
    }) {linalg.memoized_indexing_maps = [#map8, #map9, #map10], operand_segment_sizes = array<i32: 2, 1>} : (tensor<1x197x768xf32>, tensor<1x768x3072xf32>, tensor<1x197x3072xf32>) -> tensor<1x197x3072xf32>
    %304 = "linalg.generic"(%303, %184, %301) ({
    ^bb0(%arg1: f32, %arg2: f32, %arg3: f32):
      %1260 = "arith.addf"(%arg1, %arg2) {fastmath = #arith.fastmath<none>} : (f32, f32) -> f32
      "linalg.yield"(%1260) : (f32) -> ()
    }) {indexing_maps = [#map3, #map4, #map], iterator_types = [#linalg.iterator_type<parallel>, #linalg.iterator_type<parallel>, #linalg.iterator_type<parallel>], operand_segment_sizes = array<i32: 2, 1>} : (tensor<1x197x3072xf32>, tensor<3072xf32>, tensor<1x197x3072xf32>) -> tensor<1x197x3072xf32>
    %305 = "linalg.generic"(%304, %301) ({
    ^bb0(%arg1: f32, %arg2: f32):
      %1260 = "arith.divf"(%arg1, %201) {fastmath = #arith.fastmath<none>} : (f32, f32) -> f32
      %1261 = "math.erf"(%1260) {fastmath = #arith.fastmath<none>} : (f32) -> f32
      %1262 = "arith.addf"(%1261, %200) {fastmath = #arith.fastmath<none>} : (f32, f32) -> f32
      %1263 = "arith.mulf"(%1262, %202) {fastmath = #arith.fastmath<none>} : (f32, f32) -> f32
      %1264 = "arith.mulf"(%arg1, %1263) {fastmath = #arith.fastmath<none>} : (f32, f32) -> f32
      "linalg.yield"(%1264) : (f32) -> ()
    }) {indexing_maps = [#map3, #map], iterator_types = [#linalg.iterator_type<parallel>, #linalg.iterator_type<parallel>, #linalg.iterator_type<parallel>], operand_segment_sizes = array<i32: 1, 1>} : (tensor<1x197x3072xf32>, tensor<1x197x3072xf32>) -> tensor<1x197x3072xf32>
    %306 = "tensor.empty"() : () -> tensor<3072x768xf32>
    %307 = "linalg.generic"(%181, %306) ({
    ^bb0(%arg1: f32, %arg2: f32):
      "linalg.yield"(%arg1) : (f32) -> ()
    }) {indexing_maps = [#map5, #map6], iterator_types = [#linalg.iterator_type<parallel>, #linalg.iterator_type<parallel>], operand_segment_sizes = array<i32: 1, 1>} : (tensor<768x3072xf32>, tensor<3072x768xf32>) -> tensor<3072x768xf32>
    %308 = "linalg.generic"(%305, %301) ({
    ^bb0(%arg1: f32, %arg2: f32):
      "linalg.yield"(%arg1) : (f32) -> ()
    }) {indexing_maps = [#map3, #map], iterator_types = [#linalg.iterator_type<parallel>, #linalg.iterator_type<parallel>, #linalg.iterator_type<parallel>], operand_segment_sizes = array<i32: 1, 1>} : (tensor<1x197x3072xf32>, tensor<1x197x3072xf32>) -> tensor<1x197x3072xf32>
    %309 = "tensor.empty"() : () -> tensor<1x3072x768xf32>
    %310 = "linalg.generic"(%307, %309) ({
    ^bb0(%arg1: f32, %arg2: f32):
      "linalg.yield"(%arg1) : (f32) -> ()
    }) {indexing_maps = [#map7, #map], iterator_types = [#linalg.iterator_type<parallel>, #linalg.iterator_type<parallel>, #linalg.iterator_type<parallel>], operand_segment_sizes = array<i32: 1, 1>} : (tensor<3072x768xf32>, tensor<1x3072x768xf32>) -> tensor<1x3072x768xf32>
    %311 = "linalg.batch_matmul"(%308, %310, %226) ({
    ^bb0(%arg1: f32, %arg2: f32, %arg3: f32):
      %1260 = "arith.mulf"(%arg1, %arg2) {fastmath = #arith.fastmath<none>} : (f32, f32) -> f32
      %1261 = "arith.addf"(%arg3, %1260) {fastmath = #arith.fastmath<none>} : (f32, f32) -> f32
      "linalg.yield"(%1261) : (f32) -> ()
    }) {linalg.memoized_indexing_maps = [#map8, #map9, #map10], operand_segment_sizes = array<i32: 2, 1>} : (tensor<1x197x3072xf32>, tensor<1x3072x768xf32>, tensor<1x197x768xf32>) -> tensor<1x197x768xf32>
    %312 = "linalg.generic"(%311, %182, %209) ({
    ^bb0(%arg1: f32, %arg2: f32, %arg3: f32):
      %1260 = "arith.addf"(%arg1, %arg2) {fastmath = #arith.fastmath<none>} : (f32, f32) -> f32
      "linalg.yield"(%1260) : (f32) -> ()
    }) {indexing_maps = [#map3, #map4, #map], iterator_types = [#linalg.iterator_type<parallel>, #linalg.iterator_type<parallel>, #linalg.iterator_type<parallel>], operand_segment_sizes = array<i32: 2, 1>} : (tensor<1x197x768xf32>, tensor<768xf32>, tensor<1x197x768xf32>) -> tensor<1x197x768xf32>
    %313 = "linalg.generic"(%312, %282, %209) ({
    ^bb0(%arg1: f32, %arg2: f32, %arg3: f32):
      %1260 = "arith.addf"(%arg1, %arg2) {fastmath = #arith.fastmath<none>} : (f32, f32) -> f32
      "linalg.yield"(%1260) : (f32) -> ()
    }) {indexing_maps = [#map3, #map3, #map], iterator_types = [#linalg.iterator_type<parallel>, #linalg.iterator_type<parallel>, #linalg.iterator_type<parallel>], operand_segment_sizes = array<i32: 2, 1>} : (tensor<1x197x768xf32>, tensor<1x197x768xf32>, tensor<1x197x768xf32>) -> tensor<1x197x768xf32>
    %314 = "linalg.generic"(%313, %206) ({
    ^bb0(%arg1: f32, %arg2: f32):
      %1260 = "arith.addf"(%arg1, %arg2) {fastmath = #arith.fastmath<none>} : (f32, f32) -> f32
      "linalg.yield"(%1260) : (f32) -> ()
    }) {indexing_maps = [#map, #map1], iterator_types = [#linalg.iterator_type<parallel>, #linalg.iterator_type<parallel>, #linalg.iterator_type<reduction>], operand_segment_sizes = array<i32: 1, 1>} : (tensor<1x197x768xf32>, tensor<1x197x1xf32>) -> tensor<1x197x1xf32>
    %315 = "linalg.generic"(%314, %205) ({
    ^bb0(%arg1: f32, %arg2: f32):
      %1260 = "arith.divf"(%arg1, %204) {fastmath = #arith.fastmath<none>} : (f32, f32) -> f32
      "linalg.yield"(%1260) : (f32) -> ()
    }) {indexing_maps = [#map2, #map], iterator_types = [#linalg.iterator_type<parallel>, #linalg.iterator_type<parallel>, #linalg.iterator_type<parallel>], operand_segment_sizes = array<i32: 1, 1>} : (tensor<1x197x1xf32>, tensor<1x197x1xf32>) -> tensor<1x197x1xf32>
    %316 = "linalg.generic"(%315, %209) ({
    ^bb0(%arg1: f32, %arg2: f32):
      "linalg.yield"(%arg1) : (f32) -> ()
    }) {indexing_maps = [#map2, #map], iterator_types = [#linalg.iterator_type<parallel>, #linalg.iterator_type<parallel>, #linalg.iterator_type<parallel>], operand_segment_sizes = array<i32: 1, 1>} : (tensor<1x197x1xf32>, tensor<1x197x768xf32>) -> tensor<1x197x768xf32>
    %317 = "linalg.generic"(%313, %316, %209) ({
    ^bb0(%arg1: f32, %arg2: f32, %arg3: f32):
      %1260 = "arith.subf"(%arg1, %arg2) {fastmath = #arith.fastmath<none>} : (f32, f32) -> f32
      "linalg.yield"(%1260) : (f32) -> ()
    }) {indexing_maps = [#map3, #map3, #map], iterator_types = [#linalg.iterator_type<parallel>, #linalg.iterator_type<parallel>, #linalg.iterator_type<parallel>], operand_segment_sizes = array<i32: 2, 1>} : (tensor<1x197x768xf32>, tensor<1x197x768xf32>, tensor<1x197x768xf32>) -> tensor<1x197x768xf32>
    %318 = "linalg.generic"(%317, %317, %209) ({
    ^bb0(%arg1: f32, %arg2: f32, %arg3: f32):
      %1260 = "arith.mulf"(%arg1, %arg2) {fastmath = #arith.fastmath<none>} : (f32, f32) -> f32
      "linalg.yield"(%1260) : (f32) -> ()
    }) {indexing_maps = [#map3, #map3, #map], iterator_types = [#linalg.iterator_type<parallel>, #linalg.iterator_type<parallel>, #linalg.iterator_type<parallel>], operand_segment_sizes = array<i32: 2, 1>} : (tensor<1x197x768xf32>, tensor<1x197x768xf32>, tensor<1x197x768xf32>) -> tensor<1x197x768xf32>
    %319 = "linalg.generic"(%318, %206) ({
    ^bb0(%arg1: f32, %arg2: f32):
      %1260 = "arith.addf"(%arg1, %arg2) {fastmath = #arith.fastmath<none>} : (f32, f32) -> f32
      "linalg.yield"(%1260) : (f32) -> ()
    }) {indexing_maps = [#map, #map1], iterator_types = [#linalg.iterator_type<parallel>, #linalg.iterator_type<parallel>, #linalg.iterator_type<reduction>], operand_segment_sizes = array<i32: 1, 1>} : (tensor<1x197x768xf32>, tensor<1x197x1xf32>) -> tensor<1x197x1xf32>
    %320 = "linalg.generic"(%319, %205) ({
    ^bb0(%arg1: f32, %arg2: f32):
      %1260 = "arith.divf"(%arg1, %204) {fastmath = #arith.fastmath<none>} : (f32, f32) -> f32
      "linalg.yield"(%1260) : (f32) -> ()
    }) {indexing_maps = [#map2, #map], iterator_types = [#linalg.iterator_type<parallel>, #linalg.iterator_type<parallel>, #linalg.iterator_type<parallel>], operand_segment_sizes = array<i32: 1, 1>} : (tensor<1x197x1xf32>, tensor<1x197x1xf32>) -> tensor<1x197x1xf32>
    %321 = "linalg.generic"(%320, %205) ({
    ^bb0(%arg1: f32, %arg2: f32):
      %1260 = "arith.truncf"(%203) : (f64) -> f32
      %1261 = "arith.addf"(%arg1, %1260) {fastmath = #arith.fastmath<none>} : (f32, f32) -> f32
      "linalg.yield"(%1261) : (f32) -> ()
    }) {indexing_maps = [#map2, #map], iterator_types = [#linalg.iterator_type<parallel>, #linalg.iterator_type<parallel>, #linalg.iterator_type<parallel>], operand_segment_sizes = array<i32: 1, 1>} : (tensor<1x197x1xf32>, tensor<1x197x1xf32>) -> tensor<1x197x1xf32>
    %322 = "linalg.generic"(%321, %205) ({
    ^bb0(%arg1: f32, %arg2: f32):
      %1260 = "math.rsqrt"(%arg1) {fastmath = #arith.fastmath<none>} : (f32) -> f32
      "linalg.yield"(%1260) : (f32) -> ()
    }) {indexing_maps = [#map2, #map], iterator_types = [#linalg.iterator_type<parallel>, #linalg.iterator_type<parallel>, #linalg.iterator_type<parallel>], operand_segment_sizes = array<i32: 1, 1>} : (tensor<1x197x1xf32>, tensor<1x197x1xf32>) -> tensor<1x197x1xf32>
    %323 = "linalg.generic"(%322, %209) ({
    ^bb0(%arg1: f32, %arg2: f32):
      "linalg.yield"(%arg1) : (f32) -> ()
    }) {indexing_maps = [#map2, #map], iterator_types = [#linalg.iterator_type<parallel>, #linalg.iterator_type<parallel>, #linalg.iterator_type<parallel>], operand_segment_sizes = array<i32: 1, 1>} : (tensor<1x197x1xf32>, tensor<1x197x768xf32>) -> tensor<1x197x768xf32>
    %324 = "linalg.generic"(%317, %323, %209) ({
    ^bb0(%arg1: f32, %arg2: f32, %arg3: f32):
      %1260 = "arith.mulf"(%arg1, %arg2) {fastmath = #arith.fastmath<none>} : (f32, f32) -> f32
      "linalg.yield"(%1260) : (f32) -> ()
    }) {indexing_maps = [#map3, #map3, #map], iterator_types = [#linalg.iterator_type<parallel>, #linalg.iterator_type<parallel>, #linalg.iterator_type<parallel>], operand_segment_sizes = array<i32: 2, 1>} : (tensor<1x197x768xf32>, tensor<1x197x768xf32>, tensor<1x197x768xf32>) -> tensor<1x197x768xf32>
    %325 = "linalg.generic"(%324, %179, %209) ({
    ^bb0(%arg1: f32, %arg2: f32, %arg3: f32):
      %1260 = "arith.mulf"(%arg1, %arg2) {fastmath = #arith.fastmath<none>} : (f32, f32) -> f32
      "linalg.yield"(%1260) : (f32) -> ()
    }) {indexing_maps = [#map3, #map4, #map], iterator_types = [#linalg.iterator_type<parallel>, #linalg.iterator_type<parallel>, #linalg.iterator_type<parallel>], operand_segment_sizes = array<i32: 2, 1>} : (tensor<1x197x768xf32>, tensor<768xf32>, tensor<1x197x768xf32>) -> tensor<1x197x768xf32>
    %326 = "linalg.generic"(%325, %180, %209) ({
    ^bb0(%arg1: f32, %arg2: f32, %arg3: f32):
      %1260 = "arith.addf"(%arg1, %arg2) {fastmath = #arith.fastmath<none>} : (f32, f32) -> f32
      "linalg.yield"(%1260) : (f32) -> ()
    }) {indexing_maps = [#map3, #map4, #map], iterator_types = [#linalg.iterator_type<parallel>, #linalg.iterator_type<parallel>, #linalg.iterator_type<parallel>], operand_segment_sizes = array<i32: 2, 1>} : (tensor<1x197x768xf32>, tensor<768xf32>, tensor<1x197x768xf32>) -> tensor<1x197x768xf32>
    %327 = "linalg.generic"(%177, %221) ({
    ^bb0(%arg1: f32, %arg2: f32):
      "linalg.yield"(%arg1) : (f32) -> ()
    }) {indexing_maps = [#map5, #map6], iterator_types = [#linalg.iterator_type<parallel>, #linalg.iterator_type<parallel>], operand_segment_sizes = array<i32: 1, 1>} : (tensor<768x768xf32>, tensor<768x768xf32>) -> tensor<768x768xf32>
    %328 = "linalg.generic"(%326, %209) ({
    ^bb0(%arg1: f32, %arg2: f32):
      "linalg.yield"(%arg1) : (f32) -> ()
    }) {indexing_maps = [#map3, #map], iterator_types = [#linalg.iterator_type<parallel>, #linalg.iterator_type<parallel>, #linalg.iterator_type<parallel>], operand_segment_sizes = array<i32: 1, 1>} : (tensor<1x197x768xf32>, tensor<1x197x768xf32>) -> tensor<1x197x768xf32>
    %329 = "linalg.generic"(%327, %224) ({
    ^bb0(%arg1: f32, %arg2: f32):
      "linalg.yield"(%arg1) : (f32) -> ()
    }) {indexing_maps = [#map7, #map], iterator_types = [#linalg.iterator_type<parallel>, #linalg.iterator_type<parallel>, #linalg.iterator_type<parallel>], operand_segment_sizes = array<i32: 1, 1>} : (tensor<768x768xf32>, tensor<1x768x768xf32>) -> tensor<1x768x768xf32>
    %330 = "linalg.batch_matmul"(%328, %329, %226) ({
    ^bb0(%arg1: f32, %arg2: f32, %arg3: f32):
      %1260 = "arith.mulf"(%arg1, %arg2) {fastmath = #arith.fastmath<none>} : (f32, f32) -> f32
      %1261 = "arith.addf"(%arg3, %1260) {fastmath = #arith.fastmath<none>} : (f32, f32) -> f32
      "linalg.yield"(%1261) : (f32) -> ()
    }) {linalg.memoized_indexing_maps = [#map8, #map9, #map10], operand_segment_sizes = array<i32: 2, 1>} : (tensor<1x197x768xf32>, tensor<1x768x768xf32>, tensor<1x197x768xf32>) -> tensor<1x197x768xf32>
    %331 = "linalg.generic"(%330, %178, %209) ({
    ^bb0(%arg1: f32, %arg2: f32, %arg3: f32):
      %1260 = "arith.addf"(%arg1, %arg2) {fastmath = #arith.fastmath<none>} : (f32, f32) -> f32
      "linalg.yield"(%1260) : (f32) -> ()
    }) {indexing_maps = [#map3, #map4, #map], iterator_types = [#linalg.iterator_type<parallel>, #linalg.iterator_type<parallel>, #linalg.iterator_type<parallel>], operand_segment_sizes = array<i32: 2, 1>} : (tensor<1x197x768xf32>, tensor<768xf32>, tensor<1x197x768xf32>) -> tensor<1x197x768xf32>
    %332 = "linalg.generic"(%175, %221) ({
    ^bb0(%arg1: f32, %arg2: f32):
      "linalg.yield"(%arg1) : (f32) -> ()
    }) {indexing_maps = [#map5, #map6], iterator_types = [#linalg.iterator_type<parallel>, #linalg.iterator_type<parallel>], operand_segment_sizes = array<i32: 1, 1>} : (tensor<768x768xf32>, tensor<768x768xf32>) -> tensor<768x768xf32>
    %333 = "linalg.generic"(%332, %224) ({
    ^bb0(%arg1: f32, %arg2: f32):
      "linalg.yield"(%arg1) : (f32) -> ()
    }) {indexing_maps = [#map7, #map], iterator_types = [#linalg.iterator_type<parallel>, #linalg.iterator_type<parallel>, #linalg.iterator_type<parallel>], operand_segment_sizes = array<i32: 1, 1>} : (tensor<768x768xf32>, tensor<1x768x768xf32>) -> tensor<1x768x768xf32>
    %334 = "linalg.batch_matmul"(%328, %333, %226) ({
    ^bb0(%arg1: f32, %arg2: f32, %arg3: f32):
      %1260 = "arith.mulf"(%arg1, %arg2) {fastmath = #arith.fastmath<none>} : (f32, f32) -> f32
      %1261 = "arith.addf"(%arg3, %1260) {fastmath = #arith.fastmath<none>} : (f32, f32) -> f32
      "linalg.yield"(%1261) : (f32) -> ()
    }) {linalg.memoized_indexing_maps = [#map8, #map9, #map10], operand_segment_sizes = array<i32: 2, 1>} : (tensor<1x197x768xf32>, tensor<1x768x768xf32>, tensor<1x197x768xf32>) -> tensor<1x197x768xf32>
    %335 = "linalg.generic"(%334, %176, %209) ({
    ^bb0(%arg1: f32, %arg2: f32, %arg3: f32):
      %1260 = "arith.addf"(%arg1, %arg2) {fastmath = #arith.fastmath<none>} : (f32, f32) -> f32
      "linalg.yield"(%1260) : (f32) -> ()
    }) {indexing_maps = [#map3, #map4, #map], iterator_types = [#linalg.iterator_type<parallel>, #linalg.iterator_type<parallel>, #linalg.iterator_type<parallel>], operand_segment_sizes = array<i32: 2, 1>} : (tensor<1x197x768xf32>, tensor<768xf32>, tensor<1x197x768xf32>) -> tensor<1x197x768xf32>
    %336 = "tensor.expand_shape"(%335) {reassociation = [[0], [1], [2, 3]]} : (tensor<1x197x768xf32>) -> tensor<1x197x12x64xf32>
    %337 = "linalg.generic"(%336, %234) ({
    ^bb0(%arg1: f32, %arg2: f32):
      "linalg.yield"(%arg1) : (f32) -> ()
    }) {indexing_maps = [#map11, #map12], iterator_types = [#linalg.iterator_type<parallel>, #linalg.iterator_type<parallel>, #linalg.iterator_type<parallel>, #linalg.iterator_type<parallel>], operand_segment_sizes = array<i32: 1, 1>} : (tensor<1x197x12x64xf32>, tensor<1x12x197x64xf32>) -> tensor<1x12x197x64xf32>
    %338 = "linalg.generic"(%173, %221) ({
    ^bb0(%arg1: f32, %arg2: f32):
      "linalg.yield"(%arg1) : (f32) -> ()
    }) {indexing_maps = [#map5, #map6], iterator_types = [#linalg.iterator_type<parallel>, #linalg.iterator_type<parallel>], operand_segment_sizes = array<i32: 1, 1>} : (tensor<768x768xf32>, tensor<768x768xf32>) -> tensor<768x768xf32>
    %339 = "linalg.generic"(%338, %224) ({
    ^bb0(%arg1: f32, %arg2: f32):
      "linalg.yield"(%arg1) : (f32) -> ()
    }) {indexing_maps = [#map7, #map], iterator_types = [#linalg.iterator_type<parallel>, #linalg.iterator_type<parallel>, #linalg.iterator_type<parallel>], operand_segment_sizes = array<i32: 1, 1>} : (tensor<768x768xf32>, tensor<1x768x768xf32>) -> tensor<1x768x768xf32>
    %340 = "linalg.batch_matmul"(%328, %339, %226) ({
    ^bb0(%arg1: f32, %arg2: f32, %arg3: f32):
      %1260 = "arith.mulf"(%arg1, %arg2) {fastmath = #arith.fastmath<none>} : (f32, f32) -> f32
      %1261 = "arith.addf"(%arg3, %1260) {fastmath = #arith.fastmath<none>} : (f32, f32) -> f32
      "linalg.yield"(%1261) : (f32) -> ()
    }) {linalg.memoized_indexing_maps = [#map8, #map9, #map10], operand_segment_sizes = array<i32: 2, 1>} : (tensor<1x197x768xf32>, tensor<1x768x768xf32>, tensor<1x197x768xf32>) -> tensor<1x197x768xf32>
    %341 = "linalg.generic"(%340, %174, %209) ({
    ^bb0(%arg1: f32, %arg2: f32, %arg3: f32):
      %1260 = "arith.addf"(%arg1, %arg2) {fastmath = #arith.fastmath<none>} : (f32, f32) -> f32
      "linalg.yield"(%1260) : (f32) -> ()
    }) {indexing_maps = [#map3, #map4, #map], iterator_types = [#linalg.iterator_type<parallel>, #linalg.iterator_type<parallel>, #linalg.iterator_type<parallel>], operand_segment_sizes = array<i32: 2, 1>} : (tensor<1x197x768xf32>, tensor<768xf32>, tensor<1x197x768xf32>) -> tensor<1x197x768xf32>
    %342 = "tensor.expand_shape"(%341) {reassociation = [[0], [1], [2, 3]]} : (tensor<1x197x768xf32>) -> tensor<1x197x12x64xf32>
    %343 = "linalg.generic"(%342, %234) ({
    ^bb0(%arg1: f32, %arg2: f32):
      "linalg.yield"(%arg1) : (f32) -> ()
    }) {indexing_maps = [#map11, #map12], iterator_types = [#linalg.iterator_type<parallel>, #linalg.iterator_type<parallel>, #linalg.iterator_type<parallel>, #linalg.iterator_type<parallel>], operand_segment_sizes = array<i32: 1, 1>} : (tensor<1x197x12x64xf32>, tensor<1x12x197x64xf32>) -> tensor<1x12x197x64xf32>
    %344 = "tensor.expand_shape"(%331) {reassociation = [[0], [1], [2, 3]]} : (tensor<1x197x768xf32>) -> tensor<1x197x12x64xf32>
    %345 = "linalg.generic"(%344, %234) ({
    ^bb0(%arg1: f32, %arg2: f32):
      "linalg.yield"(%arg1) : (f32) -> ()
    }) {indexing_maps = [#map11, #map12], iterator_types = [#linalg.iterator_type<parallel>, #linalg.iterator_type<parallel>, #linalg.iterator_type<parallel>, #linalg.iterator_type<parallel>], operand_segment_sizes = array<i32: 1, 1>} : (tensor<1x197x12x64xf32>, tensor<1x12x197x64xf32>) -> tensor<1x12x197x64xf32>
    %346 = "linalg.generic"(%337, %244) ({
    ^bb0(%arg1: f32, %arg2: f32):
      "linalg.yield"(%arg1) : (f32) -> ()
    }) {indexing_maps = [#map11, #map13], iterator_types = [#linalg.iterator_type<parallel>, #linalg.iterator_type<parallel>, #linalg.iterator_type<parallel>, #linalg.iterator_type<parallel>], operand_segment_sizes = array<i32: 1, 1>} : (tensor<1x12x197x64xf32>, tensor<1x12x64x197xf32>) -> tensor<1x12x64x197xf32>
    %347 = "linalg.generic"(%345, %234) ({
    ^bb0(%arg1: f32, %arg2: f32):
      "linalg.yield"(%arg1) : (f32) -> ()
    }) {indexing_maps = [#map14, #map11], iterator_types = [#linalg.iterator_type<parallel>, #linalg.iterator_type<parallel>, #linalg.iterator_type<parallel>, #linalg.iterator_type<parallel>], operand_segment_sizes = array<i32: 1, 1>} : (tensor<1x12x197x64xf32>, tensor<1x12x197x64xf32>) -> tensor<1x12x197x64xf32>
    %348 = "linalg.generic"(%346, %244) ({
    ^bb0(%arg1: f32, %arg2: f32):
      "linalg.yield"(%arg1) : (f32) -> ()
    }) {indexing_maps = [#map14, #map11], iterator_types = [#linalg.iterator_type<parallel>, #linalg.iterator_type<parallel>, #linalg.iterator_type<parallel>, #linalg.iterator_type<parallel>], operand_segment_sizes = array<i32: 1, 1>} : (tensor<1x12x64x197xf32>, tensor<1x12x64x197xf32>) -> tensor<1x12x64x197xf32>
    %349 = "tensor.collapse_shape"(%347) {reassociation = [[0, 1], [2], [3]]} : (tensor<1x12x197x64xf32>) -> tensor<12x197x64xf32>
    %350 = "tensor.collapse_shape"(%348) {reassociation = [[0, 1], [2], [3]]} : (tensor<1x12x64x197xf32>) -> tensor<12x64x197xf32>
    %351 = "linalg.batch_matmul"(%349, %350, %251) ({
    ^bb0(%arg1: f32, %arg2: f32, %arg3: f32):
      %1260 = "arith.mulf"(%arg1, %arg2) {fastmath = #arith.fastmath<none>} : (f32, f32) -> f32
      %1261 = "arith.addf"(%arg3, %1260) {fastmath = #arith.fastmath<none>} : (f32, f32) -> f32
      "linalg.yield"(%1261) : (f32) -> ()
    }) {linalg.memoized_indexing_maps = [#map8, #map9, #map10], operand_segment_sizes = array<i32: 2, 1>} : (tensor<12x197x64xf32>, tensor<12x64x197xf32>, tensor<12x197x197xf32>) -> tensor<12x197x197xf32>
    %352 = "tensor.expand_shape"(%351) {reassociation = [[0, 1], [2], [3]]} : (tensor<12x197x197xf32>) -> tensor<1x12x197x197xf32>
    %353 = "linalg.generic"(%352, %189, %254) ({
    ^bb0(%arg1: f32, %arg2: f64, %arg3: f32):
      %1260 = "arith.truncf"(%arg2) : (f64) -> f32
      %1261 = "arith.divf"(%arg1, %1260) {fastmath = #arith.fastmath<none>} : (f32, f32) -> f32
      "linalg.yield"(%1261) : (f32) -> ()
    }) {indexing_maps = [#map14, #map15, #map11], iterator_types = [#linalg.iterator_type<parallel>, #linalg.iterator_type<parallel>, #linalg.iterator_type<parallel>, #linalg.iterator_type<parallel>], operand_segment_sizes = array<i32: 2, 1>} : (tensor<1x12x197x197xf32>, tensor<f64>, tensor<1x12x197x197xf32>) -> tensor<1x12x197x197xf32>
    %354:2 = "linalg.generic"(%353, %259, %257) ({
    ^bb0(%arg1: f32, %arg2: f32, %arg3: i64):
      %1260 = "linalg.index"() {dim = 3 : i64} : () -> index
      %1261 = "arith.index_cast"(%1260) : (index) -> i64
      %1262 = "arith.maxf"(%arg1, %arg2) {fastmath = #arith.fastmath<none>} : (f32, f32) -> f32
      %1263 = "arith.cmpf"(%arg1, %arg2) {predicate = 2 : i64} : (f32, f32) -> i1
      %1264 = "arith.select"(%1263, %1261, %arg3) : (i1, i64, i64) -> i64
      "linalg.yield"(%1262, %1264) : (f32, i64) -> ()
    }) {indexing_maps = [#map11, #map16, #map16], iterator_types = [#linalg.iterator_type<parallel>, #linalg.iterator_type<parallel>, #linalg.iterator_type<parallel>, #linalg.iterator_type<reduction>], operand_segment_sizes = array<i32: 1, 2>} : (tensor<1x12x197x197xf32>, tensor<1x12x197x1xf32>, tensor<1x12x197x1xi64>) -> (tensor<1x12x197x1xf32>, tensor<1x12x197x1xi64>)
    %355 = "linalg.generic"(%353, %354#0, %254) ({
    ^bb0(%arg1: f32, %arg2: f32, %arg3: f32):
      %1260 = "arith.subf"(%arg1, %arg2) {fastmath = #arith.fastmath<none>} : (f32, f32) -> f32
      "linalg.yield"(%1260) : (f32) -> ()
    }) {indexing_maps = [#map14, #map17, #map11], iterator_types = [#linalg.iterator_type<parallel>, #linalg.iterator_type<parallel>, #linalg.iterator_type<parallel>, #linalg.iterator_type<parallel>], operand_segment_sizes = array<i32: 2, 1>} : (tensor<1x12x197x197xf32>, tensor<1x12x197x1xf32>, tensor<1x12x197x197xf32>) -> tensor<1x12x197x197xf32>
    %356 = "linalg.generic"(%355, %254) ({
    ^bb0(%arg1: f32, %arg2: f32):
      %1260 = "math.exp"(%arg1) {fastmath = #arith.fastmath<none>} : (f32) -> f32
      "linalg.yield"(%1260) : (f32) -> ()
    }) {indexing_maps = [#map14, #map11], iterator_types = [#linalg.iterator_type<parallel>, #linalg.iterator_type<parallel>, #linalg.iterator_type<parallel>, #linalg.iterator_type<parallel>], operand_segment_sizes = array<i32: 1, 1>} : (tensor<1x12x197x197xf32>, tensor<1x12x197x197xf32>) -> tensor<1x12x197x197xf32>
    %357 = "linalg.generic"(%356, %263) ({
    ^bb0(%arg1: f32, %arg2: f32):
      %1260 = "arith.addf"(%arg1, %arg2) {fastmath = #arith.fastmath<none>} : (f32, f32) -> f32
      "linalg.yield"(%1260) : (f32) -> ()
    }) {indexing_maps = [#map11, #map16], iterator_types = [#linalg.iterator_type<parallel>, #linalg.iterator_type<parallel>, #linalg.iterator_type<parallel>, #linalg.iterator_type<reduction>], operand_segment_sizes = array<i32: 1, 1>} : (tensor<1x12x197x197xf32>, tensor<1x12x197x1xf32>) -> tensor<1x12x197x1xf32>
    %358 = "linalg.generic"(%356, %357, %254) ({
    ^bb0(%arg1: f32, %arg2: f32, %arg3: f32):
      %1260 = "arith.divf"(%arg1, %arg2) {fastmath = #arith.fastmath<none>} : (f32, f32) -> f32
      "linalg.yield"(%1260) : (f32) -> ()
    }) {indexing_maps = [#map14, #map17, #map11], iterator_types = [#linalg.iterator_type<parallel>, #linalg.iterator_type<parallel>, #linalg.iterator_type<parallel>, #linalg.iterator_type<parallel>], operand_segment_sizes = array<i32: 2, 1>} : (tensor<1x12x197x197xf32>, tensor<1x12x197x1xf32>, tensor<1x12x197x197xf32>) -> tensor<1x12x197x197xf32>
    %359 = "linalg.generic"(%358, %254) ({
    ^bb0(%arg1: f32, %arg2: f32):
      "linalg.yield"(%arg1) : (f32) -> ()
    }) {indexing_maps = [#map14, #map11], iterator_types = [#linalg.iterator_type<parallel>, #linalg.iterator_type<parallel>, #linalg.iterator_type<parallel>, #linalg.iterator_type<parallel>], operand_segment_sizes = array<i32: 1, 1>} : (tensor<1x12x197x197xf32>, tensor<1x12x197x197xf32>) -> tensor<1x12x197x197xf32>
    %360 = "linalg.generic"(%343, %234) ({
    ^bb0(%arg1: f32, %arg2: f32):
      "linalg.yield"(%arg1) : (f32) -> ()
    }) {indexing_maps = [#map14, #map11], iterator_types = [#linalg.iterator_type<parallel>, #linalg.iterator_type<parallel>, #linalg.iterator_type<parallel>, #linalg.iterator_type<parallel>], operand_segment_sizes = array<i32: 1, 1>} : (tensor<1x12x197x64xf32>, tensor<1x12x197x64xf32>) -> tensor<1x12x197x64xf32>
    %361 = "tensor.collapse_shape"(%359) {reassociation = [[0, 1], [2], [3]]} : (tensor<1x12x197x197xf32>) -> tensor<12x197x197xf32>
    %362 = "tensor.collapse_shape"(%360) {reassociation = [[0, 1], [2], [3]]} : (tensor<1x12x197x64xf32>) -> tensor<12x197x64xf32>
    %363 = "linalg.batch_matmul"(%361, %362, %271) ({
    ^bb0(%arg1: f32, %arg2: f32, %arg3: f32):
      %1260 = "arith.mulf"(%arg1, %arg2) {fastmath = #arith.fastmath<none>} : (f32, f32) -> f32
      %1261 = "arith.addf"(%arg3, %1260) {fastmath = #arith.fastmath<none>} : (f32, f32) -> f32
      "linalg.yield"(%1261) : (f32) -> ()
    }) {linalg.memoized_indexing_maps = [#map8, #map9, #map10], operand_segment_sizes = array<i32: 2, 1>} : (tensor<12x197x197xf32>, tensor<12x197x64xf32>, tensor<12x197x64xf32>) -> tensor<12x197x64xf32>
    %364 = "tensor.expand_shape"(%363) {reassociation = [[0, 1], [2], [3]]} : (tensor<12x197x64xf32>) -> tensor<1x12x197x64xf32>
    %365 = "linalg.generic"(%364, %274) ({
    ^bb0(%arg1: f32, %arg2: f32):
      "linalg.yield"(%arg1) : (f32) -> ()
    }) {indexing_maps = [#map11, #map12], iterator_types = [#linalg.iterator_type<parallel>, #linalg.iterator_type<parallel>, #linalg.iterator_type<parallel>, #linalg.iterator_type<parallel>], operand_segment_sizes = array<i32: 1, 1>} : (tensor<1x12x197x64xf32>, tensor<1x197x12x64xf32>) -> tensor<1x197x12x64xf32>
    %366 = "tensor.collapse_shape"(%365) {reassociation = [[0], [1], [2, 3]]} : (tensor<1x197x12x64xf32>) -> tensor<1x197x768xf32>
    %367 = "linalg.generic"(%171, %221) ({
    ^bb0(%arg1: f32, %arg2: f32):
      "linalg.yield"(%arg1) : (f32) -> ()
    }) {indexing_maps = [#map5, #map6], iterator_types = [#linalg.iterator_type<parallel>, #linalg.iterator_type<parallel>], operand_segment_sizes = array<i32: 1, 1>} : (tensor<768x768xf32>, tensor<768x768xf32>) -> tensor<768x768xf32>
    %368 = "linalg.generic"(%366, %209) ({
    ^bb0(%arg1: f32, %arg2: f32):
      "linalg.yield"(%arg1) : (f32) -> ()
    }) {indexing_maps = [#map3, #map], iterator_types = [#linalg.iterator_type<parallel>, #linalg.iterator_type<parallel>, #linalg.iterator_type<parallel>], operand_segment_sizes = array<i32: 1, 1>} : (tensor<1x197x768xf32>, tensor<1x197x768xf32>) -> tensor<1x197x768xf32>
    %369 = "linalg.generic"(%367, %224) ({
    ^bb0(%arg1: f32, %arg2: f32):
      "linalg.yield"(%arg1) : (f32) -> ()
    }) {indexing_maps = [#map7, #map], iterator_types = [#linalg.iterator_type<parallel>, #linalg.iterator_type<parallel>, #linalg.iterator_type<parallel>], operand_segment_sizes = array<i32: 1, 1>} : (tensor<768x768xf32>, tensor<1x768x768xf32>) -> tensor<1x768x768xf32>
    %370 = "linalg.batch_matmul"(%368, %369, %226) ({
    ^bb0(%arg1: f32, %arg2: f32, %arg3: f32):
      %1260 = "arith.mulf"(%arg1, %arg2) {fastmath = #arith.fastmath<none>} : (f32, f32) -> f32
      %1261 = "arith.addf"(%arg3, %1260) {fastmath = #arith.fastmath<none>} : (f32, f32) -> f32
      "linalg.yield"(%1261) : (f32) -> ()
    }) {linalg.memoized_indexing_maps = [#map8, #map9, #map10], operand_segment_sizes = array<i32: 2, 1>} : (tensor<1x197x768xf32>, tensor<1x768x768xf32>, tensor<1x197x768xf32>) -> tensor<1x197x768xf32>
    %371 = "linalg.generic"(%370, %172, %209) ({
    ^bb0(%arg1: f32, %arg2: f32, %arg3: f32):
      %1260 = "arith.addf"(%arg1, %arg2) {fastmath = #arith.fastmath<none>} : (f32, f32) -> f32
      "linalg.yield"(%1260) : (f32) -> ()
    }) {indexing_maps = [#map3, #map4, #map], iterator_types = [#linalg.iterator_type<parallel>, #linalg.iterator_type<parallel>, #linalg.iterator_type<parallel>], operand_segment_sizes = array<i32: 2, 1>} : (tensor<1x197x768xf32>, tensor<768xf32>, tensor<1x197x768xf32>) -> tensor<1x197x768xf32>
    %372 = "linalg.generic"(%371, %313, %209) ({
    ^bb0(%arg1: f32, %arg2: f32, %arg3: f32):
      %1260 = "arith.addf"(%arg1, %arg2) {fastmath = #arith.fastmath<none>} : (f32, f32) -> f32
      "linalg.yield"(%1260) : (f32) -> ()
    }) {indexing_maps = [#map3, #map3, #map], iterator_types = [#linalg.iterator_type<parallel>, #linalg.iterator_type<parallel>, #linalg.iterator_type<parallel>], operand_segment_sizes = array<i32: 2, 1>} : (tensor<1x197x768xf32>, tensor<1x197x768xf32>, tensor<1x197x768xf32>) -> tensor<1x197x768xf32>
    %373 = "linalg.generic"(%372, %206) ({
    ^bb0(%arg1: f32, %arg2: f32):
      %1260 = "arith.addf"(%arg1, %arg2) {fastmath = #arith.fastmath<none>} : (f32, f32) -> f32
      "linalg.yield"(%1260) : (f32) -> ()
    }) {indexing_maps = [#map, #map1], iterator_types = [#linalg.iterator_type<parallel>, #linalg.iterator_type<parallel>, #linalg.iterator_type<reduction>], operand_segment_sizes = array<i32: 1, 1>} : (tensor<1x197x768xf32>, tensor<1x197x1xf32>) -> tensor<1x197x1xf32>
    %374 = "linalg.generic"(%373, %205) ({
    ^bb0(%arg1: f32, %arg2: f32):
      %1260 = "arith.divf"(%arg1, %204) {fastmath = #arith.fastmath<none>} : (f32, f32) -> f32
      "linalg.yield"(%1260) : (f32) -> ()
    }) {indexing_maps = [#map2, #map], iterator_types = [#linalg.iterator_type<parallel>, #linalg.iterator_type<parallel>, #linalg.iterator_type<parallel>], operand_segment_sizes = array<i32: 1, 1>} : (tensor<1x197x1xf32>, tensor<1x197x1xf32>) -> tensor<1x197x1xf32>
    %375 = "linalg.generic"(%374, %209) ({
    ^bb0(%arg1: f32, %arg2: f32):
      "linalg.yield"(%arg1) : (f32) -> ()
    }) {indexing_maps = [#map2, #map], iterator_types = [#linalg.iterator_type<parallel>, #linalg.iterator_type<parallel>, #linalg.iterator_type<parallel>], operand_segment_sizes = array<i32: 1, 1>} : (tensor<1x197x1xf32>, tensor<1x197x768xf32>) -> tensor<1x197x768xf32>
    %376 = "linalg.generic"(%372, %375, %209) ({
    ^bb0(%arg1: f32, %arg2: f32, %arg3: f32):
      %1260 = "arith.subf"(%arg1, %arg2) {fastmath = #arith.fastmath<none>} : (f32, f32) -> f32
      "linalg.yield"(%1260) : (f32) -> ()
    }) {indexing_maps = [#map3, #map3, #map], iterator_types = [#linalg.iterator_type<parallel>, #linalg.iterator_type<parallel>, #linalg.iterator_type<parallel>], operand_segment_sizes = array<i32: 2, 1>} : (tensor<1x197x768xf32>, tensor<1x197x768xf32>, tensor<1x197x768xf32>) -> tensor<1x197x768xf32>
    %377 = "linalg.generic"(%376, %376, %209) ({
    ^bb0(%arg1: f32, %arg2: f32, %arg3: f32):
      %1260 = "arith.mulf"(%arg1, %arg2) {fastmath = #arith.fastmath<none>} : (f32, f32) -> f32
      "linalg.yield"(%1260) : (f32) -> ()
    }) {indexing_maps = [#map3, #map3, #map], iterator_types = [#linalg.iterator_type<parallel>, #linalg.iterator_type<parallel>, #linalg.iterator_type<parallel>], operand_segment_sizes = array<i32: 2, 1>} : (tensor<1x197x768xf32>, tensor<1x197x768xf32>, tensor<1x197x768xf32>) -> tensor<1x197x768xf32>
    %378 = "linalg.generic"(%377, %206) ({
    ^bb0(%arg1: f32, %arg2: f32):
      %1260 = "arith.addf"(%arg1, %arg2) {fastmath = #arith.fastmath<none>} : (f32, f32) -> f32
      "linalg.yield"(%1260) : (f32) -> ()
    }) {indexing_maps = [#map, #map1], iterator_types = [#linalg.iterator_type<parallel>, #linalg.iterator_type<parallel>, #linalg.iterator_type<reduction>], operand_segment_sizes = array<i32: 1, 1>} : (tensor<1x197x768xf32>, tensor<1x197x1xf32>) -> tensor<1x197x1xf32>
    %379 = "linalg.generic"(%378, %205) ({
    ^bb0(%arg1: f32, %arg2: f32):
      %1260 = "arith.divf"(%arg1, %204) {fastmath = #arith.fastmath<none>} : (f32, f32) -> f32
      "linalg.yield"(%1260) : (f32) -> ()
    }) {indexing_maps = [#map2, #map], iterator_types = [#linalg.iterator_type<parallel>, #linalg.iterator_type<parallel>, #linalg.iterator_type<parallel>], operand_segment_sizes = array<i32: 1, 1>} : (tensor<1x197x1xf32>, tensor<1x197x1xf32>) -> tensor<1x197x1xf32>
    %380 = "linalg.generic"(%379, %205) ({
    ^bb0(%arg1: f32, %arg2: f32):
      %1260 = "arith.truncf"(%203) : (f64) -> f32
      %1261 = "arith.addf"(%arg1, %1260) {fastmath = #arith.fastmath<none>} : (f32, f32) -> f32
      "linalg.yield"(%1261) : (f32) -> ()
    }) {indexing_maps = [#map2, #map], iterator_types = [#linalg.iterator_type<parallel>, #linalg.iterator_type<parallel>, #linalg.iterator_type<parallel>], operand_segment_sizes = array<i32: 1, 1>} : (tensor<1x197x1xf32>, tensor<1x197x1xf32>) -> tensor<1x197x1xf32>
    %381 = "linalg.generic"(%380, %205) ({
    ^bb0(%arg1: f32, %arg2: f32):
      %1260 = "math.rsqrt"(%arg1) {fastmath = #arith.fastmath<none>} : (f32) -> f32
      "linalg.yield"(%1260) : (f32) -> ()
    }) {indexing_maps = [#map2, #map], iterator_types = [#linalg.iterator_type<parallel>, #linalg.iterator_type<parallel>, #linalg.iterator_type<parallel>], operand_segment_sizes = array<i32: 1, 1>} : (tensor<1x197x1xf32>, tensor<1x197x1xf32>) -> tensor<1x197x1xf32>
    %382 = "linalg.generic"(%381, %209) ({
    ^bb0(%arg1: f32, %arg2: f32):
      "linalg.yield"(%arg1) : (f32) -> ()
    }) {indexing_maps = [#map2, #map], iterator_types = [#linalg.iterator_type<parallel>, #linalg.iterator_type<parallel>, #linalg.iterator_type<parallel>], operand_segment_sizes = array<i32: 1, 1>} : (tensor<1x197x1xf32>, tensor<1x197x768xf32>) -> tensor<1x197x768xf32>
    %383 = "linalg.generic"(%376, %382, %209) ({
    ^bb0(%arg1: f32, %arg2: f32, %arg3: f32):
      %1260 = "arith.mulf"(%arg1, %arg2) {fastmath = #arith.fastmath<none>} : (f32, f32) -> f32
      "linalg.yield"(%1260) : (f32) -> ()
    }) {indexing_maps = [#map3, #map3, #map], iterator_types = [#linalg.iterator_type<parallel>, #linalg.iterator_type<parallel>, #linalg.iterator_type<parallel>], operand_segment_sizes = array<i32: 2, 1>} : (tensor<1x197x768xf32>, tensor<1x197x768xf32>, tensor<1x197x768xf32>) -> tensor<1x197x768xf32>
    %384 = "linalg.generic"(%383, %169, %209) ({
    ^bb0(%arg1: f32, %arg2: f32, %arg3: f32):
      %1260 = "arith.mulf"(%arg1, %arg2) {fastmath = #arith.fastmath<none>} : (f32, f32) -> f32
      "linalg.yield"(%1260) : (f32) -> ()
    }) {indexing_maps = [#map3, #map4, #map], iterator_types = [#linalg.iterator_type<parallel>, #linalg.iterator_type<parallel>, #linalg.iterator_type<parallel>], operand_segment_sizes = array<i32: 2, 1>} : (tensor<1x197x768xf32>, tensor<768xf32>, tensor<1x197x768xf32>) -> tensor<1x197x768xf32>
    %385 = "linalg.generic"(%384, %170, %209) ({
    ^bb0(%arg1: f32, %arg2: f32, %arg3: f32):
      %1260 = "arith.addf"(%arg1, %arg2) {fastmath = #arith.fastmath<none>} : (f32, f32) -> f32
      "linalg.yield"(%1260) : (f32) -> ()
    }) {indexing_maps = [#map3, #map4, #map], iterator_types = [#linalg.iterator_type<parallel>, #linalg.iterator_type<parallel>, #linalg.iterator_type<parallel>], operand_segment_sizes = array<i32: 2, 1>} : (tensor<1x197x768xf32>, tensor<768xf32>, tensor<1x197x768xf32>) -> tensor<1x197x768xf32>
    %386 = "linalg.generic"(%167, %296) ({
    ^bb0(%arg1: f32, %arg2: f32):
      "linalg.yield"(%arg1) : (f32) -> ()
    }) {indexing_maps = [#map5, #map6], iterator_types = [#linalg.iterator_type<parallel>, #linalg.iterator_type<parallel>], operand_segment_sizes = array<i32: 1, 1>} : (tensor<3072x768xf32>, tensor<768x3072xf32>) -> tensor<768x3072xf32>
    %387 = "linalg.generic"(%385, %209) ({
    ^bb0(%arg1: f32, %arg2: f32):
      "linalg.yield"(%arg1) : (f32) -> ()
    }) {indexing_maps = [#map3, #map], iterator_types = [#linalg.iterator_type<parallel>, #linalg.iterator_type<parallel>, #linalg.iterator_type<parallel>], operand_segment_sizes = array<i32: 1, 1>} : (tensor<1x197x768xf32>, tensor<1x197x768xf32>) -> tensor<1x197x768xf32>
    %388 = "linalg.generic"(%386, %299) ({
    ^bb0(%arg1: f32, %arg2: f32):
      "linalg.yield"(%arg1) : (f32) -> ()
    }) {indexing_maps = [#map7, #map], iterator_types = [#linalg.iterator_type<parallel>, #linalg.iterator_type<parallel>, #linalg.iterator_type<parallel>], operand_segment_sizes = array<i32: 1, 1>} : (tensor<768x3072xf32>, tensor<1x768x3072xf32>) -> tensor<1x768x3072xf32>
    %389 = "linalg.batch_matmul"(%387, %388, %302) ({
    ^bb0(%arg1: f32, %arg2: f32, %arg3: f32):
      %1260 = "arith.mulf"(%arg1, %arg2) {fastmath = #arith.fastmath<none>} : (f32, f32) -> f32
      %1261 = "arith.addf"(%arg3, %1260) {fastmath = #arith.fastmath<none>} : (f32, f32) -> f32
      "linalg.yield"(%1261) : (f32) -> ()
    }) {linalg.memoized_indexing_maps = [#map8, #map9, #map10], operand_segment_sizes = array<i32: 2, 1>} : (tensor<1x197x768xf32>, tensor<1x768x3072xf32>, tensor<1x197x3072xf32>) -> tensor<1x197x3072xf32>
    %390 = "linalg.generic"(%389, %168, %301) ({
    ^bb0(%arg1: f32, %arg2: f32, %arg3: f32):
      %1260 = "arith.addf"(%arg1, %arg2) {fastmath = #arith.fastmath<none>} : (f32, f32) -> f32
      "linalg.yield"(%1260) : (f32) -> ()
    }) {indexing_maps = [#map3, #map4, #map], iterator_types = [#linalg.iterator_type<parallel>, #linalg.iterator_type<parallel>, #linalg.iterator_type<parallel>], operand_segment_sizes = array<i32: 2, 1>} : (tensor<1x197x3072xf32>, tensor<3072xf32>, tensor<1x197x3072xf32>) -> tensor<1x197x3072xf32>
    %391 = "linalg.generic"(%390, %301) ({
    ^bb0(%arg1: f32, %arg2: f32):
      %1260 = "arith.divf"(%arg1, %201) {fastmath = #arith.fastmath<none>} : (f32, f32) -> f32
      %1261 = "math.erf"(%1260) {fastmath = #arith.fastmath<none>} : (f32) -> f32
      %1262 = "arith.addf"(%1261, %200) {fastmath = #arith.fastmath<none>} : (f32, f32) -> f32
      %1263 = "arith.mulf"(%1262, %202) {fastmath = #arith.fastmath<none>} : (f32, f32) -> f32
      %1264 = "arith.mulf"(%arg1, %1263) {fastmath = #arith.fastmath<none>} : (f32, f32) -> f32
      "linalg.yield"(%1264) : (f32) -> ()
    }) {indexing_maps = [#map3, #map], iterator_types = [#linalg.iterator_type<parallel>, #linalg.iterator_type<parallel>, #linalg.iterator_type<parallel>], operand_segment_sizes = array<i32: 1, 1>} : (tensor<1x197x3072xf32>, tensor<1x197x3072xf32>) -> tensor<1x197x3072xf32>
    %392 = "linalg.generic"(%165, %306) ({
    ^bb0(%arg1: f32, %arg2: f32):
      "linalg.yield"(%arg1) : (f32) -> ()
    }) {indexing_maps = [#map5, #map6], iterator_types = [#linalg.iterator_type<parallel>, #linalg.iterator_type<parallel>], operand_segment_sizes = array<i32: 1, 1>} : (tensor<768x3072xf32>, tensor<3072x768xf32>) -> tensor<3072x768xf32>
    %393 = "linalg.generic"(%391, %301) ({
    ^bb0(%arg1: f32, %arg2: f32):
      "linalg.yield"(%arg1) : (f32) -> ()
    }) {indexing_maps = [#map3, #map], iterator_types = [#linalg.iterator_type<parallel>, #linalg.iterator_type<parallel>, #linalg.iterator_type<parallel>], operand_segment_sizes = array<i32: 1, 1>} : (tensor<1x197x3072xf32>, tensor<1x197x3072xf32>) -> tensor<1x197x3072xf32>
    %394 = "linalg.generic"(%392, %309) ({
    ^bb0(%arg1: f32, %arg2: f32):
      "linalg.yield"(%arg1) : (f32) -> ()
    }) {indexing_maps = [#map7, #map], iterator_types = [#linalg.iterator_type<parallel>, #linalg.iterator_type<parallel>, #linalg.iterator_type<parallel>], operand_segment_sizes = array<i32: 1, 1>} : (tensor<3072x768xf32>, tensor<1x3072x768xf32>) -> tensor<1x3072x768xf32>
    %395 = "linalg.batch_matmul"(%393, %394, %226) ({
    ^bb0(%arg1: f32, %arg2: f32, %arg3: f32):
      %1260 = "arith.mulf"(%arg1, %arg2) {fastmath = #arith.fastmath<none>} : (f32, f32) -> f32
      %1261 = "arith.addf"(%arg3, %1260) {fastmath = #arith.fastmath<none>} : (f32, f32) -> f32
      "linalg.yield"(%1261) : (f32) -> ()
    }) {linalg.memoized_indexing_maps = [#map8, #map9, #map10], operand_segment_sizes = array<i32: 2, 1>} : (tensor<1x197x3072xf32>, tensor<1x3072x768xf32>, tensor<1x197x768xf32>) -> tensor<1x197x768xf32>
    %396 = "linalg.generic"(%395, %166, %209) ({
    ^bb0(%arg1: f32, %arg2: f32, %arg3: f32):
      %1260 = "arith.addf"(%arg1, %arg2) {fastmath = #arith.fastmath<none>} : (f32, f32) -> f32
      "linalg.yield"(%1260) : (f32) -> ()
    }) {indexing_maps = [#map3, #map4, #map], iterator_types = [#linalg.iterator_type<parallel>, #linalg.iterator_type<parallel>, #linalg.iterator_type<parallel>], operand_segment_sizes = array<i32: 2, 1>} : (tensor<1x197x768xf32>, tensor<768xf32>, tensor<1x197x768xf32>) -> tensor<1x197x768xf32>
    %397 = "linalg.generic"(%396, %372, %209) ({
    ^bb0(%arg1: f32, %arg2: f32, %arg3: f32):
      %1260 = "arith.addf"(%arg1, %arg2) {fastmath = #arith.fastmath<none>} : (f32, f32) -> f32
      "linalg.yield"(%1260) : (f32) -> ()
    }) {indexing_maps = [#map3, #map3, #map], iterator_types = [#linalg.iterator_type<parallel>, #linalg.iterator_type<parallel>, #linalg.iterator_type<parallel>], operand_segment_sizes = array<i32: 2, 1>} : (tensor<1x197x768xf32>, tensor<1x197x768xf32>, tensor<1x197x768xf32>) -> tensor<1x197x768xf32>
    %398 = "linalg.generic"(%397, %206) ({
    ^bb0(%arg1: f32, %arg2: f32):
      %1260 = "arith.addf"(%arg1, %arg2) {fastmath = #arith.fastmath<none>} : (f32, f32) -> f32
      "linalg.yield"(%1260) : (f32) -> ()
    }) {indexing_maps = [#map, #map1], iterator_types = [#linalg.iterator_type<parallel>, #linalg.iterator_type<parallel>, #linalg.iterator_type<reduction>], operand_segment_sizes = array<i32: 1, 1>} : (tensor<1x197x768xf32>, tensor<1x197x1xf32>) -> tensor<1x197x1xf32>
    %399 = "linalg.generic"(%398, %205) ({
    ^bb0(%arg1: f32, %arg2: f32):
      %1260 = "arith.divf"(%arg1, %204) {fastmath = #arith.fastmath<none>} : (f32, f32) -> f32
      "linalg.yield"(%1260) : (f32) -> ()
    }) {indexing_maps = [#map2, #map], iterator_types = [#linalg.iterator_type<parallel>, #linalg.iterator_type<parallel>, #linalg.iterator_type<parallel>], operand_segment_sizes = array<i32: 1, 1>} : (tensor<1x197x1xf32>, tensor<1x197x1xf32>) -> tensor<1x197x1xf32>
    %400 = "linalg.generic"(%399, %209) ({
    ^bb0(%arg1: f32, %arg2: f32):
      "linalg.yield"(%arg1) : (f32) -> ()
    }) {indexing_maps = [#map2, #map], iterator_types = [#linalg.iterator_type<parallel>, #linalg.iterator_type<parallel>, #linalg.iterator_type<parallel>], operand_segment_sizes = array<i32: 1, 1>} : (tensor<1x197x1xf32>, tensor<1x197x768xf32>) -> tensor<1x197x768xf32>
    %401 = "linalg.generic"(%397, %400, %209) ({
    ^bb0(%arg1: f32, %arg2: f32, %arg3: f32):
      %1260 = "arith.subf"(%arg1, %arg2) {fastmath = #arith.fastmath<none>} : (f32, f32) -> f32
      "linalg.yield"(%1260) : (f32) -> ()
    }) {indexing_maps = [#map3, #map3, #map], iterator_types = [#linalg.iterator_type<parallel>, #linalg.iterator_type<parallel>, #linalg.iterator_type<parallel>], operand_segment_sizes = array<i32: 2, 1>} : (tensor<1x197x768xf32>, tensor<1x197x768xf32>, tensor<1x197x768xf32>) -> tensor<1x197x768xf32>
    %402 = "linalg.generic"(%401, %401, %209) ({
    ^bb0(%arg1: f32, %arg2: f32, %arg3: f32):
      %1260 = "arith.mulf"(%arg1, %arg2) {fastmath = #arith.fastmath<none>} : (f32, f32) -> f32
      "linalg.yield"(%1260) : (f32) -> ()
    }) {indexing_maps = [#map3, #map3, #map], iterator_types = [#linalg.iterator_type<parallel>, #linalg.iterator_type<parallel>, #linalg.iterator_type<parallel>], operand_segment_sizes = array<i32: 2, 1>} : (tensor<1x197x768xf32>, tensor<1x197x768xf32>, tensor<1x197x768xf32>) -> tensor<1x197x768xf32>
    %403 = "linalg.generic"(%402, %206) ({
    ^bb0(%arg1: f32, %arg2: f32):
      %1260 = "arith.addf"(%arg1, %arg2) {fastmath = #arith.fastmath<none>} : (f32, f32) -> f32
      "linalg.yield"(%1260) : (f32) -> ()
    }) {indexing_maps = [#map, #map1], iterator_types = [#linalg.iterator_type<parallel>, #linalg.iterator_type<parallel>, #linalg.iterator_type<reduction>], operand_segment_sizes = array<i32: 1, 1>} : (tensor<1x197x768xf32>, tensor<1x197x1xf32>) -> tensor<1x197x1xf32>
    %404 = "linalg.generic"(%403, %205) ({
    ^bb0(%arg1: f32, %arg2: f32):
      %1260 = "arith.divf"(%arg1, %204) {fastmath = #arith.fastmath<none>} : (f32, f32) -> f32
      "linalg.yield"(%1260) : (f32) -> ()
    }) {indexing_maps = [#map2, #map], iterator_types = [#linalg.iterator_type<parallel>, #linalg.iterator_type<parallel>, #linalg.iterator_type<parallel>], operand_segment_sizes = array<i32: 1, 1>} : (tensor<1x197x1xf32>, tensor<1x197x1xf32>) -> tensor<1x197x1xf32>
    %405 = "linalg.generic"(%404, %205) ({
    ^bb0(%arg1: f32, %arg2: f32):
      %1260 = "arith.truncf"(%203) : (f64) -> f32
      %1261 = "arith.addf"(%arg1, %1260) {fastmath = #arith.fastmath<none>} : (f32, f32) -> f32
      "linalg.yield"(%1261) : (f32) -> ()
    }) {indexing_maps = [#map2, #map], iterator_types = [#linalg.iterator_type<parallel>, #linalg.iterator_type<parallel>, #linalg.iterator_type<parallel>], operand_segment_sizes = array<i32: 1, 1>} : (tensor<1x197x1xf32>, tensor<1x197x1xf32>) -> tensor<1x197x1xf32>
    %406 = "linalg.generic"(%405, %205) ({
    ^bb0(%arg1: f32, %arg2: f32):
      %1260 = "math.rsqrt"(%arg1) {fastmath = #arith.fastmath<none>} : (f32) -> f32
      "linalg.yield"(%1260) : (f32) -> ()
    }) {indexing_maps = [#map2, #map], iterator_types = [#linalg.iterator_type<parallel>, #linalg.iterator_type<parallel>, #linalg.iterator_type<parallel>], operand_segment_sizes = array<i32: 1, 1>} : (tensor<1x197x1xf32>, tensor<1x197x1xf32>) -> tensor<1x197x1xf32>
    %407 = "linalg.generic"(%406, %209) ({
    ^bb0(%arg1: f32, %arg2: f32):
      "linalg.yield"(%arg1) : (f32) -> ()
    }) {indexing_maps = [#map2, #map], iterator_types = [#linalg.iterator_type<parallel>, #linalg.iterator_type<parallel>, #linalg.iterator_type<parallel>], operand_segment_sizes = array<i32: 1, 1>} : (tensor<1x197x1xf32>, tensor<1x197x768xf32>) -> tensor<1x197x768xf32>
    %408 = "linalg.generic"(%401, %407, %209) ({
    ^bb0(%arg1: f32, %arg2: f32, %arg3: f32):
      %1260 = "arith.mulf"(%arg1, %arg2) {fastmath = #arith.fastmath<none>} : (f32, f32) -> f32
      "linalg.yield"(%1260) : (f32) -> ()
    }) {indexing_maps = [#map3, #map3, #map], iterator_types = [#linalg.iterator_type<parallel>, #linalg.iterator_type<parallel>, #linalg.iterator_type<parallel>], operand_segment_sizes = array<i32: 2, 1>} : (tensor<1x197x768xf32>, tensor<1x197x768xf32>, tensor<1x197x768xf32>) -> tensor<1x197x768xf32>
    %409 = "linalg.generic"(%408, %163, %209) ({
    ^bb0(%arg1: f32, %arg2: f32, %arg3: f32):
      %1260 = "arith.mulf"(%arg1, %arg2) {fastmath = #arith.fastmath<none>} : (f32, f32) -> f32
      "linalg.yield"(%1260) : (f32) -> ()
    }) {indexing_maps = [#map3, #map4, #map], iterator_types = [#linalg.iterator_type<parallel>, #linalg.iterator_type<parallel>, #linalg.iterator_type<parallel>], operand_segment_sizes = array<i32: 2, 1>} : (tensor<1x197x768xf32>, tensor<768xf32>, tensor<1x197x768xf32>) -> tensor<1x197x768xf32>
    %410 = "linalg.generic"(%409, %164, %209) ({
    ^bb0(%arg1: f32, %arg2: f32, %arg3: f32):
      %1260 = "arith.addf"(%arg1, %arg2) {fastmath = #arith.fastmath<none>} : (f32, f32) -> f32
      "linalg.yield"(%1260) : (f32) -> ()
    }) {indexing_maps = [#map3, #map4, #map], iterator_types = [#linalg.iterator_type<parallel>, #linalg.iterator_type<parallel>, #linalg.iterator_type<parallel>], operand_segment_sizes = array<i32: 2, 1>} : (tensor<1x197x768xf32>, tensor<768xf32>, tensor<1x197x768xf32>) -> tensor<1x197x768xf32>
    %411 = "linalg.generic"(%161, %221) ({
    ^bb0(%arg1: f32, %arg2: f32):
      "linalg.yield"(%arg1) : (f32) -> ()
    }) {indexing_maps = [#map5, #map6], iterator_types = [#linalg.iterator_type<parallel>, #linalg.iterator_type<parallel>], operand_segment_sizes = array<i32: 1, 1>} : (tensor<768x768xf32>, tensor<768x768xf32>) -> tensor<768x768xf32>
    %412 = "linalg.generic"(%410, %209) ({
    ^bb0(%arg1: f32, %arg2: f32):
      "linalg.yield"(%arg1) : (f32) -> ()
    }) {indexing_maps = [#map3, #map], iterator_types = [#linalg.iterator_type<parallel>, #linalg.iterator_type<parallel>, #linalg.iterator_type<parallel>], operand_segment_sizes = array<i32: 1, 1>} : (tensor<1x197x768xf32>, tensor<1x197x768xf32>) -> tensor<1x197x768xf32>
    %413 = "linalg.generic"(%411, %224) ({
    ^bb0(%arg1: f32, %arg2: f32):
      "linalg.yield"(%arg1) : (f32) -> ()
    }) {indexing_maps = [#map7, #map], iterator_types = [#linalg.iterator_type<parallel>, #linalg.iterator_type<parallel>, #linalg.iterator_type<parallel>], operand_segment_sizes = array<i32: 1, 1>} : (tensor<768x768xf32>, tensor<1x768x768xf32>) -> tensor<1x768x768xf32>
    %414 = "linalg.batch_matmul"(%412, %413, %226) ({
    ^bb0(%arg1: f32, %arg2: f32, %arg3: f32):
      %1260 = "arith.mulf"(%arg1, %arg2) {fastmath = #arith.fastmath<none>} : (f32, f32) -> f32
      %1261 = "arith.addf"(%arg3, %1260) {fastmath = #arith.fastmath<none>} : (f32, f32) -> f32
      "linalg.yield"(%1261) : (f32) -> ()
    }) {linalg.memoized_indexing_maps = [#map8, #map9, #map10], operand_segment_sizes = array<i32: 2, 1>} : (tensor<1x197x768xf32>, tensor<1x768x768xf32>, tensor<1x197x768xf32>) -> tensor<1x197x768xf32>
    %415 = "linalg.generic"(%414, %162, %209) ({
    ^bb0(%arg1: f32, %arg2: f32, %arg3: f32):
      %1260 = "arith.addf"(%arg1, %arg2) {fastmath = #arith.fastmath<none>} : (f32, f32) -> f32
      "linalg.yield"(%1260) : (f32) -> ()
    }) {indexing_maps = [#map3, #map4, #map], iterator_types = [#linalg.iterator_type<parallel>, #linalg.iterator_type<parallel>, #linalg.iterator_type<parallel>], operand_segment_sizes = array<i32: 2, 1>} : (tensor<1x197x768xf32>, tensor<768xf32>, tensor<1x197x768xf32>) -> tensor<1x197x768xf32>
    %416 = "linalg.generic"(%159, %221) ({
    ^bb0(%arg1: f32, %arg2: f32):
      "linalg.yield"(%arg1) : (f32) -> ()
    }) {indexing_maps = [#map5, #map6], iterator_types = [#linalg.iterator_type<parallel>, #linalg.iterator_type<parallel>], operand_segment_sizes = array<i32: 1, 1>} : (tensor<768x768xf32>, tensor<768x768xf32>) -> tensor<768x768xf32>
    %417 = "linalg.generic"(%416, %224) ({
    ^bb0(%arg1: f32, %arg2: f32):
      "linalg.yield"(%arg1) : (f32) -> ()
    }) {indexing_maps = [#map7, #map], iterator_types = [#linalg.iterator_type<parallel>, #linalg.iterator_type<parallel>, #linalg.iterator_type<parallel>], operand_segment_sizes = array<i32: 1, 1>} : (tensor<768x768xf32>, tensor<1x768x768xf32>) -> tensor<1x768x768xf32>
    %418 = "linalg.batch_matmul"(%412, %417, %226) ({
    ^bb0(%arg1: f32, %arg2: f32, %arg3: f32):
      %1260 = "arith.mulf"(%arg1, %arg2) {fastmath = #arith.fastmath<none>} : (f32, f32) -> f32
      %1261 = "arith.addf"(%arg3, %1260) {fastmath = #arith.fastmath<none>} : (f32, f32) -> f32
      "linalg.yield"(%1261) : (f32) -> ()
    }) {linalg.memoized_indexing_maps = [#map8, #map9, #map10], operand_segment_sizes = array<i32: 2, 1>} : (tensor<1x197x768xf32>, tensor<1x768x768xf32>, tensor<1x197x768xf32>) -> tensor<1x197x768xf32>
    %419 = "linalg.generic"(%418, %160, %209) ({
    ^bb0(%arg1: f32, %arg2: f32, %arg3: f32):
      %1260 = "arith.addf"(%arg1, %arg2) {fastmath = #arith.fastmath<none>} : (f32, f32) -> f32
      "linalg.yield"(%1260) : (f32) -> ()
    }) {indexing_maps = [#map3, #map4, #map], iterator_types = [#linalg.iterator_type<parallel>, #linalg.iterator_type<parallel>, #linalg.iterator_type<parallel>], operand_segment_sizes = array<i32: 2, 1>} : (tensor<1x197x768xf32>, tensor<768xf32>, tensor<1x197x768xf32>) -> tensor<1x197x768xf32>
    %420 = "tensor.expand_shape"(%419) {reassociation = [[0], [1], [2, 3]]} : (tensor<1x197x768xf32>) -> tensor<1x197x12x64xf32>
    %421 = "linalg.generic"(%420, %234) ({
    ^bb0(%arg1: f32, %arg2: f32):
      "linalg.yield"(%arg1) : (f32) -> ()
    }) {indexing_maps = [#map11, #map12], iterator_types = [#linalg.iterator_type<parallel>, #linalg.iterator_type<parallel>, #linalg.iterator_type<parallel>, #linalg.iterator_type<parallel>], operand_segment_sizes = array<i32: 1, 1>} : (tensor<1x197x12x64xf32>, tensor<1x12x197x64xf32>) -> tensor<1x12x197x64xf32>
    %422 = "linalg.generic"(%157, %221) ({
    ^bb0(%arg1: f32, %arg2: f32):
      "linalg.yield"(%arg1) : (f32) -> ()
    }) {indexing_maps = [#map5, #map6], iterator_types = [#linalg.iterator_type<parallel>, #linalg.iterator_type<parallel>], operand_segment_sizes = array<i32: 1, 1>} : (tensor<768x768xf32>, tensor<768x768xf32>) -> tensor<768x768xf32>
    %423 = "linalg.generic"(%422, %224) ({
    ^bb0(%arg1: f32, %arg2: f32):
      "linalg.yield"(%arg1) : (f32) -> ()
    }) {indexing_maps = [#map7, #map], iterator_types = [#linalg.iterator_type<parallel>, #linalg.iterator_type<parallel>, #linalg.iterator_type<parallel>], operand_segment_sizes = array<i32: 1, 1>} : (tensor<768x768xf32>, tensor<1x768x768xf32>) -> tensor<1x768x768xf32>
    %424 = "linalg.batch_matmul"(%412, %423, %226) ({
    ^bb0(%arg1: f32, %arg2: f32, %arg3: f32):
      %1260 = "arith.mulf"(%arg1, %arg2) {fastmath = #arith.fastmath<none>} : (f32, f32) -> f32
      %1261 = "arith.addf"(%arg3, %1260) {fastmath = #arith.fastmath<none>} : (f32, f32) -> f32
      "linalg.yield"(%1261) : (f32) -> ()
    }) {linalg.memoized_indexing_maps = [#map8, #map9, #map10], operand_segment_sizes = array<i32: 2, 1>} : (tensor<1x197x768xf32>, tensor<1x768x768xf32>, tensor<1x197x768xf32>) -> tensor<1x197x768xf32>
    %425 = "linalg.generic"(%424, %158, %209) ({
    ^bb0(%arg1: f32, %arg2: f32, %arg3: f32):
      %1260 = "arith.addf"(%arg1, %arg2) {fastmath = #arith.fastmath<none>} : (f32, f32) -> f32
      "linalg.yield"(%1260) : (f32) -> ()
    }) {indexing_maps = [#map3, #map4, #map], iterator_types = [#linalg.iterator_type<parallel>, #linalg.iterator_type<parallel>, #linalg.iterator_type<parallel>], operand_segment_sizes = array<i32: 2, 1>} : (tensor<1x197x768xf32>, tensor<768xf32>, tensor<1x197x768xf32>) -> tensor<1x197x768xf32>
    %426 = "tensor.expand_shape"(%425) {reassociation = [[0], [1], [2, 3]]} : (tensor<1x197x768xf32>) -> tensor<1x197x12x64xf32>
    %427 = "linalg.generic"(%426, %234) ({
    ^bb0(%arg1: f32, %arg2: f32):
      "linalg.yield"(%arg1) : (f32) -> ()
    }) {indexing_maps = [#map11, #map12], iterator_types = [#linalg.iterator_type<parallel>, #linalg.iterator_type<parallel>, #linalg.iterator_type<parallel>, #linalg.iterator_type<parallel>], operand_segment_sizes = array<i32: 1, 1>} : (tensor<1x197x12x64xf32>, tensor<1x12x197x64xf32>) -> tensor<1x12x197x64xf32>
    %428 = "tensor.expand_shape"(%415) {reassociation = [[0], [1], [2, 3]]} : (tensor<1x197x768xf32>) -> tensor<1x197x12x64xf32>
    %429 = "linalg.generic"(%428, %234) ({
    ^bb0(%arg1: f32, %arg2: f32):
      "linalg.yield"(%arg1) : (f32) -> ()
    }) {indexing_maps = [#map11, #map12], iterator_types = [#linalg.iterator_type<parallel>, #linalg.iterator_type<parallel>, #linalg.iterator_type<parallel>, #linalg.iterator_type<parallel>], operand_segment_sizes = array<i32: 1, 1>} : (tensor<1x197x12x64xf32>, tensor<1x12x197x64xf32>) -> tensor<1x12x197x64xf32>
    %430 = "linalg.generic"(%421, %244) ({
    ^bb0(%arg1: f32, %arg2: f32):
      "linalg.yield"(%arg1) : (f32) -> ()
    }) {indexing_maps = [#map11, #map13], iterator_types = [#linalg.iterator_type<parallel>, #linalg.iterator_type<parallel>, #linalg.iterator_type<parallel>, #linalg.iterator_type<parallel>], operand_segment_sizes = array<i32: 1, 1>} : (tensor<1x12x197x64xf32>, tensor<1x12x64x197xf32>) -> tensor<1x12x64x197xf32>
    %431 = "linalg.generic"(%429, %234) ({
    ^bb0(%arg1: f32, %arg2: f32):
      "linalg.yield"(%arg1) : (f32) -> ()
    }) {indexing_maps = [#map14, #map11], iterator_types = [#linalg.iterator_type<parallel>, #linalg.iterator_type<parallel>, #linalg.iterator_type<parallel>, #linalg.iterator_type<parallel>], operand_segment_sizes = array<i32: 1, 1>} : (tensor<1x12x197x64xf32>, tensor<1x12x197x64xf32>) -> tensor<1x12x197x64xf32>
    %432 = "linalg.generic"(%430, %244) ({
    ^bb0(%arg1: f32, %arg2: f32):
      "linalg.yield"(%arg1) : (f32) -> ()
    }) {indexing_maps = [#map14, #map11], iterator_types = [#linalg.iterator_type<parallel>, #linalg.iterator_type<parallel>, #linalg.iterator_type<parallel>, #linalg.iterator_type<parallel>], operand_segment_sizes = array<i32: 1, 1>} : (tensor<1x12x64x197xf32>, tensor<1x12x64x197xf32>) -> tensor<1x12x64x197xf32>
    %433 = "tensor.collapse_shape"(%431) {reassociation = [[0, 1], [2], [3]]} : (tensor<1x12x197x64xf32>) -> tensor<12x197x64xf32>
    %434 = "tensor.collapse_shape"(%432) {reassociation = [[0, 1], [2], [3]]} : (tensor<1x12x64x197xf32>) -> tensor<12x64x197xf32>
    %435 = "linalg.batch_matmul"(%433, %434, %251) ({
    ^bb0(%arg1: f32, %arg2: f32, %arg3: f32):
      %1260 = "arith.mulf"(%arg1, %arg2) {fastmath = #arith.fastmath<none>} : (f32, f32) -> f32
      %1261 = "arith.addf"(%arg3, %1260) {fastmath = #arith.fastmath<none>} : (f32, f32) -> f32
      "linalg.yield"(%1261) : (f32) -> ()
    }) {linalg.memoized_indexing_maps = [#map8, #map9, #map10], operand_segment_sizes = array<i32: 2, 1>} : (tensor<12x197x64xf32>, tensor<12x64x197xf32>, tensor<12x197x197xf32>) -> tensor<12x197x197xf32>
    %436 = "tensor.expand_shape"(%435) {reassociation = [[0, 1], [2], [3]]} : (tensor<12x197x197xf32>) -> tensor<1x12x197x197xf32>
    %437 = "linalg.generic"(%436, %189, %254) ({
    ^bb0(%arg1: f32, %arg2: f64, %arg3: f32):
      %1260 = "arith.truncf"(%arg2) : (f64) -> f32
      %1261 = "arith.divf"(%arg1, %1260) {fastmath = #arith.fastmath<none>} : (f32, f32) -> f32
      "linalg.yield"(%1261) : (f32) -> ()
    }) {indexing_maps = [#map14, #map15, #map11], iterator_types = [#linalg.iterator_type<parallel>, #linalg.iterator_type<parallel>, #linalg.iterator_type<parallel>, #linalg.iterator_type<parallel>], operand_segment_sizes = array<i32: 2, 1>} : (tensor<1x12x197x197xf32>, tensor<f64>, tensor<1x12x197x197xf32>) -> tensor<1x12x197x197xf32>
    %438:2 = "linalg.generic"(%437, %259, %257) ({
    ^bb0(%arg1: f32, %arg2: f32, %arg3: i64):
      %1260 = "linalg.index"() {dim = 3 : i64} : () -> index
      %1261 = "arith.index_cast"(%1260) : (index) -> i64
      %1262 = "arith.maxf"(%arg1, %arg2) {fastmath = #arith.fastmath<none>} : (f32, f32) -> f32
      %1263 = "arith.cmpf"(%arg1, %arg2) {predicate = 2 : i64} : (f32, f32) -> i1
      %1264 = "arith.select"(%1263, %1261, %arg3) : (i1, i64, i64) -> i64
      "linalg.yield"(%1262, %1264) : (f32, i64) -> ()
    }) {indexing_maps = [#map11, #map16, #map16], iterator_types = [#linalg.iterator_type<parallel>, #linalg.iterator_type<parallel>, #linalg.iterator_type<parallel>, #linalg.iterator_type<reduction>], operand_segment_sizes = array<i32: 1, 2>} : (tensor<1x12x197x197xf32>, tensor<1x12x197x1xf32>, tensor<1x12x197x1xi64>) -> (tensor<1x12x197x1xf32>, tensor<1x12x197x1xi64>)
    %439 = "linalg.generic"(%437, %438#0, %254) ({
    ^bb0(%arg1: f32, %arg2: f32, %arg3: f32):
      %1260 = "arith.subf"(%arg1, %arg2) {fastmath = #arith.fastmath<none>} : (f32, f32) -> f32
      "linalg.yield"(%1260) : (f32) -> ()
    }) {indexing_maps = [#map14, #map17, #map11], iterator_types = [#linalg.iterator_type<parallel>, #linalg.iterator_type<parallel>, #linalg.iterator_type<parallel>, #linalg.iterator_type<parallel>], operand_segment_sizes = array<i32: 2, 1>} : (tensor<1x12x197x197xf32>, tensor<1x12x197x1xf32>, tensor<1x12x197x197xf32>) -> tensor<1x12x197x197xf32>
    %440 = "linalg.generic"(%439, %254) ({
    ^bb0(%arg1: f32, %arg2: f32):
      %1260 = "math.exp"(%arg1) {fastmath = #arith.fastmath<none>} : (f32) -> f32
      "linalg.yield"(%1260) : (f32) -> ()
    }) {indexing_maps = [#map14, #map11], iterator_types = [#linalg.iterator_type<parallel>, #linalg.iterator_type<parallel>, #linalg.iterator_type<parallel>, #linalg.iterator_type<parallel>], operand_segment_sizes = array<i32: 1, 1>} : (tensor<1x12x197x197xf32>, tensor<1x12x197x197xf32>) -> tensor<1x12x197x197xf32>
    %441 = "linalg.generic"(%440, %263) ({
    ^bb0(%arg1: f32, %arg2: f32):
      %1260 = "arith.addf"(%arg1, %arg2) {fastmath = #arith.fastmath<none>} : (f32, f32) -> f32
      "linalg.yield"(%1260) : (f32) -> ()
    }) {indexing_maps = [#map11, #map16], iterator_types = [#linalg.iterator_type<parallel>, #linalg.iterator_type<parallel>, #linalg.iterator_type<parallel>, #linalg.iterator_type<reduction>], operand_segment_sizes = array<i32: 1, 1>} : (tensor<1x12x197x197xf32>, tensor<1x12x197x1xf32>) -> tensor<1x12x197x1xf32>
    %442 = "linalg.generic"(%440, %441, %254) ({
    ^bb0(%arg1: f32, %arg2: f32, %arg3: f32):
      %1260 = "arith.divf"(%arg1, %arg2) {fastmath = #arith.fastmath<none>} : (f32, f32) -> f32
      "linalg.yield"(%1260) : (f32) -> ()
    }) {indexing_maps = [#map14, #map17, #map11], iterator_types = [#linalg.iterator_type<parallel>, #linalg.iterator_type<parallel>, #linalg.iterator_type<parallel>, #linalg.iterator_type<parallel>], operand_segment_sizes = array<i32: 2, 1>} : (tensor<1x12x197x197xf32>, tensor<1x12x197x1xf32>, tensor<1x12x197x197xf32>) -> tensor<1x12x197x197xf32>
    %443 = "linalg.generic"(%442, %254) ({
    ^bb0(%arg1: f32, %arg2: f32):
      "linalg.yield"(%arg1) : (f32) -> ()
    }) {indexing_maps = [#map14, #map11], iterator_types = [#linalg.iterator_type<parallel>, #linalg.iterator_type<parallel>, #linalg.iterator_type<parallel>, #linalg.iterator_type<parallel>], operand_segment_sizes = array<i32: 1, 1>} : (tensor<1x12x197x197xf32>, tensor<1x12x197x197xf32>) -> tensor<1x12x197x197xf32>
    %444 = "linalg.generic"(%427, %234) ({
    ^bb0(%arg1: f32, %arg2: f32):
      "linalg.yield"(%arg1) : (f32) -> ()
    }) {indexing_maps = [#map14, #map11], iterator_types = [#linalg.iterator_type<parallel>, #linalg.iterator_type<parallel>, #linalg.iterator_type<parallel>, #linalg.iterator_type<parallel>], operand_segment_sizes = array<i32: 1, 1>} : (tensor<1x12x197x64xf32>, tensor<1x12x197x64xf32>) -> tensor<1x12x197x64xf32>
    %445 = "tensor.collapse_shape"(%443) {reassociation = [[0, 1], [2], [3]]} : (tensor<1x12x197x197xf32>) -> tensor<12x197x197xf32>
    %446 = "tensor.collapse_shape"(%444) {reassociation = [[0, 1], [2], [3]]} : (tensor<1x12x197x64xf32>) -> tensor<12x197x64xf32>
    %447 = "linalg.batch_matmul"(%445, %446, %271) ({
    ^bb0(%arg1: f32, %arg2: f32, %arg3: f32):
      %1260 = "arith.mulf"(%arg1, %arg2) {fastmath = #arith.fastmath<none>} : (f32, f32) -> f32
      %1261 = "arith.addf"(%arg3, %1260) {fastmath = #arith.fastmath<none>} : (f32, f32) -> f32
      "linalg.yield"(%1261) : (f32) -> ()
    }) {linalg.memoized_indexing_maps = [#map8, #map9, #map10], operand_segment_sizes = array<i32: 2, 1>} : (tensor<12x197x197xf32>, tensor<12x197x64xf32>, tensor<12x197x64xf32>) -> tensor<12x197x64xf32>
    %448 = "tensor.expand_shape"(%447) {reassociation = [[0, 1], [2], [3]]} : (tensor<12x197x64xf32>) -> tensor<1x12x197x64xf32>
    %449 = "linalg.generic"(%448, %274) ({
    ^bb0(%arg1: f32, %arg2: f32):
      "linalg.yield"(%arg1) : (f32) -> ()
    }) {indexing_maps = [#map11, #map12], iterator_types = [#linalg.iterator_type<parallel>, #linalg.iterator_type<parallel>, #linalg.iterator_type<parallel>, #linalg.iterator_type<parallel>], operand_segment_sizes = array<i32: 1, 1>} : (tensor<1x12x197x64xf32>, tensor<1x197x12x64xf32>) -> tensor<1x197x12x64xf32>
    %450 = "tensor.collapse_shape"(%449) {reassociation = [[0], [1], [2, 3]]} : (tensor<1x197x12x64xf32>) -> tensor<1x197x768xf32>
    %451 = "linalg.generic"(%155, %221) ({
    ^bb0(%arg1: f32, %arg2: f32):
      "linalg.yield"(%arg1) : (f32) -> ()
    }) {indexing_maps = [#map5, #map6], iterator_types = [#linalg.iterator_type<parallel>, #linalg.iterator_type<parallel>], operand_segment_sizes = array<i32: 1, 1>} : (tensor<768x768xf32>, tensor<768x768xf32>) -> tensor<768x768xf32>
    %452 = "linalg.generic"(%450, %209) ({
    ^bb0(%arg1: f32, %arg2: f32):
      "linalg.yield"(%arg1) : (f32) -> ()
    }) {indexing_maps = [#map3, #map], iterator_types = [#linalg.iterator_type<parallel>, #linalg.iterator_type<parallel>, #linalg.iterator_type<parallel>], operand_segment_sizes = array<i32: 1, 1>} : (tensor<1x197x768xf32>, tensor<1x197x768xf32>) -> tensor<1x197x768xf32>
    %453 = "linalg.generic"(%451, %224) ({
    ^bb0(%arg1: f32, %arg2: f32):
      "linalg.yield"(%arg1) : (f32) -> ()
    }) {indexing_maps = [#map7, #map], iterator_types = [#linalg.iterator_type<parallel>, #linalg.iterator_type<parallel>, #linalg.iterator_type<parallel>], operand_segment_sizes = array<i32: 1, 1>} : (tensor<768x768xf32>, tensor<1x768x768xf32>) -> tensor<1x768x768xf32>
    %454 = "linalg.batch_matmul"(%452, %453, %226) ({
    ^bb0(%arg1: f32, %arg2: f32, %arg3: f32):
      %1260 = "arith.mulf"(%arg1, %arg2) {fastmath = #arith.fastmath<none>} : (f32, f32) -> f32
      %1261 = "arith.addf"(%arg3, %1260) {fastmath = #arith.fastmath<none>} : (f32, f32) -> f32
      "linalg.yield"(%1261) : (f32) -> ()
    }) {linalg.memoized_indexing_maps = [#map8, #map9, #map10], operand_segment_sizes = array<i32: 2, 1>} : (tensor<1x197x768xf32>, tensor<1x768x768xf32>, tensor<1x197x768xf32>) -> tensor<1x197x768xf32>
    %455 = "linalg.generic"(%454, %156, %209) ({
    ^bb0(%arg1: f32, %arg2: f32, %arg3: f32):
      %1260 = "arith.addf"(%arg1, %arg2) {fastmath = #arith.fastmath<none>} : (f32, f32) -> f32
      "linalg.yield"(%1260) : (f32) -> ()
    }) {indexing_maps = [#map3, #map4, #map], iterator_types = [#linalg.iterator_type<parallel>, #linalg.iterator_type<parallel>, #linalg.iterator_type<parallel>], operand_segment_sizes = array<i32: 2, 1>} : (tensor<1x197x768xf32>, tensor<768xf32>, tensor<1x197x768xf32>) -> tensor<1x197x768xf32>
    %456 = "linalg.generic"(%455, %397, %209) ({
    ^bb0(%arg1: f32, %arg2: f32, %arg3: f32):
      %1260 = "arith.addf"(%arg1, %arg2) {fastmath = #arith.fastmath<none>} : (f32, f32) -> f32
      "linalg.yield"(%1260) : (f32) -> ()
    }) {indexing_maps = [#map3, #map3, #map], iterator_types = [#linalg.iterator_type<parallel>, #linalg.iterator_type<parallel>, #linalg.iterator_type<parallel>], operand_segment_sizes = array<i32: 2, 1>} : (tensor<1x197x768xf32>, tensor<1x197x768xf32>, tensor<1x197x768xf32>) -> tensor<1x197x768xf32>
    %457 = "linalg.generic"(%456, %206) ({
    ^bb0(%arg1: f32, %arg2: f32):
      %1260 = "arith.addf"(%arg1, %arg2) {fastmath = #arith.fastmath<none>} : (f32, f32) -> f32
      "linalg.yield"(%1260) : (f32) -> ()
    }) {indexing_maps = [#map, #map1], iterator_types = [#linalg.iterator_type<parallel>, #linalg.iterator_type<parallel>, #linalg.iterator_type<reduction>], operand_segment_sizes = array<i32: 1, 1>} : (tensor<1x197x768xf32>, tensor<1x197x1xf32>) -> tensor<1x197x1xf32>
    %458 = "linalg.generic"(%457, %205) ({
    ^bb0(%arg1: f32, %arg2: f32):
      %1260 = "arith.divf"(%arg1, %204) {fastmath = #arith.fastmath<none>} : (f32, f32) -> f32
      "linalg.yield"(%1260) : (f32) -> ()
    }) {indexing_maps = [#map2, #map], iterator_types = [#linalg.iterator_type<parallel>, #linalg.iterator_type<parallel>, #linalg.iterator_type<parallel>], operand_segment_sizes = array<i32: 1, 1>} : (tensor<1x197x1xf32>, tensor<1x197x1xf32>) -> tensor<1x197x1xf32>
    %459 = "linalg.generic"(%458, %209) ({
    ^bb0(%arg1: f32, %arg2: f32):
      "linalg.yield"(%arg1) : (f32) -> ()
    }) {indexing_maps = [#map2, #map], iterator_types = [#linalg.iterator_type<parallel>, #linalg.iterator_type<parallel>, #linalg.iterator_type<parallel>], operand_segment_sizes = array<i32: 1, 1>} : (tensor<1x197x1xf32>, tensor<1x197x768xf32>) -> tensor<1x197x768xf32>
    %460 = "linalg.generic"(%456, %459, %209) ({
    ^bb0(%arg1: f32, %arg2: f32, %arg3: f32):
      %1260 = "arith.subf"(%arg1, %arg2) {fastmath = #arith.fastmath<none>} : (f32, f32) -> f32
      "linalg.yield"(%1260) : (f32) -> ()
    }) {indexing_maps = [#map3, #map3, #map], iterator_types = [#linalg.iterator_type<parallel>, #linalg.iterator_type<parallel>, #linalg.iterator_type<parallel>], operand_segment_sizes = array<i32: 2, 1>} : (tensor<1x197x768xf32>, tensor<1x197x768xf32>, tensor<1x197x768xf32>) -> tensor<1x197x768xf32>
    %461 = "linalg.generic"(%460, %460, %209) ({
    ^bb0(%arg1: f32, %arg2: f32, %arg3: f32):
      %1260 = "arith.mulf"(%arg1, %arg2) {fastmath = #arith.fastmath<none>} : (f32, f32) -> f32
      "linalg.yield"(%1260) : (f32) -> ()
    }) {indexing_maps = [#map3, #map3, #map], iterator_types = [#linalg.iterator_type<parallel>, #linalg.iterator_type<parallel>, #linalg.iterator_type<parallel>], operand_segment_sizes = array<i32: 2, 1>} : (tensor<1x197x768xf32>, tensor<1x197x768xf32>, tensor<1x197x768xf32>) -> tensor<1x197x768xf32>
    %462 = "linalg.generic"(%461, %206) ({
    ^bb0(%arg1: f32, %arg2: f32):
      %1260 = "arith.addf"(%arg1, %arg2) {fastmath = #arith.fastmath<none>} : (f32, f32) -> f32
      "linalg.yield"(%1260) : (f32) -> ()
    }) {indexing_maps = [#map, #map1], iterator_types = [#linalg.iterator_type<parallel>, #linalg.iterator_type<parallel>, #linalg.iterator_type<reduction>], operand_segment_sizes = array<i32: 1, 1>} : (tensor<1x197x768xf32>, tensor<1x197x1xf32>) -> tensor<1x197x1xf32>
    %463 = "linalg.generic"(%462, %205) ({
    ^bb0(%arg1: f32, %arg2: f32):
      %1260 = "arith.divf"(%arg1, %204) {fastmath = #arith.fastmath<none>} : (f32, f32) -> f32
      "linalg.yield"(%1260) : (f32) -> ()
    }) {indexing_maps = [#map2, #map], iterator_types = [#linalg.iterator_type<parallel>, #linalg.iterator_type<parallel>, #linalg.iterator_type<parallel>], operand_segment_sizes = array<i32: 1, 1>} : (tensor<1x197x1xf32>, tensor<1x197x1xf32>) -> tensor<1x197x1xf32>
    %464 = "linalg.generic"(%463, %205) ({
    ^bb0(%arg1: f32, %arg2: f32):
      %1260 = "arith.truncf"(%203) : (f64) -> f32
      %1261 = "arith.addf"(%arg1, %1260) {fastmath = #arith.fastmath<none>} : (f32, f32) -> f32
      "linalg.yield"(%1261) : (f32) -> ()
    }) {indexing_maps = [#map2, #map], iterator_types = [#linalg.iterator_type<parallel>, #linalg.iterator_type<parallel>, #linalg.iterator_type<parallel>], operand_segment_sizes = array<i32: 1, 1>} : (tensor<1x197x1xf32>, tensor<1x197x1xf32>) -> tensor<1x197x1xf32>
    %465 = "linalg.generic"(%464, %205) ({
    ^bb0(%arg1: f32, %arg2: f32):
      %1260 = "math.rsqrt"(%arg1) {fastmath = #arith.fastmath<none>} : (f32) -> f32
      "linalg.yield"(%1260) : (f32) -> ()
    }) {indexing_maps = [#map2, #map], iterator_types = [#linalg.iterator_type<parallel>, #linalg.iterator_type<parallel>, #linalg.iterator_type<parallel>], operand_segment_sizes = array<i32: 1, 1>} : (tensor<1x197x1xf32>, tensor<1x197x1xf32>) -> tensor<1x197x1xf32>
    %466 = "linalg.generic"(%465, %209) ({
    ^bb0(%arg1: f32, %arg2: f32):
      "linalg.yield"(%arg1) : (f32) -> ()
    }) {indexing_maps = [#map2, #map], iterator_types = [#linalg.iterator_type<parallel>, #linalg.iterator_type<parallel>, #linalg.iterator_type<parallel>], operand_segment_sizes = array<i32: 1, 1>} : (tensor<1x197x1xf32>, tensor<1x197x768xf32>) -> tensor<1x197x768xf32>
    %467 = "linalg.generic"(%460, %466, %209) ({
    ^bb0(%arg1: f32, %arg2: f32, %arg3: f32):
      %1260 = "arith.mulf"(%arg1, %arg2) {fastmath = #arith.fastmath<none>} : (f32, f32) -> f32
      "linalg.yield"(%1260) : (f32) -> ()
    }) {indexing_maps = [#map3, #map3, #map], iterator_types = [#linalg.iterator_type<parallel>, #linalg.iterator_type<parallel>, #linalg.iterator_type<parallel>], operand_segment_sizes = array<i32: 2, 1>} : (tensor<1x197x768xf32>, tensor<1x197x768xf32>, tensor<1x197x768xf32>) -> tensor<1x197x768xf32>
    %468 = "linalg.generic"(%467, %153, %209) ({
    ^bb0(%arg1: f32, %arg2: f32, %arg3: f32):
      %1260 = "arith.mulf"(%arg1, %arg2) {fastmath = #arith.fastmath<none>} : (f32, f32) -> f32
      "linalg.yield"(%1260) : (f32) -> ()
    }) {indexing_maps = [#map3, #map4, #map], iterator_types = [#linalg.iterator_type<parallel>, #linalg.iterator_type<parallel>, #linalg.iterator_type<parallel>], operand_segment_sizes = array<i32: 2, 1>} : (tensor<1x197x768xf32>, tensor<768xf32>, tensor<1x197x768xf32>) -> tensor<1x197x768xf32>
    %469 = "linalg.generic"(%468, %154, %209) ({
    ^bb0(%arg1: f32, %arg2: f32, %arg3: f32):
      %1260 = "arith.addf"(%arg1, %arg2) {fastmath = #arith.fastmath<none>} : (f32, f32) -> f32
      "linalg.yield"(%1260) : (f32) -> ()
    }) {indexing_maps = [#map3, #map4, #map], iterator_types = [#linalg.iterator_type<parallel>, #linalg.iterator_type<parallel>, #linalg.iterator_type<parallel>], operand_segment_sizes = array<i32: 2, 1>} : (tensor<1x197x768xf32>, tensor<768xf32>, tensor<1x197x768xf32>) -> tensor<1x197x768xf32>
    %470 = "linalg.generic"(%151, %296) ({
    ^bb0(%arg1: f32, %arg2: f32):
      "linalg.yield"(%arg1) : (f32) -> ()
    }) {indexing_maps = [#map5, #map6], iterator_types = [#linalg.iterator_type<parallel>, #linalg.iterator_type<parallel>], operand_segment_sizes = array<i32: 1, 1>} : (tensor<3072x768xf32>, tensor<768x3072xf32>) -> tensor<768x3072xf32>
    %471 = "linalg.generic"(%469, %209) ({
    ^bb0(%arg1: f32, %arg2: f32):
      "linalg.yield"(%arg1) : (f32) -> ()
    }) {indexing_maps = [#map3, #map], iterator_types = [#linalg.iterator_type<parallel>, #linalg.iterator_type<parallel>, #linalg.iterator_type<parallel>], operand_segment_sizes = array<i32: 1, 1>} : (tensor<1x197x768xf32>, tensor<1x197x768xf32>) -> tensor<1x197x768xf32>
    %472 = "linalg.generic"(%470, %299) ({
    ^bb0(%arg1: f32, %arg2: f32):
      "linalg.yield"(%arg1) : (f32) -> ()
    }) {indexing_maps = [#map7, #map], iterator_types = [#linalg.iterator_type<parallel>, #linalg.iterator_type<parallel>, #linalg.iterator_type<parallel>], operand_segment_sizes = array<i32: 1, 1>} : (tensor<768x3072xf32>, tensor<1x768x3072xf32>) -> tensor<1x768x3072xf32>
    %473 = "linalg.batch_matmul"(%471, %472, %302) ({
    ^bb0(%arg1: f32, %arg2: f32, %arg3: f32):
      %1260 = "arith.mulf"(%arg1, %arg2) {fastmath = #arith.fastmath<none>} : (f32, f32) -> f32
      %1261 = "arith.addf"(%arg3, %1260) {fastmath = #arith.fastmath<none>} : (f32, f32) -> f32
      "linalg.yield"(%1261) : (f32) -> ()
    }) {linalg.memoized_indexing_maps = [#map8, #map9, #map10], operand_segment_sizes = array<i32: 2, 1>} : (tensor<1x197x768xf32>, tensor<1x768x3072xf32>, tensor<1x197x3072xf32>) -> tensor<1x197x3072xf32>
    %474 = "linalg.generic"(%473, %152, %301) ({
    ^bb0(%arg1: f32, %arg2: f32, %arg3: f32):
      %1260 = "arith.addf"(%arg1, %arg2) {fastmath = #arith.fastmath<none>} : (f32, f32) -> f32
      "linalg.yield"(%1260) : (f32) -> ()
    }) {indexing_maps = [#map3, #map4, #map], iterator_types = [#linalg.iterator_type<parallel>, #linalg.iterator_type<parallel>, #linalg.iterator_type<parallel>], operand_segment_sizes = array<i32: 2, 1>} : (tensor<1x197x3072xf32>, tensor<3072xf32>, tensor<1x197x3072xf32>) -> tensor<1x197x3072xf32>
    %475 = "linalg.generic"(%474, %301) ({
    ^bb0(%arg1: f32, %arg2: f32):
      %1260 = "arith.divf"(%arg1, %201) {fastmath = #arith.fastmath<none>} : (f32, f32) -> f32
      %1261 = "math.erf"(%1260) {fastmath = #arith.fastmath<none>} : (f32) -> f32
      %1262 = "arith.addf"(%1261, %200) {fastmath = #arith.fastmath<none>} : (f32, f32) -> f32
      %1263 = "arith.mulf"(%1262, %202) {fastmath = #arith.fastmath<none>} : (f32, f32) -> f32
      %1264 = "arith.mulf"(%arg1, %1263) {fastmath = #arith.fastmath<none>} : (f32, f32) -> f32
      "linalg.yield"(%1264) : (f32) -> ()
    }) {indexing_maps = [#map3, #map], iterator_types = [#linalg.iterator_type<parallel>, #linalg.iterator_type<parallel>, #linalg.iterator_type<parallel>], operand_segment_sizes = array<i32: 1, 1>} : (tensor<1x197x3072xf32>, tensor<1x197x3072xf32>) -> tensor<1x197x3072xf32>
    %476 = "linalg.generic"(%149, %306) ({
    ^bb0(%arg1: f32, %arg2: f32):
      "linalg.yield"(%arg1) : (f32) -> ()
    }) {indexing_maps = [#map5, #map6], iterator_types = [#linalg.iterator_type<parallel>, #linalg.iterator_type<parallel>], operand_segment_sizes = array<i32: 1, 1>} : (tensor<768x3072xf32>, tensor<3072x768xf32>) -> tensor<3072x768xf32>
    %477 = "linalg.generic"(%475, %301) ({
    ^bb0(%arg1: f32, %arg2: f32):
      "linalg.yield"(%arg1) : (f32) -> ()
    }) {indexing_maps = [#map3, #map], iterator_types = [#linalg.iterator_type<parallel>, #linalg.iterator_type<parallel>, #linalg.iterator_type<parallel>], operand_segment_sizes = array<i32: 1, 1>} : (tensor<1x197x3072xf32>, tensor<1x197x3072xf32>) -> tensor<1x197x3072xf32>
    %478 = "linalg.generic"(%476, %309) ({
    ^bb0(%arg1: f32, %arg2: f32):
      "linalg.yield"(%arg1) : (f32) -> ()
    }) {indexing_maps = [#map7, #map], iterator_types = [#linalg.iterator_type<parallel>, #linalg.iterator_type<parallel>, #linalg.iterator_type<parallel>], operand_segment_sizes = array<i32: 1, 1>} : (tensor<3072x768xf32>, tensor<1x3072x768xf32>) -> tensor<1x3072x768xf32>
    %479 = "linalg.batch_matmul"(%477, %478, %226) ({
    ^bb0(%arg1: f32, %arg2: f32, %arg3: f32):
      %1260 = "arith.mulf"(%arg1, %arg2) {fastmath = #arith.fastmath<none>} : (f32, f32) -> f32
      %1261 = "arith.addf"(%arg3, %1260) {fastmath = #arith.fastmath<none>} : (f32, f32) -> f32
      "linalg.yield"(%1261) : (f32) -> ()
    }) {linalg.memoized_indexing_maps = [#map8, #map9, #map10], operand_segment_sizes = array<i32: 2, 1>} : (tensor<1x197x3072xf32>, tensor<1x3072x768xf32>, tensor<1x197x768xf32>) -> tensor<1x197x768xf32>
    %480 = "linalg.generic"(%479, %150, %209) ({
    ^bb0(%arg1: f32, %arg2: f32, %arg3: f32):
      %1260 = "arith.addf"(%arg1, %arg2) {fastmath = #arith.fastmath<none>} : (f32, f32) -> f32
      "linalg.yield"(%1260) : (f32) -> ()
    }) {indexing_maps = [#map3, #map4, #map], iterator_types = [#linalg.iterator_type<parallel>, #linalg.iterator_type<parallel>, #linalg.iterator_type<parallel>], operand_segment_sizes = array<i32: 2, 1>} : (tensor<1x197x768xf32>, tensor<768xf32>, tensor<1x197x768xf32>) -> tensor<1x197x768xf32>
    %481 = "linalg.generic"(%480, %456, %209) ({
    ^bb0(%arg1: f32, %arg2: f32, %arg3: f32):
      %1260 = "arith.addf"(%arg1, %arg2) {fastmath = #arith.fastmath<none>} : (f32, f32) -> f32
      "linalg.yield"(%1260) : (f32) -> ()
    }) {indexing_maps = [#map3, #map3, #map], iterator_types = [#linalg.iterator_type<parallel>, #linalg.iterator_type<parallel>, #linalg.iterator_type<parallel>], operand_segment_sizes = array<i32: 2, 1>} : (tensor<1x197x768xf32>, tensor<1x197x768xf32>, tensor<1x197x768xf32>) -> tensor<1x197x768xf32>
    %482 = "linalg.generic"(%481, %206) ({
    ^bb0(%arg1: f32, %arg2: f32):
      %1260 = "arith.addf"(%arg1, %arg2) {fastmath = #arith.fastmath<none>} : (f32, f32) -> f32
      "linalg.yield"(%1260) : (f32) -> ()
    }) {indexing_maps = [#map, #map1], iterator_types = [#linalg.iterator_type<parallel>, #linalg.iterator_type<parallel>, #linalg.iterator_type<reduction>], operand_segment_sizes = array<i32: 1, 1>} : (tensor<1x197x768xf32>, tensor<1x197x1xf32>) -> tensor<1x197x1xf32>
    %483 = "linalg.generic"(%482, %205) ({
    ^bb0(%arg1: f32, %arg2: f32):
      %1260 = "arith.divf"(%arg1, %204) {fastmath = #arith.fastmath<none>} : (f32, f32) -> f32
      "linalg.yield"(%1260) : (f32) -> ()
    }) {indexing_maps = [#map2, #map], iterator_types = [#linalg.iterator_type<parallel>, #linalg.iterator_type<parallel>, #linalg.iterator_type<parallel>], operand_segment_sizes = array<i32: 1, 1>} : (tensor<1x197x1xf32>, tensor<1x197x1xf32>) -> tensor<1x197x1xf32>
    %484 = "linalg.generic"(%483, %209) ({
    ^bb0(%arg1: f32, %arg2: f32):
      "linalg.yield"(%arg1) : (f32) -> ()
    }) {indexing_maps = [#map2, #map], iterator_types = [#linalg.iterator_type<parallel>, #linalg.iterator_type<parallel>, #linalg.iterator_type<parallel>], operand_segment_sizes = array<i32: 1, 1>} : (tensor<1x197x1xf32>, tensor<1x197x768xf32>) -> tensor<1x197x768xf32>
    %485 = "linalg.generic"(%481, %484, %209) ({
    ^bb0(%arg1: f32, %arg2: f32, %arg3: f32):
      %1260 = "arith.subf"(%arg1, %arg2) {fastmath = #arith.fastmath<none>} : (f32, f32) -> f32
      "linalg.yield"(%1260) : (f32) -> ()
    }) {indexing_maps = [#map3, #map3, #map], iterator_types = [#linalg.iterator_type<parallel>, #linalg.iterator_type<parallel>, #linalg.iterator_type<parallel>], operand_segment_sizes = array<i32: 2, 1>} : (tensor<1x197x768xf32>, tensor<1x197x768xf32>, tensor<1x197x768xf32>) -> tensor<1x197x768xf32>
    %486 = "linalg.generic"(%485, %485, %209) ({
    ^bb0(%arg1: f32, %arg2: f32, %arg3: f32):
      %1260 = "arith.mulf"(%arg1, %arg2) {fastmath = #arith.fastmath<none>} : (f32, f32) -> f32
      "linalg.yield"(%1260) : (f32) -> ()
    }) {indexing_maps = [#map3, #map3, #map], iterator_types = [#linalg.iterator_type<parallel>, #linalg.iterator_type<parallel>, #linalg.iterator_type<parallel>], operand_segment_sizes = array<i32: 2, 1>} : (tensor<1x197x768xf32>, tensor<1x197x768xf32>, tensor<1x197x768xf32>) -> tensor<1x197x768xf32>
    %487 = "linalg.generic"(%486, %206) ({
    ^bb0(%arg1: f32, %arg2: f32):
      %1260 = "arith.addf"(%arg1, %arg2) {fastmath = #arith.fastmath<none>} : (f32, f32) -> f32
      "linalg.yield"(%1260) : (f32) -> ()
    }) {indexing_maps = [#map, #map1], iterator_types = [#linalg.iterator_type<parallel>, #linalg.iterator_type<parallel>, #linalg.iterator_type<reduction>], operand_segment_sizes = array<i32: 1, 1>} : (tensor<1x197x768xf32>, tensor<1x197x1xf32>) -> tensor<1x197x1xf32>
    %488 = "linalg.generic"(%487, %205) ({
    ^bb0(%arg1: f32, %arg2: f32):
      %1260 = "arith.divf"(%arg1, %204) {fastmath = #arith.fastmath<none>} : (f32, f32) -> f32
      "linalg.yield"(%1260) : (f32) -> ()
    }) {indexing_maps = [#map2, #map], iterator_types = [#linalg.iterator_type<parallel>, #linalg.iterator_type<parallel>, #linalg.iterator_type<parallel>], operand_segment_sizes = array<i32: 1, 1>} : (tensor<1x197x1xf32>, tensor<1x197x1xf32>) -> tensor<1x197x1xf32>
    %489 = "linalg.generic"(%488, %205) ({
    ^bb0(%arg1: f32, %arg2: f32):
      %1260 = "arith.truncf"(%203) : (f64) -> f32
      %1261 = "arith.addf"(%arg1, %1260) {fastmath = #arith.fastmath<none>} : (f32, f32) -> f32
      "linalg.yield"(%1261) : (f32) -> ()
    }) {indexing_maps = [#map2, #map], iterator_types = [#linalg.iterator_type<parallel>, #linalg.iterator_type<parallel>, #linalg.iterator_type<parallel>], operand_segment_sizes = array<i32: 1, 1>} : (tensor<1x197x1xf32>, tensor<1x197x1xf32>) -> tensor<1x197x1xf32>
    %490 = "linalg.generic"(%489, %205) ({
    ^bb0(%arg1: f32, %arg2: f32):
      %1260 = "math.rsqrt"(%arg1) {fastmath = #arith.fastmath<none>} : (f32) -> f32
      "linalg.yield"(%1260) : (f32) -> ()
    }) {indexing_maps = [#map2, #map], iterator_types = [#linalg.iterator_type<parallel>, #linalg.iterator_type<parallel>, #linalg.iterator_type<parallel>], operand_segment_sizes = array<i32: 1, 1>} : (tensor<1x197x1xf32>, tensor<1x197x1xf32>) -> tensor<1x197x1xf32>
    %491 = "linalg.generic"(%490, %209) ({
    ^bb0(%arg1: f32, %arg2: f32):
      "linalg.yield"(%arg1) : (f32) -> ()
    }) {indexing_maps = [#map2, #map], iterator_types = [#linalg.iterator_type<parallel>, #linalg.iterator_type<parallel>, #linalg.iterator_type<parallel>], operand_segment_sizes = array<i32: 1, 1>} : (tensor<1x197x1xf32>, tensor<1x197x768xf32>) -> tensor<1x197x768xf32>
    %492 = "linalg.generic"(%485, %491, %209) ({
    ^bb0(%arg1: f32, %arg2: f32, %arg3: f32):
      %1260 = "arith.mulf"(%arg1, %arg2) {fastmath = #arith.fastmath<none>} : (f32, f32) -> f32
      "linalg.yield"(%1260) : (f32) -> ()
    }) {indexing_maps = [#map3, #map3, #map], iterator_types = [#linalg.iterator_type<parallel>, #linalg.iterator_type<parallel>, #linalg.iterator_type<parallel>], operand_segment_sizes = array<i32: 2, 1>} : (tensor<1x197x768xf32>, tensor<1x197x768xf32>, tensor<1x197x768xf32>) -> tensor<1x197x768xf32>
    %493 = "linalg.generic"(%492, %147, %209) ({
    ^bb0(%arg1: f32, %arg2: f32, %arg3: f32):
      %1260 = "arith.mulf"(%arg1, %arg2) {fastmath = #arith.fastmath<none>} : (f32, f32) -> f32
      "linalg.yield"(%1260) : (f32) -> ()
    }) {indexing_maps = [#map3, #map4, #map], iterator_types = [#linalg.iterator_type<parallel>, #linalg.iterator_type<parallel>, #linalg.iterator_type<parallel>], operand_segment_sizes = array<i32: 2, 1>} : (tensor<1x197x768xf32>, tensor<768xf32>, tensor<1x197x768xf32>) -> tensor<1x197x768xf32>
    %494 = "linalg.generic"(%493, %148, %209) ({
    ^bb0(%arg1: f32, %arg2: f32, %arg3: f32):
      %1260 = "arith.addf"(%arg1, %arg2) {fastmath = #arith.fastmath<none>} : (f32, f32) -> f32
      "linalg.yield"(%1260) : (f32) -> ()
    }) {indexing_maps = [#map3, #map4, #map], iterator_types = [#linalg.iterator_type<parallel>, #linalg.iterator_type<parallel>, #linalg.iterator_type<parallel>], operand_segment_sizes = array<i32: 2, 1>} : (tensor<1x197x768xf32>, tensor<768xf32>, tensor<1x197x768xf32>) -> tensor<1x197x768xf32>
    %495 = "linalg.generic"(%145, %221) ({
    ^bb0(%arg1: f32, %arg2: f32):
      "linalg.yield"(%arg1) : (f32) -> ()
    }) {indexing_maps = [#map5, #map6], iterator_types = [#linalg.iterator_type<parallel>, #linalg.iterator_type<parallel>], operand_segment_sizes = array<i32: 1, 1>} : (tensor<768x768xf32>, tensor<768x768xf32>) -> tensor<768x768xf32>
    %496 = "linalg.generic"(%494, %209) ({
    ^bb0(%arg1: f32, %arg2: f32):
      "linalg.yield"(%arg1) : (f32) -> ()
    }) {indexing_maps = [#map3, #map], iterator_types = [#linalg.iterator_type<parallel>, #linalg.iterator_type<parallel>, #linalg.iterator_type<parallel>], operand_segment_sizes = array<i32: 1, 1>} : (tensor<1x197x768xf32>, tensor<1x197x768xf32>) -> tensor<1x197x768xf32>
    %497 = "linalg.generic"(%495, %224) ({
    ^bb0(%arg1: f32, %arg2: f32):
      "linalg.yield"(%arg1) : (f32) -> ()
    }) {indexing_maps = [#map7, #map], iterator_types = [#linalg.iterator_type<parallel>, #linalg.iterator_type<parallel>, #linalg.iterator_type<parallel>], operand_segment_sizes = array<i32: 1, 1>} : (tensor<768x768xf32>, tensor<1x768x768xf32>) -> tensor<1x768x768xf32>
    %498 = "linalg.batch_matmul"(%496, %497, %226) ({
    ^bb0(%arg1: f32, %arg2: f32, %arg3: f32):
      %1260 = "arith.mulf"(%arg1, %arg2) {fastmath = #arith.fastmath<none>} : (f32, f32) -> f32
      %1261 = "arith.addf"(%arg3, %1260) {fastmath = #arith.fastmath<none>} : (f32, f32) -> f32
      "linalg.yield"(%1261) : (f32) -> ()
    }) {linalg.memoized_indexing_maps = [#map8, #map9, #map10], operand_segment_sizes = array<i32: 2, 1>} : (tensor<1x197x768xf32>, tensor<1x768x768xf32>, tensor<1x197x768xf32>) -> tensor<1x197x768xf32>
    %499 = "linalg.generic"(%498, %146, %209) ({
    ^bb0(%arg1: f32, %arg2: f32, %arg3: f32):
      %1260 = "arith.addf"(%arg1, %arg2) {fastmath = #arith.fastmath<none>} : (f32, f32) -> f32
      "linalg.yield"(%1260) : (f32) -> ()
    }) {indexing_maps = [#map3, #map4, #map], iterator_types = [#linalg.iterator_type<parallel>, #linalg.iterator_type<parallel>, #linalg.iterator_type<parallel>], operand_segment_sizes = array<i32: 2, 1>} : (tensor<1x197x768xf32>, tensor<768xf32>, tensor<1x197x768xf32>) -> tensor<1x197x768xf32>
    %500 = "linalg.generic"(%143, %221) ({
    ^bb0(%arg1: f32, %arg2: f32):
      "linalg.yield"(%arg1) : (f32) -> ()
    }) {indexing_maps = [#map5, #map6], iterator_types = [#linalg.iterator_type<parallel>, #linalg.iterator_type<parallel>], operand_segment_sizes = array<i32: 1, 1>} : (tensor<768x768xf32>, tensor<768x768xf32>) -> tensor<768x768xf32>
    %501 = "linalg.generic"(%500, %224) ({
    ^bb0(%arg1: f32, %arg2: f32):
      "linalg.yield"(%arg1) : (f32) -> ()
    }) {indexing_maps = [#map7, #map], iterator_types = [#linalg.iterator_type<parallel>, #linalg.iterator_type<parallel>, #linalg.iterator_type<parallel>], operand_segment_sizes = array<i32: 1, 1>} : (tensor<768x768xf32>, tensor<1x768x768xf32>) -> tensor<1x768x768xf32>
    %502 = "linalg.batch_matmul"(%496, %501, %226) ({
    ^bb0(%arg1: f32, %arg2: f32, %arg3: f32):
      %1260 = "arith.mulf"(%arg1, %arg2) {fastmath = #arith.fastmath<none>} : (f32, f32) -> f32
      %1261 = "arith.addf"(%arg3, %1260) {fastmath = #arith.fastmath<none>} : (f32, f32) -> f32
      "linalg.yield"(%1261) : (f32) -> ()
    }) {linalg.memoized_indexing_maps = [#map8, #map9, #map10], operand_segment_sizes = array<i32: 2, 1>} : (tensor<1x197x768xf32>, tensor<1x768x768xf32>, tensor<1x197x768xf32>) -> tensor<1x197x768xf32>
    %503 = "linalg.generic"(%502, %144, %209) ({
    ^bb0(%arg1: f32, %arg2: f32, %arg3: f32):
      %1260 = "arith.addf"(%arg1, %arg2) {fastmath = #arith.fastmath<none>} : (f32, f32) -> f32
      "linalg.yield"(%1260) : (f32) -> ()
    }) {indexing_maps = [#map3, #map4, #map], iterator_types = [#linalg.iterator_type<parallel>, #linalg.iterator_type<parallel>, #linalg.iterator_type<parallel>], operand_segment_sizes = array<i32: 2, 1>} : (tensor<1x197x768xf32>, tensor<768xf32>, tensor<1x197x768xf32>) -> tensor<1x197x768xf32>
    %504 = "tensor.expand_shape"(%503) {reassociation = [[0], [1], [2, 3]]} : (tensor<1x197x768xf32>) -> tensor<1x197x12x64xf32>
    %505 = "linalg.generic"(%504, %234) ({
    ^bb0(%arg1: f32, %arg2: f32):
      "linalg.yield"(%arg1) : (f32) -> ()
    }) {indexing_maps = [#map11, #map12], iterator_types = [#linalg.iterator_type<parallel>, #linalg.iterator_type<parallel>, #linalg.iterator_type<parallel>, #linalg.iterator_type<parallel>], operand_segment_sizes = array<i32: 1, 1>} : (tensor<1x197x12x64xf32>, tensor<1x12x197x64xf32>) -> tensor<1x12x197x64xf32>
    %506 = "linalg.generic"(%141, %221) ({
    ^bb0(%arg1: f32, %arg2: f32):
      "linalg.yield"(%arg1) : (f32) -> ()
    }) {indexing_maps = [#map5, #map6], iterator_types = [#linalg.iterator_type<parallel>, #linalg.iterator_type<parallel>], operand_segment_sizes = array<i32: 1, 1>} : (tensor<768x768xf32>, tensor<768x768xf32>) -> tensor<768x768xf32>
    %507 = "linalg.generic"(%506, %224) ({
    ^bb0(%arg1: f32, %arg2: f32):
      "linalg.yield"(%arg1) : (f32) -> ()
    }) {indexing_maps = [#map7, #map], iterator_types = [#linalg.iterator_type<parallel>, #linalg.iterator_type<parallel>, #linalg.iterator_type<parallel>], operand_segment_sizes = array<i32: 1, 1>} : (tensor<768x768xf32>, tensor<1x768x768xf32>) -> tensor<1x768x768xf32>
    %508 = "linalg.batch_matmul"(%496, %507, %226) ({
    ^bb0(%arg1: f32, %arg2: f32, %arg3: f32):
      %1260 = "arith.mulf"(%arg1, %arg2) {fastmath = #arith.fastmath<none>} : (f32, f32) -> f32
      %1261 = "arith.addf"(%arg3, %1260) {fastmath = #arith.fastmath<none>} : (f32, f32) -> f32
      "linalg.yield"(%1261) : (f32) -> ()
    }) {linalg.memoized_indexing_maps = [#map8, #map9, #map10], operand_segment_sizes = array<i32: 2, 1>} : (tensor<1x197x768xf32>, tensor<1x768x768xf32>, tensor<1x197x768xf32>) -> tensor<1x197x768xf32>
    %509 = "linalg.generic"(%508, %142, %209) ({
    ^bb0(%arg1: f32, %arg2: f32, %arg3: f32):
      %1260 = "arith.addf"(%arg1, %arg2) {fastmath = #arith.fastmath<none>} : (f32, f32) -> f32
      "linalg.yield"(%1260) : (f32) -> ()
    }) {indexing_maps = [#map3, #map4, #map], iterator_types = [#linalg.iterator_type<parallel>, #linalg.iterator_type<parallel>, #linalg.iterator_type<parallel>], operand_segment_sizes = array<i32: 2, 1>} : (tensor<1x197x768xf32>, tensor<768xf32>, tensor<1x197x768xf32>) -> tensor<1x197x768xf32>
    %510 = "tensor.expand_shape"(%509) {reassociation = [[0], [1], [2, 3]]} : (tensor<1x197x768xf32>) -> tensor<1x197x12x64xf32>
    %511 = "linalg.generic"(%510, %234) ({
    ^bb0(%arg1: f32, %arg2: f32):
      "linalg.yield"(%arg1) : (f32) -> ()
    }) {indexing_maps = [#map11, #map12], iterator_types = [#linalg.iterator_type<parallel>, #linalg.iterator_type<parallel>, #linalg.iterator_type<parallel>, #linalg.iterator_type<parallel>], operand_segment_sizes = array<i32: 1, 1>} : (tensor<1x197x12x64xf32>, tensor<1x12x197x64xf32>) -> tensor<1x12x197x64xf32>
    %512 = "tensor.expand_shape"(%499) {reassociation = [[0], [1], [2, 3]]} : (tensor<1x197x768xf32>) -> tensor<1x197x12x64xf32>
    %513 = "linalg.generic"(%512, %234) ({
    ^bb0(%arg1: f32, %arg2: f32):
      "linalg.yield"(%arg1) : (f32) -> ()
    }) {indexing_maps = [#map11, #map12], iterator_types = [#linalg.iterator_type<parallel>, #linalg.iterator_type<parallel>, #linalg.iterator_type<parallel>, #linalg.iterator_type<parallel>], operand_segment_sizes = array<i32: 1, 1>} : (tensor<1x197x12x64xf32>, tensor<1x12x197x64xf32>) -> tensor<1x12x197x64xf32>
    %514 = "linalg.generic"(%505, %244) ({
    ^bb0(%arg1: f32, %arg2: f32):
      "linalg.yield"(%arg1) : (f32) -> ()
    }) {indexing_maps = [#map11, #map13], iterator_types = [#linalg.iterator_type<parallel>, #linalg.iterator_type<parallel>, #linalg.iterator_type<parallel>, #linalg.iterator_type<parallel>], operand_segment_sizes = array<i32: 1, 1>} : (tensor<1x12x197x64xf32>, tensor<1x12x64x197xf32>) -> tensor<1x12x64x197xf32>
    %515 = "linalg.generic"(%513, %234) ({
    ^bb0(%arg1: f32, %arg2: f32):
      "linalg.yield"(%arg1) : (f32) -> ()
    }) {indexing_maps = [#map14, #map11], iterator_types = [#linalg.iterator_type<parallel>, #linalg.iterator_type<parallel>, #linalg.iterator_type<parallel>, #linalg.iterator_type<parallel>], operand_segment_sizes = array<i32: 1, 1>} : (tensor<1x12x197x64xf32>, tensor<1x12x197x64xf32>) -> tensor<1x12x197x64xf32>
    %516 = "linalg.generic"(%514, %244) ({
    ^bb0(%arg1: f32, %arg2: f32):
      "linalg.yield"(%arg1) : (f32) -> ()
    }) {indexing_maps = [#map14, #map11], iterator_types = [#linalg.iterator_type<parallel>, #linalg.iterator_type<parallel>, #linalg.iterator_type<parallel>, #linalg.iterator_type<parallel>], operand_segment_sizes = array<i32: 1, 1>} : (tensor<1x12x64x197xf32>, tensor<1x12x64x197xf32>) -> tensor<1x12x64x197xf32>
    %517 = "tensor.collapse_shape"(%515) {reassociation = [[0, 1], [2], [3]]} : (tensor<1x12x197x64xf32>) -> tensor<12x197x64xf32>
    %518 = "tensor.collapse_shape"(%516) {reassociation = [[0, 1], [2], [3]]} : (tensor<1x12x64x197xf32>) -> tensor<12x64x197xf32>
    %519 = "linalg.batch_matmul"(%517, %518, %251) ({
    ^bb0(%arg1: f32, %arg2: f32, %arg3: f32):
      %1260 = "arith.mulf"(%arg1, %arg2) {fastmath = #arith.fastmath<none>} : (f32, f32) -> f32
      %1261 = "arith.addf"(%arg3, %1260) {fastmath = #arith.fastmath<none>} : (f32, f32) -> f32
      "linalg.yield"(%1261) : (f32) -> ()
    }) {linalg.memoized_indexing_maps = [#map8, #map9, #map10], operand_segment_sizes = array<i32: 2, 1>} : (tensor<12x197x64xf32>, tensor<12x64x197xf32>, tensor<12x197x197xf32>) -> tensor<12x197x197xf32>
    %520 = "tensor.expand_shape"(%519) {reassociation = [[0, 1], [2], [3]]} : (tensor<12x197x197xf32>) -> tensor<1x12x197x197xf32>
    %521 = "linalg.generic"(%520, %189, %254) ({
    ^bb0(%arg1: f32, %arg2: f64, %arg3: f32):
      %1260 = "arith.truncf"(%arg2) : (f64) -> f32
      %1261 = "arith.divf"(%arg1, %1260) {fastmath = #arith.fastmath<none>} : (f32, f32) -> f32
      "linalg.yield"(%1261) : (f32) -> ()
    }) {indexing_maps = [#map14, #map15, #map11], iterator_types = [#linalg.iterator_type<parallel>, #linalg.iterator_type<parallel>, #linalg.iterator_type<parallel>, #linalg.iterator_type<parallel>], operand_segment_sizes = array<i32: 2, 1>} : (tensor<1x12x197x197xf32>, tensor<f64>, tensor<1x12x197x197xf32>) -> tensor<1x12x197x197xf32>
    %522:2 = "linalg.generic"(%521, %259, %257) ({
    ^bb0(%arg1: f32, %arg2: f32, %arg3: i64):
      %1260 = "linalg.index"() {dim = 3 : i64} : () -> index
      %1261 = "arith.index_cast"(%1260) : (index) -> i64
      %1262 = "arith.maxf"(%arg1, %arg2) {fastmath = #arith.fastmath<none>} : (f32, f32) -> f32
      %1263 = "arith.cmpf"(%arg1, %arg2) {predicate = 2 : i64} : (f32, f32) -> i1
      %1264 = "arith.select"(%1263, %1261, %arg3) : (i1, i64, i64) -> i64
      "linalg.yield"(%1262, %1264) : (f32, i64) -> ()
    }) {indexing_maps = [#map11, #map16, #map16], iterator_types = [#linalg.iterator_type<parallel>, #linalg.iterator_type<parallel>, #linalg.iterator_type<parallel>, #linalg.iterator_type<reduction>], operand_segment_sizes = array<i32: 1, 2>} : (tensor<1x12x197x197xf32>, tensor<1x12x197x1xf32>, tensor<1x12x197x1xi64>) -> (tensor<1x12x197x1xf32>, tensor<1x12x197x1xi64>)
    %523 = "linalg.generic"(%521, %522#0, %254) ({
    ^bb0(%arg1: f32, %arg2: f32, %arg3: f32):
      %1260 = "arith.subf"(%arg1, %arg2) {fastmath = #arith.fastmath<none>} : (f32, f32) -> f32
      "linalg.yield"(%1260) : (f32) -> ()
    }) {indexing_maps = [#map14, #map17, #map11], iterator_types = [#linalg.iterator_type<parallel>, #linalg.iterator_type<parallel>, #linalg.iterator_type<parallel>, #linalg.iterator_type<parallel>], operand_segment_sizes = array<i32: 2, 1>} : (tensor<1x12x197x197xf32>, tensor<1x12x197x1xf32>, tensor<1x12x197x197xf32>) -> tensor<1x12x197x197xf32>
    %524 = "linalg.generic"(%523, %254) ({
    ^bb0(%arg1: f32, %arg2: f32):
      %1260 = "math.exp"(%arg1) {fastmath = #arith.fastmath<none>} : (f32) -> f32
      "linalg.yield"(%1260) : (f32) -> ()
    }) {indexing_maps = [#map14, #map11], iterator_types = [#linalg.iterator_type<parallel>, #linalg.iterator_type<parallel>, #linalg.iterator_type<parallel>, #linalg.iterator_type<parallel>], operand_segment_sizes = array<i32: 1, 1>} : (tensor<1x12x197x197xf32>, tensor<1x12x197x197xf32>) -> tensor<1x12x197x197xf32>
    %525 = "linalg.generic"(%524, %263) ({
    ^bb0(%arg1: f32, %arg2: f32):
      %1260 = "arith.addf"(%arg1, %arg2) {fastmath = #arith.fastmath<none>} : (f32, f32) -> f32
      "linalg.yield"(%1260) : (f32) -> ()
    }) {indexing_maps = [#map11, #map16], iterator_types = [#linalg.iterator_type<parallel>, #linalg.iterator_type<parallel>, #linalg.iterator_type<parallel>, #linalg.iterator_type<reduction>], operand_segment_sizes = array<i32: 1, 1>} : (tensor<1x12x197x197xf32>, tensor<1x12x197x1xf32>) -> tensor<1x12x197x1xf32>
    %526 = "linalg.generic"(%524, %525, %254) ({
    ^bb0(%arg1: f32, %arg2: f32, %arg3: f32):
      %1260 = "arith.divf"(%arg1, %arg2) {fastmath = #arith.fastmath<none>} : (f32, f32) -> f32
      "linalg.yield"(%1260) : (f32) -> ()
    }) {indexing_maps = [#map14, #map17, #map11], iterator_types = [#linalg.iterator_type<parallel>, #linalg.iterator_type<parallel>, #linalg.iterator_type<parallel>, #linalg.iterator_type<parallel>], operand_segment_sizes = array<i32: 2, 1>} : (tensor<1x12x197x197xf32>, tensor<1x12x197x1xf32>, tensor<1x12x197x197xf32>) -> tensor<1x12x197x197xf32>
    %527 = "linalg.generic"(%526, %254) ({
    ^bb0(%arg1: f32, %arg2: f32):
      "linalg.yield"(%arg1) : (f32) -> ()
    }) {indexing_maps = [#map14, #map11], iterator_types = [#linalg.iterator_type<parallel>, #linalg.iterator_type<parallel>, #linalg.iterator_type<parallel>, #linalg.iterator_type<parallel>], operand_segment_sizes = array<i32: 1, 1>} : (tensor<1x12x197x197xf32>, tensor<1x12x197x197xf32>) -> tensor<1x12x197x197xf32>
    %528 = "linalg.generic"(%511, %234) ({
    ^bb0(%arg1: f32, %arg2: f32):
      "linalg.yield"(%arg1) : (f32) -> ()
    }) {indexing_maps = [#map14, #map11], iterator_types = [#linalg.iterator_type<parallel>, #linalg.iterator_type<parallel>, #linalg.iterator_type<parallel>, #linalg.iterator_type<parallel>], operand_segment_sizes = array<i32: 1, 1>} : (tensor<1x12x197x64xf32>, tensor<1x12x197x64xf32>) -> tensor<1x12x197x64xf32>
    %529 = "tensor.collapse_shape"(%527) {reassociation = [[0, 1], [2], [3]]} : (tensor<1x12x197x197xf32>) -> tensor<12x197x197xf32>
    %530 = "tensor.collapse_shape"(%528) {reassociation = [[0, 1], [2], [3]]} : (tensor<1x12x197x64xf32>) -> tensor<12x197x64xf32>
    %531 = "linalg.batch_matmul"(%529, %530, %271) ({
    ^bb0(%arg1: f32, %arg2: f32, %arg3: f32):
      %1260 = "arith.mulf"(%arg1, %arg2) {fastmath = #arith.fastmath<none>} : (f32, f32) -> f32
      %1261 = "arith.addf"(%arg3, %1260) {fastmath = #arith.fastmath<none>} : (f32, f32) -> f32
      "linalg.yield"(%1261) : (f32) -> ()
    }) {linalg.memoized_indexing_maps = [#map8, #map9, #map10], operand_segment_sizes = array<i32: 2, 1>} : (tensor<12x197x197xf32>, tensor<12x197x64xf32>, tensor<12x197x64xf32>) -> tensor<12x197x64xf32>
    %532 = "tensor.expand_shape"(%531) {reassociation = [[0, 1], [2], [3]]} : (tensor<12x197x64xf32>) -> tensor<1x12x197x64xf32>
    %533 = "linalg.generic"(%532, %274) ({
    ^bb0(%arg1: f32, %arg2: f32):
      "linalg.yield"(%arg1) : (f32) -> ()
    }) {indexing_maps = [#map11, #map12], iterator_types = [#linalg.iterator_type<parallel>, #linalg.iterator_type<parallel>, #linalg.iterator_type<parallel>, #linalg.iterator_type<parallel>], operand_segment_sizes = array<i32: 1, 1>} : (tensor<1x12x197x64xf32>, tensor<1x197x12x64xf32>) -> tensor<1x197x12x64xf32>
    %534 = "tensor.collapse_shape"(%533) {reassociation = [[0], [1], [2, 3]]} : (tensor<1x197x12x64xf32>) -> tensor<1x197x768xf32>
    %535 = "linalg.generic"(%139, %221) ({
    ^bb0(%arg1: f32, %arg2: f32):
      "linalg.yield"(%arg1) : (f32) -> ()
    }) {indexing_maps = [#map5, #map6], iterator_types = [#linalg.iterator_type<parallel>, #linalg.iterator_type<parallel>], operand_segment_sizes = array<i32: 1, 1>} : (tensor<768x768xf32>, tensor<768x768xf32>) -> tensor<768x768xf32>
    %536 = "linalg.generic"(%534, %209) ({
    ^bb0(%arg1: f32, %arg2: f32):
      "linalg.yield"(%arg1) : (f32) -> ()
    }) {indexing_maps = [#map3, #map], iterator_types = [#linalg.iterator_type<parallel>, #linalg.iterator_type<parallel>, #linalg.iterator_type<parallel>], operand_segment_sizes = array<i32: 1, 1>} : (tensor<1x197x768xf32>, tensor<1x197x768xf32>) -> tensor<1x197x768xf32>
    %537 = "linalg.generic"(%535, %224) ({
    ^bb0(%arg1: f32, %arg2: f32):
      "linalg.yield"(%arg1) : (f32) -> ()
…
      %1261 = "math.erf"(%1260) {fastmath = #arith.fastmath<none>} : (f32) -> f32
      %1262 = "arith.addf"(%1261, %200) {fastmath = #arith.fastmath<none>} : (f32, f32) -> f32
      %1263 = "arith.mulf"(%1262, %202) {fastmath = #arith.fastmath<none>} : (f32, f32) -> f32
      %1264 = "arith.mulf"(%arg1, %1263) {fastmath = #arith.fastmath<none>} : (f32, f32) -> f32
      "linalg.yield"(%1264) : (f32) -> ()
    }) {indexing_maps = [#map3, #map], iterator_types = [#linalg.iterator_type<parallel>, #linalg.iterator_type<parallel>, #linalg.iterator_type<parallel>], operand_segment_sizes = array<i32: 1, 1>} : (tensor<1x197x3072xf32>, tensor<1x197x3072xf32>) -> tensor<1x197x3072xf32>
    %1148 = "linalg.generic"(%21, %306) ({
    ^bb0(%arg1: f32, %arg2: f32):
      "linalg.yield"(%arg1) : (f32) -> ()
    }) {indexing_maps = [#map5, #map6], iterator_types = [#linalg.iterator_type<parallel>, #linalg.iterator_type<parallel>], operand_segment_sizes = array<i32: 1, 1>} : (tensor<768x3072xf32>, tensor<3072x768xf32>) -> tensor<3072x768xf32>
    %1149 = "linalg.generic"(%1147, %301) ({
    ^bb0(%arg1: f32, %arg2: f32):
      "linalg.yield"(%arg1) : (f32) -> ()
    }) {indexing_maps = [#map3, #map], iterator_types = [#linalg.iterator_type<parallel>, #linalg.iterator_type<parallel>, #linalg.iterator_type<parallel>], operand_segment_sizes = array<i32: 1, 1>} : (tensor<1x197x3072xf32>, tensor<1x197x3072xf32>) -> tensor<1x197x3072xf32>
    %1150 = "linalg.generic"(%1148, %309) ({
    ^bb0(%arg1: f32, %arg2: f32):
      "linalg.yield"(%arg1) : (f32) -> ()
    }) {indexing_maps = [#map7, #map], iterator_types = [#linalg.iterator_type<parallel>, #linalg.iterator_type<parallel>, #linalg.iterator_type<parallel>], operand_segment_sizes = array<i32: 1, 1>} : (tensor<3072x768xf32>, tensor<1x3072x768xf32>) -> tensor<1x3072x768xf32>
    %1151 = "linalg.batch_matmul"(%1149, %1150, %226) ({
    ^bb0(%arg1: f32, %arg2: f32, %arg3: f32):
      %1260 = "arith.mulf"(%arg1, %arg2) {fastmath = #arith.fastmath<none>} : (f32, f32) -> f32
      %1261 = "arith.addf"(%arg3, %1260) {fastmath = #arith.fastmath<none>} : (f32, f32) -> f32
      "linalg.yield"(%1261) : (f32) -> ()
    }) {linalg.memoized_indexing_maps = [#map8, #map9, #map10], operand_segment_sizes = array<i32: 2, 1>} : (tensor<1x197x3072xf32>, tensor<1x3072x768xf32>, tensor<1x197x768xf32>) -> tensor<1x197x768xf32>
    %1152 = "linalg.generic"(%1151, %22, %209) ({
    ^bb0(%arg1: f32, %arg2: f32, %arg3: f32):
      %1260 = "arith.addf"(%arg1, %arg2) {fastmath = #arith.fastmath<none>} : (f32, f32) -> f32
      "linalg.yield"(%1260) : (f32) -> ()
    }) {indexing_maps = [#map3, #map4, #map], iterator_types = [#linalg.iterator_type<parallel>, #linalg.iterator_type<parallel>, #linalg.iterator_type<parallel>], operand_segment_sizes = array<i32: 2, 1>} : (tensor<1x197x768xf32>, tensor<768xf32>, tensor<1x197x768xf32>) -> tensor<1x197x768xf32>
    %1153 = "linalg.generic"(%1152, %1128, %209) ({
    ^bb0(%arg1: f32, %arg2: f32, %arg3: f32):
      %1260 = "arith.addf"(%arg1, %arg2) {fastmath = #arith.fastmath<none>} : (f32, f32) -> f32
      "linalg.yield"(%1260) : (f32) -> ()
    }) {indexing_maps = [#map3, #map3, #map], iterator_types = [#linalg.iterator_type<parallel>, #linalg.iterator_type<parallel>, #linalg.iterator_type<parallel>], operand_segment_sizes = array<i32: 2, 1>} : (tensor<1x197x768xf32>, tensor<1x197x768xf32>, tensor<1x197x768xf32>) -> tensor<1x197x768xf32>
    %1154 = "linalg.generic"(%1153, %206) ({
    ^bb0(%arg1: f32, %arg2: f32):
      %1260 = "arith.addf"(%arg1, %arg2) {fastmath = #arith.fastmath<none>} : (f32, f32) -> f32
      "linalg.yield"(%1260) : (f32) -> ()
    }) {indexing_maps = [#map, #map1], iterator_types = [#linalg.iterator_type<parallel>, #linalg.iterator_type<parallel>, #linalg.iterator_type<reduction>], operand_segment_sizes = array<i32: 1, 1>} : (tensor<1x197x768xf32>, tensor<1x197x1xf32>) -> tensor<1x197x1xf32>
    %1155 = "linalg.generic"(%1154, %205) ({
    ^bb0(%arg1: f32, %arg2: f32):
      %1260 = "arith.divf"(%arg1, %204) {fastmath = #arith.fastmath<none>} : (f32, f32) -> f32
      "linalg.yield"(%1260) : (f32) -> ()
    }) {indexing_maps = [#map2, #map], iterator_types = [#linalg.iterator_type<parallel>, #linalg.iterator_type<parallel>, #linalg.iterator_type<parallel>], operand_segment_sizes = array<i32: 1, 1>} : (tensor<1x197x1xf32>, tensor<1x197x1xf32>) -> tensor<1x197x1xf32>
    %1156 = "linalg.generic"(%1155, %209) ({
    ^bb0(%arg1: f32, %arg2: f32):
      "linalg.yield"(%arg1) : (f32) -> ()
    }) {indexing_maps = [#map2, #map], iterator_types = [#linalg.iterator_type<parallel>, #linalg.iterator_type<parallel>, #linalg.iterator_type<parallel>], operand_segment_sizes = array<i32: 1, 1>} : (tensor<1x197x1xf32>, tensor<1x197x768xf32>) -> tensor<1x197x768xf32>
    %1157 = "linalg.generic"(%1153, %1156, %209) ({
    ^bb0(%arg1: f32, %arg2: f32, %arg3: f32):
      %1260 = "arith.subf"(%arg1, %arg2) {fastmath = #arith.fastmath<none>} : (f32, f32) -> f32
      "linalg.yield"(%1260) : (f32) -> ()
    }) {indexing_maps = [#map3, #map3, #map], iterator_types = [#linalg.iterator_type<parallel>, #linalg.iterator_type<parallel>, #linalg.iterator_type<parallel>], operand_segment_sizes = array<i32: 2, 1>} : (tensor<1x197x768xf32>, tensor<1x197x768xf32>, tensor<1x197x768xf32>) -> tensor<1x197x768xf32>
    %1158 = "linalg.generic"(%1157, %1157, %209) ({
    ^bb0(%arg1: f32, %arg2: f32, %arg3: f32):
      %1260 = "arith.mulf"(%arg1, %arg2) {fastmath = #arith.fastmath<none>} : (f32, f32) -> f32
      "linalg.yield"(%1260) : (f32) -> ()
    }) {indexing_maps = [#map3, #map3, #map], iterator_types = [#linalg.iterator_type<parallel>, #linalg.iterator_type<parallel>, #linalg.iterator_type<parallel>], operand_segment_sizes = array<i32: 2, 1>} : (tensor<1x197x768xf32>, tensor<1x197x768xf32>, tensor<1x197x768xf32>) -> tensor<1x197x768xf32>
    %1159 = "linalg.generic"(%1158, %206) ({
    ^bb0(%arg1: f32, %arg2: f32):
      %1260 = "arith.addf"(%arg1, %arg2) {fastmath = #arith.fastmath<none>} : (f32, f32) -> f32
      "linalg.yield"(%1260) : (f32) -> ()
    }) {indexing_maps = [#map, #map1], iterator_types = [#linalg.iterator_type<parallel>, #linalg.iterator_type<parallel>, #linalg.iterator_type<reduction>], operand_segment_sizes = array<i32: 1, 1>} : (tensor<1x197x768xf32>, tensor<1x197x1xf32>) -> tensor<1x197x1xf32>
    %1160 = "linalg.generic"(%1159, %205) ({
    ^bb0(%arg1: f32, %arg2: f32):
      %1260 = "arith.divf"(%arg1, %204) {fastmath = #arith.fastmath<none>} : (f32, f32) -> f32
      "linalg.yield"(%1260) : (f32) -> ()
    }) {indexing_maps = [#map2, #map], iterator_types = [#linalg.iterator_type<parallel>, #linalg.iterator_type<parallel>, #linalg.iterator_type<parallel>], operand_segment_sizes = array<i32: 1, 1>} : (tensor<1x197x1xf32>, tensor<1x197x1xf32>) -> tensor<1x197x1xf32>
    %1161 = "linalg.generic"(%1160, %205) ({
    ^bb0(%arg1: f32, %arg2: f32):
      %1260 = "arith.truncf"(%203) : (f64) -> f32
      %1261 = "arith.addf"(%arg1, %1260) {fastmath = #arith.fastmath<none>} : (f32, f32) -> f32
      "linalg.yield"(%1261) : (f32) -> ()
    }) {indexing_maps = [#map2, #map], iterator_types = [#linalg.iterator_type<parallel>, #linalg.iterator_type<parallel>, #linalg.iterator_type<parallel>], operand_segment_sizes = array<i32: 1, 1>} : (tensor<1x197x1xf32>, tensor<1x197x1xf32>) -> tensor<1x197x1xf32>
    %1162 = "linalg.generic"(%1161, %205) ({
    ^bb0(%arg1: f32, %arg2: f32):
      %1260 = "math.rsqrt"(%arg1) {fastmath = #arith.fastmath<none>} : (f32) -> f32
      "linalg.yield"(%1260) : (f32) -> ()
    }) {indexing_maps = [#map2, #map], iterator_types = [#linalg.iterator_type<parallel>, #linalg.iterator_type<parallel>, #linalg.iterator_type<parallel>], operand_segment_sizes = array<i32: 1, 1>} : (tensor<1x197x1xf32>, tensor<1x197x1xf32>) -> tensor<1x197x1xf32>
    %1163 = "linalg.generic"(%1162, %209) ({
    ^bb0(%arg1: f32, %arg2: f32):
      "linalg.yield"(%arg1) : (f32) -> ()
    }) {indexing_maps = [#map2, #map], iterator_types = [#linalg.iterator_type<parallel>, #linalg.iterator_type<parallel>, #linalg.iterator_type<parallel>], operand_segment_sizes = array<i32: 1, 1>} : (tensor<1x197x1xf32>, tensor<1x197x768xf32>) -> tensor<1x197x768xf32>
    %1164 = "linalg.generic"(%1157, %1163, %209) ({
    ^bb0(%arg1: f32, %arg2: f32, %arg3: f32):
      %1260 = "arith.mulf"(%arg1, %arg2) {fastmath = #arith.fastmath<none>} : (f32, f32) -> f32
      "linalg.yield"(%1260) : (f32) -> ()
    }) {indexing_maps = [#map3, #map3, #map], iterator_types = [#linalg.iterator_type<parallel>, #linalg.iterator_type<parallel>, #linalg.iterator_type<parallel>], operand_segment_sizes = array<i32: 2, 1>} : (tensor<1x197x768xf32>, tensor<1x197x768xf32>, tensor<1x197x768xf32>) -> tensor<1x197x768xf32>
    %1165 = "linalg.generic"(%1164, %19, %209) ({
    ^bb0(%arg1: f32, %arg2: f32, %arg3: f32):
      %1260 = "arith.mulf"(%arg1, %arg2) {fastmath = #arith.fastmath<none>} : (f32, f32) -> f32
      "linalg.yield"(%1260) : (f32) -> ()
    }) {indexing_maps = [#map3, #map4, #map], iterator_types = [#linalg.iterator_type<parallel>, #linalg.iterator_type<parallel>, #linalg.iterator_type<parallel>], operand_segment_sizes = array<i32: 2, 1>} : (tensor<1x197x768xf32>, tensor<768xf32>, tensor<1x197x768xf32>) -> tensor<1x197x768xf32>
    %1166 = "linalg.generic"(%1165, %20, %209) ({
    ^bb0(%arg1: f32, %arg2: f32, %arg3: f32):
      %1260 = "arith.addf"(%arg1, %arg2) {fastmath = #arith.fastmath<none>} : (f32, f32) -> f32
      "linalg.yield"(%1260) : (f32) -> ()
    }) {indexing_maps = [#map3, #map4, #map], iterator_types = [#linalg.iterator_type<parallel>, #linalg.iterator_type<parallel>, #linalg.iterator_type<parallel>], operand_segment_sizes = array<i32: 2, 1>} : (tensor<1x197x768xf32>, tensor<768xf32>, tensor<1x197x768xf32>) -> tensor<1x197x768xf32>
    %1167 = "linalg.generic"(%17, %221) ({
    ^bb0(%arg1: f32, %arg2: f32):
      "linalg.yield"(%arg1) : (f32) -> ()
    }) {indexing_maps = [#map5, #map6], iterator_types = [#linalg.iterator_type<parallel>, #linalg.iterator_type<parallel>], operand_segment_sizes = array<i32: 1, 1>} : (tensor<768x768xf32>, tensor<768x768xf32>) -> tensor<768x768xf32>
    %1168 = "linalg.generic"(%1166, %209) ({
    ^bb0(%arg1: f32, %arg2: f32):
      "linalg.yield"(%arg1) : (f32) -> ()
    }) {indexing_maps = [#map3, #map], iterator_types = [#linalg.iterator_type<parallel>, #linalg.iterator_type<parallel>, #linalg.iterator_type<parallel>], operand_segment_sizes = array<i32: 1, 1>} : (tensor<1x197x768xf32>, tensor<1x197x768xf32>) -> tensor<1x197x768xf32>
    %1169 = "linalg.generic"(%1167, %224) ({
    ^bb0(%arg1: f32, %arg2: f32):
      "linalg.yield"(%arg1) : (f32) -> ()
    }) {indexing_maps = [#map7, #map], iterator_types = [#linalg.iterator_type<parallel>, #linalg.iterator_type<parallel>, #linalg.iterator_type<parallel>], operand_segment_sizes = array<i32: 1, 1>} : (tensor<768x768xf32>, tensor<1x768x768xf32>) -> tensor<1x768x768xf32>
    %1170 = "linalg.batch_matmul"(%1168, %1169, %226) ({
    ^bb0(%arg1: f32, %arg2: f32, %arg3: f32):
      %1260 = "arith.mulf"(%arg1, %arg2) {fastmath = #arith.fastmath<none>} : (f32, f32) -> f32
      %1261 = "arith.addf"(%arg3, %1260) {fastmath = #arith.fastmath<none>} : (f32, f32) -> f32
      "linalg.yield"(%1261) : (f32) -> ()
    }) {linalg.memoized_indexing_maps = [#map8, #map9, #map10], operand_segment_sizes = array<i32: 2, 1>} : (tensor<1x197x768xf32>, tensor<1x768x768xf32>, tensor<1x197x768xf32>) -> tensor<1x197x768xf32>
    %1171 = "linalg.generic"(%1170, %18, %209) ({
    ^bb0(%arg1: f32, %arg2: f32, %arg3: f32):
      %1260 = "arith.addf"(%arg1, %arg2) {fastmath = #arith.fastmath<none>} : (f32, f32) -> f32
      "linalg.yield"(%1260) : (f32) -> ()
    }) {indexing_maps = [#map3, #map4, #map], iterator_types = [#linalg.iterator_type<parallel>, #linalg.iterator_type<parallel>, #linalg.iterator_type<parallel>], operand_segment_sizes = array<i32: 2, 1>} : (tensor<1x197x768xf32>, tensor<768xf32>, tensor<1x197x768xf32>) -> tensor<1x197x768xf32>
    %1172 = "linalg.generic"(%15, %221) ({
    ^bb0(%arg1: f32, %arg2: f32):
      "linalg.yield"(%arg1) : (f32) -> ()
    }) {indexing_maps = [#map5, #map6], iterator_types = [#linalg.iterator_type<parallel>, #linalg.iterator_type<parallel>], operand_segment_sizes = array<i32: 1, 1>} : (tensor<768x768xf32>, tensor<768x768xf32>) -> tensor<768x768xf32>
    %1173 = "linalg.generic"(%1172, %224) ({
    ^bb0(%arg1: f32, %arg2: f32):
      "linalg.yield"(%arg1) : (f32) -> ()
    }) {indexing_maps = [#map7, #map], iterator_types = [#linalg.iterator_type<parallel>, #linalg.iterator_type<parallel>, #linalg.iterator_type<parallel>], operand_segment_sizes = array<i32: 1, 1>} : (tensor<768x768xf32>, tensor<1x768x768xf32>) -> tensor<1x768x768xf32>
    %1174 = "linalg.batch_matmul"(%1168, %1173, %226) ({
    ^bb0(%arg1: f32, %arg2: f32, %arg3: f32):
      %1260 = "arith.mulf"(%arg1, %arg2) {fastmath = #arith.fastmath<none>} : (f32, f32) -> f32
      %1261 = "arith.addf"(%arg3, %1260) {fastmath = #arith.fastmath<none>} : (f32, f32) -> f32
      "linalg.yield"(%1261) : (f32) -> ()
    }) {linalg.memoized_indexing_maps = [#map8, #map9, #map10], operand_segment_sizes = array<i32: 2, 1>} : (tensor<1x197x768xf32>, tensor<1x768x768xf32>, tensor<1x197x768xf32>) -> tensor<1x197x768xf32>
    %1175 = "linalg.generic"(%1174, %16, %209) ({
    ^bb0(%arg1: f32, %arg2: f32, %arg3: f32):
      %1260 = "arith.addf"(%arg1, %arg2) {fastmath = #arith.fastmath<none>} : (f32, f32) -> f32
      "linalg.yield"(%1260) : (f32) -> ()
    }) {indexing_maps = [#map3, #map4, #map], iterator_types = [#linalg.iterator_type<parallel>, #linalg.iterator_type<parallel>, #linalg.iterator_type<parallel>], operand_segment_sizes = array<i32: 2, 1>} : (tensor<1x197x768xf32>, tensor<768xf32>, tensor<1x197x768xf32>) -> tensor<1x197x768xf32>
    %1176 = "tensor.expand_shape"(%1175) {reassociation = [[0], [1], [2, 3]]} : (tensor<1x197x768xf32>) -> tensor<1x197x12x64xf32>
    %1177 = "linalg.generic"(%1176, %234) ({
    ^bb0(%arg1: f32, %arg2: f32):
      "linalg.yield"(%arg1) : (f32) -> ()
    }) {indexing_maps = [#map11, #map12], iterator_types = [#linalg.iterator_type<parallel>, #linalg.iterator_type<parallel>, #linalg.iterator_type<parallel>, #linalg.iterator_type<parallel>], operand_segment_sizes = array<i32: 1, 1>} : (tensor<1x197x12x64xf32>, tensor<1x12x197x64xf32>) -> tensor<1x12x197x64xf32>
    %1178 = "linalg.generic"(%13, %221) ({
    ^bb0(%arg1: f32, %arg2: f32):
      "linalg.yield"(%arg1) : (f32) -> ()
    }) {indexing_maps = [#map5, #map6], iterator_types = [#linalg.iterator_type<parallel>, #linalg.iterator_type<parallel>], operand_segment_sizes = array<i32: 1, 1>} : (tensor<768x768xf32>, tensor<768x768xf32>) -> tensor<768x768xf32>
    %1179 = "linalg.generic"(%1178, %224) ({
    ^bb0(%arg1: f32, %arg2: f32):
      "linalg.yield"(%arg1) : (f32) -> ()
    }) {indexing_maps = [#map7, #map], iterator_types = [#linalg.iterator_type<parallel>, #linalg.iterator_type<parallel>, #linalg.iterator_type<parallel>], operand_segment_sizes = array<i32: 1, 1>} : (tensor<768x768xf32>, tensor<1x768x768xf32>) -> tensor<1x768x768xf32>
    %1180 = "linalg.batch_matmul"(%1168, %1179, %226) ({
    ^bb0(%arg1: f32, %arg2: f32, %arg3: f32):
      %1260 = "arith.mulf"(%arg1, %arg2) {fastmath = #arith.fastmath<none>} : (f32, f32) -> f32
      %1261 = "arith.addf"(%arg3, %1260) {fastmath = #arith.fastmath<none>} : (f32, f32) -> f32
      "linalg.yield"(%1261) : (f32) -> ()
    }) {linalg.memoized_indexing_maps = [#map8, #map9, #map10], operand_segment_sizes = array<i32: 2, 1>} : (tensor<1x197x768xf32>, tensor<1x768x768xf32>, tensor<1x197x768xf32>) -> tensor<1x197x768xf32>
    %1181 = "linalg.generic"(%1180, %14, %209) ({
    ^bb0(%arg1: f32, %arg2: f32, %arg3: f32):
      %1260 = "arith.addf"(%arg1, %arg2) {fastmath = #arith.fastmath<none>} : (f32, f32) -> f32
      "linalg.yield"(%1260) : (f32) -> ()
    }) {indexing_maps = [#map3, #map4, #map], iterator_types = [#linalg.iterator_type<parallel>, #linalg.iterator_type<parallel>, #linalg.iterator_type<parallel>], operand_segment_sizes = array<i32: 2, 1>} : (tensor<1x197x768xf32>, tensor<768xf32>, tensor<1x197x768xf32>) -> tensor<1x197x768xf32>
    %1182 = "tensor.expand_shape"(%1181) {reassociation = [[0], [1], [2, 3]]} : (tensor<1x197x768xf32>) -> tensor<1x197x12x64xf32>
    %1183 = "linalg.generic"(%1182, %234) ({
    ^bb0(%arg1: f32, %arg2: f32):
      "linalg.yield"(%arg1) : (f32) -> ()
    }) {indexing_maps = [#map11, #map12], iterator_types = [#linalg.iterator_type<parallel>, #linalg.iterator_type<parallel>, #linalg.iterator_type<parallel>, #linalg.iterator_type<parallel>], operand_segment_sizes = array<i32: 1, 1>} : (tensor<1x197x12x64xf32>, tensor<1x12x197x64xf32>) -> tensor<1x12x197x64xf32>
    %1184 = "tensor.expand_shape"(%1171) {reassociation = [[0], [1], [2, 3]]} : (tensor<1x197x768xf32>) -> tensor<1x197x12x64xf32>
    %1185 = "linalg.generic"(%1184, %234) ({
    ^bb0(%arg1: f32, %arg2: f32):
      "linalg.yield"(%arg1) : (f32) -> ()
    }) {indexing_maps = [#map11, #map12], iterator_types = [#linalg.iterator_type<parallel>, #linalg.iterator_type<parallel>, #linalg.iterator_type<parallel>, #linalg.iterator_type<parallel>], operand_segment_sizes = array<i32: 1, 1>} : (tensor<1x197x12x64xf32>, tensor<1x12x197x64xf32>) -> tensor<1x12x197x64xf32>
    %1186 = "linalg.generic"(%1177, %244) ({
    ^bb0(%arg1: f32, %arg2: f32):
      "linalg.yield"(%arg1) : (f32) -> ()
    }) {indexing_maps = [#map11, #map13], iterator_types = [#linalg.iterator_type<parallel>, #linalg.iterator_type<parallel>, #linalg.iterator_type<parallel>, #linalg.iterator_type<parallel>], operand_segment_sizes = array<i32: 1, 1>} : (tensor<1x12x197x64xf32>, tensor<1x12x64x197xf32>) -> tensor<1x12x64x197xf32>
    %1187 = "linalg.generic"(%1185, %234) ({
    ^bb0(%arg1: f32, %arg2: f32):
      "linalg.yield"(%arg1) : (f32) -> ()
    }) {indexing_maps = [#map14, #map11], iterator_types = [#linalg.iterator_type<parallel>, #linalg.iterator_type<parallel>, #linalg.iterator_type<parallel>, #linalg.iterator_type<parallel>], operand_segment_sizes = array<i32: 1, 1>} : (tensor<1x12x197x64xf32>, tensor<1x12x197x64xf32>) -> tensor<1x12x197x64xf32>
    %1188 = "linalg.generic"(%1186, %244) ({
    ^bb0(%arg1: f32, %arg2: f32):
      "linalg.yield"(%arg1) : (f32) -> ()
    }) {indexing_maps = [#map14, #map11], iterator_types = [#linalg.iterator_type<parallel>, #linalg.iterator_type<parallel>, #linalg.iterator_type<parallel>, #linalg.iterator_type<parallel>], operand_segment_sizes = array<i32: 1, 1>} : (tensor<1x12x64x197xf32>, tensor<1x12x64x197xf32>) -> tensor<1x12x64x197xf32>
    %1189 = "tensor.collapse_shape"(%1187) {reassociation = [[0, 1], [2], [3]]} : (tensor<1x12x197x64xf32>) -> tensor<12x197x64xf32>
    %1190 = "tensor.collapse_shape"(%1188) {reassociation = [[0, 1], [2], [3]]} : (tensor<1x12x64x197xf32>) -> tensor<12x64x197xf32>
    %1191 = "linalg.batch_matmul"(%1189, %1190, %251) ({
    ^bb0(%arg1: f32, %arg2: f32, %arg3: f32):
      %1260 = "arith.mulf"(%arg1, %arg2) {fastmath = #arith.fastmath<none>} : (f32, f32) -> f32
      %1261 = "arith.addf"(%arg3, %1260) {fastmath = #arith.fastmath<none>} : (f32, f32) -> f32
      "linalg.yield"(%1261) : (f32) -> ()
    }) {linalg.memoized_indexing_maps = [#map8, #map9, #map10], operand_segment_sizes = array<i32: 2, 1>} : (tensor<12x197x64xf32>, tensor<12x64x197xf32>, tensor<12x197x197xf32>) -> tensor<12x197x197xf32>
    %1192 = "tensor.expand_shape"(%1191) {reassociation = [[0, 1], [2], [3]]} : (tensor<12x197x197xf32>) -> tensor<1x12x197x197xf32>
    %1193 = "linalg.generic"(%1192, %189, %254) ({
    ^bb0(%arg1: f32, %arg2: f64, %arg3: f32):
      %1260 = "arith.truncf"(%arg2) : (f64) -> f32
      %1261 = "arith.divf"(%arg1, %1260) {fastmath = #arith.fastmath<none>} : (f32, f32) -> f32
      "linalg.yield"(%1261) : (f32) -> ()
    }) {indexing_maps = [#map14, #map15, #map11], iterator_types = [#linalg.iterator_type<parallel>, #linalg.iterator_type<parallel>, #linalg.iterator_type<parallel>, #linalg.iterator_type<parallel>], operand_segment_sizes = array<i32: 2, 1>} : (tensor<1x12x197x197xf32>, tensor<f64>, tensor<1x12x197x197xf32>) -> tensor<1x12x197x197xf32>
    %1194:2 = "linalg.generic"(%1193, %259, %257) ({
    ^bb0(%arg1: f32, %arg2: f32, %arg3: i64):
      %1260 = "linalg.index"() {dim = 3 : i64} : () -> index
      %1261 = "arith.index_cast"(%1260) : (index) -> i64
      %1262 = "arith.maxf"(%arg1, %arg2) {fastmath = #arith.fastmath<none>} : (f32, f32) -> f32
      %1263 = "arith.cmpf"(%arg1, %arg2) {predicate = 2 : i64} : (f32, f32) -> i1
      %1264 = "arith.select"(%1263, %1261, %arg3) : (i1, i64, i64) -> i64
      "linalg.yield"(%1262, %1264) : (f32, i64) -> ()
    }) {indexing_maps = [#map11, #map16, #map16], iterator_types = [#linalg.iterator_type<parallel>, #linalg.iterator_type<parallel>, #linalg.iterator_type<parallel>, #linalg.iterator_type<reduction>], operand_segment_sizes = array<i32: 1, 2>} : (tensor<1x12x197x197xf32>, tensor<1x12x197x1xf32>, tensor<1x12x197x1xi64>) -> (tensor<1x12x197x1xf32>, tensor<1x12x197x1xi64>)
    %1195 = "linalg.generic"(%1193, %1194#0, %254) ({
    ^bb0(%arg1: f32, %arg2: f32, %arg3: f32):
      %1260 = "arith.subf"(%arg1, %arg2) {fastmath = #arith.fastmath<none>} : (f32, f32) -> f32
      "linalg.yield"(%1260) : (f32) -> ()
    }) {indexing_maps = [#map14, #map17, #map11], iterator_types = [#linalg.iterator_type<parallel>, #linalg.iterator_type<parallel>, #linalg.iterator_type<parallel>, #linalg.iterator_type<parallel>], operand_segment_sizes = array<i32: 2, 1>} : (tensor<1x12x197x197xf32>, tensor<1x12x197x1xf32>, tensor<1x12x197x197xf32>) -> tensor<1x12x197x197xf32>
    %1196 = "linalg.generic"(%1195, %254) ({
    ^bb0(%arg1: f32, %arg2: f32):
      %1260 = "math.exp"(%arg1) {fastmath = #arith.fastmath<none>} : (f32) -> f32
      "linalg.yield"(%1260) : (f32) -> ()
    }) {indexing_maps = [#map14, #map11], iterator_types = [#linalg.iterator_type<parallel>, #linalg.iterator_type<parallel>, #linalg.iterator_type<parallel>, #linalg.iterator_type<parallel>], operand_segment_sizes = array<i32: 1, 1>} : (tensor<1x12x197x197xf32>, tensor<1x12x197x197xf32>) -> tensor<1x12x197x197xf32>
    %1197 = "linalg.generic"(%1196, %263) ({
    ^bb0(%arg1: f32, %arg2: f32):
      %1260 = "arith.addf"(%arg1, %arg2) {fastmath = #arith.fastmath<none>} : (f32, f32) -> f32
      "linalg.yield"(%1260) : (f32) -> ()
    }) {indexing_maps = [#map11, #map16], iterator_types = [#linalg.iterator_type<parallel>, #linalg.iterator_type<parallel>, #linalg.iterator_type<parallel>, #linalg.iterator_type<reduction>], operand_segment_sizes = array<i32: 1, 1>} : (tensor<1x12x197x197xf32>, tensor<1x12x197x1xf32>) -> tensor<1x12x197x1xf32>
    %1198 = "linalg.generic"(%1196, %1197, %254) ({
    ^bb0(%arg1: f32, %arg2: f32, %arg3: f32):
      %1260 = "arith.divf"(%arg1, %arg2) {fastmath = #arith.fastmath<none>} : (f32, f32) -> f32
      "linalg.yield"(%1260) : (f32) -> ()
    }) {indexing_maps = [#map14, #map17, #map11], iterator_types = [#linalg.iterator_type<parallel>, #linalg.iterator_type<parallel>, #linalg.iterator_type<parallel>, #linalg.iterator_type<parallel>], operand_segment_sizes = array<i32: 2, 1>} : (tensor<1x12x197x197xf32>, tensor<1x12x197x1xf32>, tensor<1x12x197x197xf32>) -> tensor<1x12x197x197xf32>
    %1199 = "linalg.generic"(%1198, %254) ({
    ^bb0(%arg1: f32, %arg2: f32):
      "linalg.yield"(%arg1) : (f32) -> ()
    }) {indexing_maps = [#map14, #map11], iterator_types = [#linalg.iterator_type<parallel>, #linalg.iterator_type<parallel>, #linalg.iterator_type<parallel>, #linalg.iterator_type<parallel>], operand_segment_sizes = array<i32: 1, 1>} : (tensor<1x12x197x197xf32>, tensor<1x12x197x197xf32>) -> tensor<1x12x197x197xf32>
    %1200 = "linalg.generic"(%1183, %234) ({
    ^bb0(%arg1: f32, %arg2: f32):
      "linalg.yield"(%arg1) : (f32) -> ()
    }) {indexing_maps = [#map14, #map11], iterator_types = [#linalg.iterator_type<parallel>, #linalg.iterator_type<parallel>, #linalg.iterator_type<parallel>, #linalg.iterator_type<parallel>], operand_segment_sizes = array<i32: 1, 1>} : (tensor<1x12x197x64xf32>, tensor<1x12x197x64xf32>) -> tensor<1x12x197x64xf32>
    %1201 = "tensor.collapse_shape"(%1199) {reassociation = [[0, 1], [2], [3]]} : (tensor<1x12x197x197xf32>) -> tensor<12x197x197xf32>
    %1202 = "tensor.collapse_shape"(%1200) {reassociation = [[0, 1], [2], [3]]} : (tensor<1x12x197x64xf32>) -> tensor<12x197x64xf32>
    %1203 = "linalg.batch_matmul"(%1201, %1202, %271) ({
    ^bb0(%arg1: f32, %arg2: f32, %arg3: f32):
      %1260 = "arith.mulf"(%arg1, %arg2) {fastmath = #arith.fastmath<none>} : (f32, f32) -> f32
      %1261 = "arith.addf"(%arg3, %1260) {fastmath = #arith.fastmath<none>} : (f32, f32) -> f32
      "linalg.yield"(%1261) : (f32) -> ()
    }) {linalg.memoized_indexing_maps = [#map8, #map9, #map10], operand_segment_sizes = array<i32: 2, 1>} : (tensor<12x197x197xf32>, tensor<12x197x64xf32>, tensor<12x197x64xf32>) -> tensor<12x197x64xf32>
    %1204 = "tensor.expand_shape"(%1203) {reassociation = [[0, 1], [2], [3]]} : (tensor<12x197x64xf32>) -> tensor<1x12x197x64xf32>
    %1205 = "linalg.generic"(%1204, %274) ({
    ^bb0(%arg1: f32, %arg2: f32):
      "linalg.yield"(%arg1) : (f32) -> ()
    }) {indexing_maps = [#map11, #map12], iterator_types = [#linalg.iterator_type<parallel>, #linalg.iterator_type<parallel>, #linalg.iterator_type<parallel>, #linalg.iterator_type<parallel>], operand_segment_sizes = array<i32: 1, 1>} : (tensor<1x12x197x64xf32>, tensor<1x197x12x64xf32>) -> tensor<1x197x12x64xf32>
    %1206 = "tensor.collapse_shape"(%1205) {reassociation = [[0], [1], [2, 3]]} : (tensor<1x197x12x64xf32>) -> tensor<1x197x768xf32>
    %1207 = "linalg.generic"(%11, %221) ({
    ^bb0(%arg1: f32, %arg2: f32):
      "linalg.yield"(%arg1) : (f32) -> ()
    }) {indexing_maps = [#map5, #map6], iterator_types = [#linalg.iterator_type<parallel>, #linalg.iterator_type<parallel>], operand_segment_sizes = array<i32: 1, 1>} : (tensor<768x768xf32>, tensor<768x768xf32>) -> tensor<768x768xf32>
    %1208 = "linalg.generic"(%1206, %209) ({
    ^bb0(%arg1: f32, %arg2: f32):
      "linalg.yield"(%arg1) : (f32) -> ()
    }) {indexing_maps = [#map3, #map], iterator_types = [#linalg.iterator_type<parallel>, #linalg.iterator_type<parallel>, #linalg.iterator_type<parallel>], operand_segment_sizes = array<i32: 1, 1>} : (tensor<1x197x768xf32>, tensor<1x197x768xf32>) -> tensor<1x197x768xf32>
    %1209 = "linalg.generic"(%1207, %224) ({
    ^bb0(%arg1: f32, %arg2: f32):
      "linalg.yield"(%arg1) : (f32) -> ()
    }) {indexing_maps = [#map7, #map], iterator_types = [#linalg.iterator_type<parallel>, #linalg.iterator_type<parallel>, #linalg.iterator_type<parallel>], operand_segment_sizes = array<i32: 1, 1>} : (tensor<768x768xf32>, tensor<1x768x768xf32>) -> tensor<1x768x768xf32>
    %1210 = "linalg.batch_matmul"(%1208, %1209, %226) ({
    ^bb0(%arg1: f32, %arg2: f32, %arg3: f32):
      %1260 = "arith.mulf"(%arg1, %arg2) {fastmath = #arith.fastmath<none>} : (f32, f32) -> f32
      %1261 = "arith.addf"(%arg3, %1260) {fastmath = #arith.fastmath<none>} : (f32, f32) -> f32
      "linalg.yield"(%1261) : (f32) -> ()
    }) {linalg.memoized_indexing_maps = [#map8, #map9, #map10], operand_segment_sizes = array<i32: 2, 1>} : (tensor<1x197x768xf32>, tensor<1x768x768xf32>, tensor<1x197x768xf32>) -> tensor<1x197x768xf32>
    %1211 = "linalg.generic"(%1210, %12, %209) ({
    ^bb0(%arg1: f32, %arg2: f32, %arg3: f32):
      %1260 = "arith.addf"(%arg1, %arg2) {fastmath = #arith.fastmath<none>} : (f32, f32) -> f32
      "linalg.yield"(%1260) : (f32) -> ()
    }) {indexing_maps = [#map3, #map4, #map], iterator_types = [#linalg.iterator_type<parallel>, #linalg.iterator_type<parallel>, #linalg.iterator_type<parallel>], operand_segment_sizes = array<i32: 2, 1>} : (tensor<1x197x768xf32>, tensor<768xf32>, tensor<1x197x768xf32>) -> tensor<1x197x768xf32>
    %1212 = "linalg.generic"(%1211, %1153, %209) ({
    ^bb0(%arg1: f32, %arg2: f32, %arg3: f32):
      %1260 = "arith.addf"(%arg1, %arg2) {fastmath = #arith.fastmath<none>} : (f32, f32) -> f32
      "linalg.yield"(%1260) : (f32) -> ()
    }) {indexing_maps = [#map3, #map3, #map], iterator_types = [#linalg.iterator_type<parallel>, #linalg.iterator_type<parallel>, #linalg.iterator_type<parallel>], operand_segment_sizes = array<i32: 2, 1>} : (tensor<1x197x768xf32>, tensor<1x197x768xf32>, tensor<1x197x768xf32>) -> tensor<1x197x768xf32>
    %1213 = "linalg.generic"(%1212, %206) ({
    ^bb0(%arg1: f32, %arg2: f32):
      %1260 = "arith.addf"(%arg1, %arg2) {fastmath = #arith.fastmath<none>} : (f32, f32) -> f32
      "linalg.yield"(%1260) : (f32) -> ()
    }) {indexing_maps = [#map, #map1], iterator_types = [#linalg.iterator_type<parallel>, #linalg.iterator_type<parallel>, #linalg.iterator_type<reduction>], operand_segment_sizes = array<i32: 1, 1>} : (tensor<1x197x768xf32>, tensor<1x197x1xf32>) -> tensor<1x197x1xf32>
    %1214 = "linalg.generic"(%1213, %205) ({
    ^bb0(%arg1: f32, %arg2: f32):
      %1260 = "arith.divf"(%arg1, %204) {fastmath = #arith.fastmath<none>} : (f32, f32) -> f32
      "linalg.yield"(%1260) : (f32) -> ()
    }) {indexing_maps = [#map2, #map], iterator_types = [#linalg.iterator_type<parallel>, #linalg.iterator_type<parallel>, #linalg.iterator_type<parallel>], operand_segment_sizes = array<i32: 1, 1>} : (tensor<1x197x1xf32>, tensor<1x197x1xf32>) -> tensor<1x197x1xf32>
    %1215 = "linalg.generic"(%1214, %209) ({
    ^bb0(%arg1: f32, %arg2: f32):
      "linalg.yield"(%arg1) : (f32) -> ()
    }) {indexing_maps = [#map2, #map], iterator_types = [#linalg.iterator_type<parallel>, #linalg.iterator_type<parallel>, #linalg.iterator_type<parallel>], operand_segment_sizes = array<i32: 1, 1>} : (tensor<1x197x1xf32>, tensor<1x197x768xf32>) -> tensor<1x197x768xf32>
    %1216 = "linalg.generic"(%1212, %1215, %209) ({
    ^bb0(%arg1: f32, %arg2: f32, %arg3: f32):
      %1260 = "arith.subf"(%arg1, %arg2) {fastmath = #arith.fastmath<none>} : (f32, f32) -> f32
      "linalg.yield"(%1260) : (f32) -> ()
    }) {indexing_maps = [#map3, #map3, #map], iterator_types = [#linalg.iterator_type<parallel>, #linalg.iterator_type<parallel>, #linalg.iterator_type<parallel>], operand_segment_sizes = array<i32: 2, 1>} : (tensor<1x197x768xf32>, tensor<1x197x768xf32>, tensor<1x197x768xf32>) -> tensor<1x197x768xf32>
    %1217 = "linalg.generic"(%1216, %1216, %209) ({
    ^bb0(%arg1: f32, %arg2: f32, %arg3: f32):
      %1260 = "arith.mulf"(%arg1, %arg2) {fastmath = #arith.fastmath<none>} : (f32, f32) -> f32
      "linalg.yield"(%1260) : (f32) -> ()
    }) {indexing_maps = [#map3, #map3, #map], iterator_types = [#linalg.iterator_type<parallel>, #linalg.iterator_type<parallel>, #linalg.iterator_type<parallel>], operand_segment_sizes = array<i32: 2, 1>} : (tensor<1x197x768xf32>, tensor<1x197x768xf32>, tensor<1x197x768xf32>) -> tensor<1x197x768xf32>
    %1218 = "linalg.generic"(%1217, %206) ({
    ^bb0(%arg1: f32, %arg2: f32):
      %1260 = "arith.addf"(%arg1, %arg2) {fastmath = #arith.fastmath<none>} : (f32, f32) -> f32
      "linalg.yield"(%1260) : (f32) -> ()
    }) {indexing_maps = [#map, #map1], iterator_types = [#linalg.iterator_type<parallel>, #linalg.iterator_type<parallel>, #linalg.iterator_type<reduction>], operand_segment_sizes = array<i32: 1, 1>} : (tensor<1x197x768xf32>, tensor<1x197x1xf32>) -> tensor<1x197x1xf32>
    %1219 = "linalg.generic"(%1218, %205) ({
    ^bb0(%arg1: f32, %arg2: f32):
      %1260 = "arith.divf"(%arg1, %204) {fastmath = #arith.fastmath<none>} : (f32, f32) -> f32
      "linalg.yield"(%1260) : (f32) -> ()
    }) {indexing_maps = [#map2, #map], iterator_types = [#linalg.iterator_type<parallel>, #linalg.iterator_type<parallel>, #linalg.iterator_type<parallel>], operand_segment_sizes = array<i32: 1, 1>} : (tensor<1x197x1xf32>, tensor<1x197x1xf32>) -> tensor<1x197x1xf32>
    %1220 = "linalg.generic"(%1219, %205) ({
    ^bb0(%arg1: f32, %arg2: f32):
      %1260 = "arith.truncf"(%203) : (f64) -> f32
      %1261 = "arith.addf"(%arg1, %1260) {fastmath = #arith.fastmath<none>} : (f32, f32) -> f32
      "linalg.yield"(%1261) : (f32) -> ()
    }) {indexing_maps = [#map2, #map], iterator_types = [#linalg.iterator_type<parallel>, #linalg.iterator_type<parallel>, #linalg.iterator_type<parallel>], operand_segment_sizes = array<i32: 1, 1>} : (tensor<1x197x1xf32>, tensor<1x197x1xf32>) -> tensor<1x197x1xf32>
    %1221 = "linalg.generic"(%1220, %205) ({
    ^bb0(%arg1: f32, %arg2: f32):
      %1260 = "math.rsqrt"(%arg1) {fastmath = #arith.fastmath<none>} : (f32) -> f32
      "linalg.yield"(%1260) : (f32) -> ()
    }) {indexing_maps = [#map2, #map], iterator_types = [#linalg.iterator_type<parallel>, #linalg.iterator_type<parallel>, #linalg.iterator_type<parallel>], operand_segment_sizes = array<i32: 1, 1>} : (tensor<1x197x1xf32>, tensor<1x197x1xf32>) -> tensor<1x197x1xf32>
    %1222 = "linalg.generic"(%1221, %209) ({
    ^bb0(%arg1: f32, %arg2: f32):
      "linalg.yield"(%arg1) : (f32) -> ()
    }) {indexing_maps = [#map2, #map], iterator_types = [#linalg.iterator_type<parallel>, #linalg.iterator_type<parallel>, #linalg.iterator_type<parallel>], operand_segment_sizes = array<i32: 1, 1>} : (tensor<1x197x1xf32>, tensor<1x197x768xf32>) -> tensor<1x197x768xf32>
    %1223 = "linalg.generic"(%1216, %1222, %209) ({
    ^bb0(%arg1: f32, %arg2: f32, %arg3: f32):
      %1260 = "arith.mulf"(%arg1, %arg2) {fastmath = #arith.fastmath<none>} : (f32, f32) -> f32
      "linalg.yield"(%1260) : (f32) -> ()
    }) {indexing_maps = [#map3, #map3, #map], iterator_types = [#linalg.iterator_type<parallel>, #linalg.iterator_type<parallel>, #linalg.iterator_type<parallel>], operand_segment_sizes = array<i32: 2, 1>} : (tensor<1x197x768xf32>, tensor<1x197x768xf32>, tensor<1x197x768xf32>) -> tensor<1x197x768xf32>
    %1224 = "linalg.generic"(%1223, %9, %209) ({
    ^bb0(%arg1: f32, %arg2: f32, %arg3: f32):
      %1260 = "arith.mulf"(%arg1, %arg2) {fastmath = #arith.fastmath<none>} : (f32, f32) -> f32
      "linalg.yield"(%1260) : (f32) -> ()
    }) {indexing_maps = [#map3, #map4, #map], iterator_types = [#linalg.iterator_type<parallel>, #linalg.iterator_type<parallel>, #linalg.iterator_type<parallel>], operand_segment_sizes = array<i32: 2, 1>} : (tensor<1x197x768xf32>, tensor<768xf32>, tensor<1x197x768xf32>) -> tensor<1x197x768xf32>
    %1225 = "linalg.generic"(%1224, %10, %209) ({
    ^bb0(%arg1: f32, %arg2: f32, %arg3: f32):
      %1260 = "arith.addf"(%arg1, %arg2) {fastmath = #arith.fastmath<none>} : (f32, f32) -> f32
      "linalg.yield"(%1260) : (f32) -> ()
    }) {indexing_maps = [#map3, #map4, #map], iterator_types = [#linalg.iterator_type<parallel>, #linalg.iterator_type<parallel>, #linalg.iterator_type<parallel>], operand_segment_sizes = array<i32: 2, 1>} : (tensor<1x197x768xf32>, tensor<768xf32>, tensor<1x197x768xf32>) -> tensor<1x197x768xf32>
    %1226 = "linalg.generic"(%7, %296) ({
    ^bb0(%arg1: f32, %arg2: f32):
      "linalg.yield"(%arg1) : (f32) -> ()
    }) {indexing_maps = [#map5, #map6], iterator_types = [#linalg.iterator_type<parallel>, #linalg.iterator_type<parallel>], operand_segment_sizes = array<i32: 1, 1>} : (tensor<3072x768xf32>, tensor<768x3072xf32>) -> tensor<768x3072xf32>
    %1227 = "linalg.generic"(%1225, %209) ({
    ^bb0(%arg1: f32, %arg2: f32):
      "linalg.yield"(%arg1) : (f32) -> ()
    }) {indexing_maps = [#map3, #map], iterator_types = [#linalg.iterator_type<parallel>, #linalg.iterator_type<parallel>, #linalg.iterator_type<parallel>], operand_segment_sizes = array<i32: 1, 1>} : (tensor<1x197x768xf32>, tensor<1x197x768xf32>) -> tensor<1x197x768xf32>
    %1228 = "linalg.generic"(%1226, %299) ({
    ^bb0(%arg1: f32, %arg2: f32):
      "linalg.yield"(%arg1) : (f32) -> ()
    }) {indexing_maps = [#map7, #map], iterator_types = [#linalg.iterator_type<parallel>, #linalg.iterator_type<parallel>, #linalg.iterator_type<parallel>], operand_segment_sizes = array<i32: 1, 1>} : (tensor<768x3072xf32>, tensor<1x768x3072xf32>) -> tensor<1x768x3072xf32>
    %1229 = "linalg.batch_matmul"(%1227, %1228, %302) ({
    ^bb0(%arg1: f32, %arg2: f32, %arg3: f32):
      %1260 = "arith.mulf"(%arg1, %arg2) {fastmath = #arith.fastmath<none>} : (f32, f32) -> f32
      %1261 = "arith.addf"(%arg3, %1260) {fastmath = #arith.fastmath<none>} : (f32, f32) -> f32
      "linalg.yield"(%1261) : (f32) -> ()
    }) {linalg.memoized_indexing_maps = [#map8, #map9, #map10], operand_segment_sizes = array<i32: 2, 1>} : (tensor<1x197x768xf32>, tensor<1x768x3072xf32>, tensor<1x197x3072xf32>) -> tensor<1x197x3072xf32>
    %1230 = "linalg.generic"(%1229, %8, %301) ({
    ^bb0(%arg1: f32, %arg2: f32, %arg3: f32):
      %1260 = "arith.addf"(%arg1, %arg2) {fastmath = #arith.fastmath<none>} : (f32, f32) -> f32
      "linalg.yield"(%1260) : (f32) -> ()
    }) {indexing_maps = [#map3, #map4, #map], iterator_types = [#linalg.iterator_type<parallel>, #linalg.iterator_type<parallel>, #linalg.iterator_type<parallel>], operand_segment_sizes = array<i32: 2, 1>} : (tensor<1x197x3072xf32>, tensor<3072xf32>, tensor<1x197x3072xf32>) -> tensor<1x197x3072xf32>
    %1231 = "linalg.generic"(%1230, %301) ({
    ^bb0(%arg1: f32, %arg2: f32):
      %1260 = "arith.divf"(%arg1, %201) {fastmath = #arith.fastmath<none>} : (f32, f32) -> f32
      %1261 = "math.erf"(%1260) {fastmath = #arith.fastmath<none>} : (f32) -> f32
      %1262 = "arith.addf"(%1261, %200) {fastmath = #arith.fastmath<none>} : (f32, f32) -> f32
      %1263 = "arith.mulf"(%1262, %202) {fastmath = #arith.fastmath<none>} : (f32, f32) -> f32
      %1264 = "arith.mulf"(%arg1, %1263) {fastmath = #arith.fastmath<none>} : (f32, f32) -> f32
      "linalg.yield"(%1264) : (f32) -> ()
    }) {indexing_maps = [#map3, #map], iterator_types = [#linalg.iterator_type<parallel>, #linalg.iterator_type<parallel>, #linalg.iterator_type<parallel>], operand_segment_sizes = array<i32: 1, 1>} : (tensor<1x197x3072xf32>, tensor<1x197x3072xf32>) -> tensor<1x197x3072xf32>
    %1232 = "linalg.generic"(%5, %306) ({
    ^bb0(%arg1: f32, %arg2: f32):
      "linalg.yield"(%arg1) : (f32) -> ()
    }) {indexing_maps = [#map5, #map6], iterator_types = [#linalg.iterator_type<parallel>, #linalg.iterator_type<parallel>], operand_segment_sizes = array<i32: 1, 1>} : (tensor<768x3072xf32>, tensor<3072x768xf32>) -> tensor<3072x768xf32>
    %1233 = "linalg.generic"(%1231, %301) ({
    ^bb0(%arg1: f32, %arg2: f32):
      "linalg.yield"(%arg1) : (f32) -> ()
    }) {indexing_maps = [#map3, #map], iterator_types = [#linalg.iterator_type<parallel>, #linalg.iterator_type<parallel>, #linalg.iterator_type<parallel>], operand_segment_sizes = array<i32: 1, 1>} : (tensor<1x197x3072xf32>, tensor<1x197x3072xf32>) -> tensor<1x197x3072xf32>
    %1234 = "linalg.generic"(%1232, %309) ({
    ^bb0(%arg1: f32, %arg2: f32):
      "linalg.yield"(%arg1) : (f32) -> ()
    }) {indexing_maps = [#map7, #map], iterator_types = [#linalg.iterator_type<parallel>, #linalg.iterator_type<parallel>, #linalg.iterator_type<parallel>], operand_segment_sizes = array<i32: 1, 1>} : (tensor<3072x768xf32>, tensor<1x3072x768xf32>) -> tensor<1x3072x768xf32>
    %1235 = "linalg.batch_matmul"(%1233, %1234, %226) ({
    ^bb0(%arg1: f32, %arg2: f32, %arg3: f32):
      %1260 = "arith.mulf"(%arg1, %arg2) {fastmath = #arith.fastmath<none>} : (f32, f32) -> f32
      %1261 = "arith.addf"(%arg3, %1260) {fastmath = #arith.fastmath<none>} : (f32, f32) -> f32
      "linalg.yield"(%1261) : (f32) -> ()
    }) {linalg.memoized_indexing_maps = [#map8, #map9, #map10], operand_segment_sizes = array<i32: 2, 1>} : (tensor<1x197x3072xf32>, tensor<1x3072x768xf32>, tensor<1x197x768xf32>) -> tensor<1x197x768xf32>
    %1236 = "linalg.generic"(%1235, %6, %209) ({
    ^bb0(%arg1: f32, %arg2: f32, %arg3: f32):
      %1260 = "arith.addf"(%arg1, %arg2) {fastmath = #arith.fastmath<none>} : (f32, f32) -> f32
      "linalg.yield"(%1260) : (f32) -> ()
    }) {indexing_maps = [#map3, #map4, #map], iterator_types = [#linalg.iterator_type<parallel>, #linalg.iterator_type<parallel>, #linalg.iterator_type<parallel>], operand_segment_sizes = array<i32: 2, 1>} : (tensor<1x197x768xf32>, tensor<768xf32>, tensor<1x197x768xf32>) -> tensor<1x197x768xf32>
    %1237 = "linalg.generic"(%1236, %1212, %209) ({
    ^bb0(%arg1: f32, %arg2: f32, %arg3: f32):
      %1260 = "arith.addf"(%arg1, %arg2) {fastmath = #arith.fastmath<none>} : (f32, f32) -> f32
      "linalg.yield"(%1260) : (f32) -> ()
    }) {indexing_maps = [#map3, #map3, #map], iterator_types = [#linalg.iterator_type<parallel>, #linalg.iterator_type<parallel>, #linalg.iterator_type<parallel>], operand_segment_sizes = array<i32: 2, 1>} : (tensor<1x197x768xf32>, tensor<1x197x768xf32>, tensor<1x197x768xf32>) -> tensor<1x197x768xf32>
    %1238 = "linalg.generic"(%1237, %206) ({
    ^bb0(%arg1: f32, %arg2: f32):
      %1260 = "arith.addf"(%arg1, %arg2) {fastmath = #arith.fastmath<none>} : (f32, f32) -> f32
      "linalg.yield"(%1260) : (f32) -> ()
    }) {indexing_maps = [#map, #map1], iterator_types = [#linalg.iterator_type<parallel>, #linalg.iterator_type<parallel>, #linalg.iterator_type<reduction>], operand_segment_sizes = array<i32: 1, 1>} : (tensor<1x197x768xf32>, tensor<1x197x1xf32>) -> tensor<1x197x1xf32>
    %1239 = "linalg.generic"(%1238, %205) ({
    ^bb0(%arg1: f32, %arg2: f32):
      %1260 = "arith.divf"(%arg1, %204) {fastmath = #arith.fastmath<none>} : (f32, f32) -> f32
      "linalg.yield"(%1260) : (f32) -> ()
    }) {indexing_maps = [#map2, #map], iterator_types = [#linalg.iterator_type<parallel>, #linalg.iterator_type<parallel>, #linalg.iterator_type<parallel>], operand_segment_sizes = array<i32: 1, 1>} : (tensor<1x197x1xf32>, tensor<1x197x1xf32>) -> tensor<1x197x1xf32>
    %1240 = "linalg.generic"(%1239, %209) ({
    ^bb0(%arg1: f32, %arg2: f32):
      "linalg.yield"(%arg1) : (f32) -> ()
    }) {indexing_maps = [#map2, #map], iterator_types = [#linalg.iterator_type<parallel>, #linalg.iterator_type<parallel>, #linalg.iterator_type<parallel>], operand_segment_sizes = array<i32: 1, 1>} : (tensor<1x197x1xf32>, tensor<1x197x768xf32>) -> tensor<1x197x768xf32>
    %1241 = "linalg.generic"(%1237, %1240, %209) ({
    ^bb0(%arg1: f32, %arg2: f32, %arg3: f32):
      %1260 = "arith.subf"(%arg1, %arg2) {fastmath = #arith.fastmath<none>} : (f32, f32) -> f32
      "linalg.yield"(%1260) : (f32) -> ()
    }) {indexing_maps = [#map3, #map3, #map], iterator_types = [#linalg.iterator_type<parallel>, #linalg.iterator_type<parallel>, #linalg.iterator_type<parallel>], operand_segment_sizes = array<i32: 2, 1>} : (tensor<1x197x768xf32>, tensor<1x197x768xf32>, tensor<1x197x768xf32>) -> tensor<1x197x768xf32>
    %1242 = "linalg.generic"(%1241, %1241, %209) ({
    ^bb0(%arg1: f32, %arg2: f32, %arg3: f32):
      %1260 = "arith.mulf"(%arg1, %arg2) {fastmath = #arith.fastmath<none>} : (f32, f32) -> f32
      "linalg.yield"(%1260) : (f32) -> ()
    }) {indexing_maps = [#map3, #map3, #map], iterator_types = [#linalg.iterator_type<parallel>, #linalg.iterator_type<parallel>, #linalg.iterator_type<parallel>], operand_segment_sizes = array<i32: 2, 1>} : (tensor<1x197x768xf32>, tensor<1x197x768xf32>, tensor<1x197x768xf32>) -> tensor<1x197x768xf32>
    %1243 = "linalg.generic"(%1242, %206) ({
    ^bb0(%arg1: f32, %arg2: f32):
      %1260 = "arith.addf"(%arg1, %arg2) {fastmath = #arith.fastmath<none>} : (f32, f32) -> f32
      "linalg.yield"(%1260) : (f32) -> ()
    }) {indexing_maps = [#map, #map1], iterator_types = [#linalg.iterator_type<parallel>, #linalg.iterator_type<parallel>, #linalg.iterator_type<reduction>], operand_segment_sizes = array<i32: 1, 1>} : (tensor<1x197x768xf32>, tensor<1x197x1xf32>) -> tensor<1x197x1xf32>
    %1244 = "linalg.generic"(%1243, %205) ({
    ^bb0(%arg1: f32, %arg2: f32):
      %1260 = "arith.divf"(%arg1, %204) {fastmath = #arith.fastmath<none>} : (f32, f32) -> f32
      "linalg.yield"(%1260) : (f32) -> ()
    }) {indexing_maps = [#map2, #map], iterator_types = [#linalg.iterator_type<parallel>, #linalg.iterator_type<parallel>, #linalg.iterator_type<parallel>], operand_segment_sizes = array<i32: 1, 1>} : (tensor<1x197x1xf32>, tensor<1x197x1xf32>) -> tensor<1x197x1xf32>
    %1245 = "linalg.generic"(%1244, %205) ({
    ^bb0(%arg1: f32, %arg2: f32):
      %1260 = "arith.truncf"(%203) : (f64) -> f32
      %1261 = "arith.addf"(%arg1, %1260) {fastmath = #arith.fastmath<none>} : (f32, f32) -> f32
      "linalg.yield"(%1261) : (f32) -> ()
    }) {indexing_maps = [#map2, #map], iterator_types = [#linalg.iterator_type<parallel>, #linalg.iterator_type<parallel>, #linalg.iterator_type<parallel>], operand_segment_sizes = array<i32: 1, 1>} : (tensor<1x197x1xf32>, tensor<1x197x1xf32>) -> tensor<1x197x1xf32>
    %1246 = "linalg.generic"(%1245, %205) ({
    ^bb0(%arg1: f32, %arg2: f32):
      %1260 = "math.rsqrt"(%arg1) {fastmath = #arith.fastmath<none>} : (f32) -> f32
      "linalg.yield"(%1260) : (f32) -> ()
    }) {indexing_maps = [#map2, #map], iterator_types = [#linalg.iterator_type<parallel>, #linalg.iterator_type<parallel>, #linalg.iterator_type<parallel>], operand_segment_sizes = array<i32: 1, 1>} : (tensor<1x197x1xf32>, tensor<1x197x1xf32>) -> tensor<1x197x1xf32>
    %1247 = "linalg.generic"(%1246, %209) ({
    ^bb0(%arg1: f32, %arg2: f32):
      "linalg.yield"(%arg1) : (f32) -> ()
    }) {indexing_maps = [#map2, #map], iterator_types = [#linalg.iterator_type<parallel>, #linalg.iterator_type<parallel>, #linalg.iterator_type<parallel>], operand_segment_sizes = array<i32: 1, 1>} : (tensor<1x197x1xf32>, tensor<1x197x768xf32>) -> tensor<1x197x768xf32>
    %1248 = "linalg.generic"(%1241, %1247, %209) ({
    ^bb0(%arg1: f32, %arg2: f32, %arg3: f32):
      %1260 = "arith.mulf"(%arg1, %arg2) {fastmath = #arith.fastmath<none>} : (f32, f32) -> f32
      "linalg.yield"(%1260) : (f32) -> ()
    }) {indexing_maps = [#map3, #map3, #map], iterator_types = [#linalg.iterator_type<parallel>, #linalg.iterator_type<parallel>, #linalg.iterator_type<parallel>], operand_segment_sizes = array<i32: 2, 1>} : (tensor<1x197x768xf32>, tensor<1x197x768xf32>, tensor<1x197x768xf32>) -> tensor<1x197x768xf32>
    %1249 = "linalg.generic"(%1248, %3, %209) ({
    ^bb0(%arg1: f32, %arg2: f32, %arg3: f32):
      %1260 = "arith.mulf"(%arg1, %arg2) {fastmath = #arith.fastmath<none>} : (f32, f32) -> f32
      "linalg.yield"(%1260) : (f32) -> ()
    }) {indexing_maps = [#map3, #map4, #map], iterator_types = [#linalg.iterator_type<parallel>, #linalg.iterator_type<parallel>, #linalg.iterator_type<parallel>], operand_segment_sizes = array<i32: 2, 1>} : (tensor<1x197x768xf32>, tensor<768xf32>, tensor<1x197x768xf32>) -> tensor<1x197x768xf32>
    %1250 = "linalg.generic"(%1249, %4, %209) ({
    ^bb0(%arg1: f32, %arg2: f32, %arg3: f32):
      %1260 = "arith.addf"(%arg1, %arg2) {fastmath = #arith.fastmath<none>} : (f32, f32) -> f32
      "linalg.yield"(%1260) : (f32) -> ()
    }) {indexing_maps = [#map3, #map4, #map], iterator_types = [#linalg.iterator_type<parallel>, #linalg.iterator_type<parallel>, #linalg.iterator_type<parallel>], operand_segment_sizes = array<i32: 2, 1>} : (tensor<1x197x768xf32>, tensor<768xf32>, tensor<1x197x768xf32>) -> tensor<1x197x768xf32>
    %1251 = "tensor.empty"() : () -> tensor<768x1000xf32>
    %1252 = "linalg.generic"(%1, %1251) ({
    ^bb0(%arg1: f32, %arg2: f32):
      "linalg.yield"(%arg1) : (f32) -> ()
    }) {indexing_maps = [#map5, #map6], iterator_types = [#linalg.iterator_type<parallel>, #linalg.iterator_type<parallel>], operand_segment_sizes = array<i32: 1, 1>} : (tensor<1000x768xf32>, tensor<768x1000xf32>) -> tensor<768x1000xf32>
    %1253 = "linalg.generic"(%1250, %209) ({
    ^bb0(%arg1: f32, %arg2: f32):
      "linalg.yield"(%arg1) : (f32) -> ()
    }) {indexing_maps = [#map3, #map], iterator_types = [#linalg.iterator_type<parallel>, #linalg.iterator_type<parallel>, #linalg.iterator_type<parallel>], operand_segment_sizes = array<i32: 1, 1>} : (tensor<1x197x768xf32>, tensor<1x197x768xf32>) -> tensor<1x197x768xf32>
    %1254 = "tensor.empty"() : () -> tensor<1x768x1000xf32>
    %1255 = "linalg.generic"(%1252, %1254) ({
    ^bb0(%arg1: f32, %arg2: f32):
      "linalg.yield"(%arg1) : (f32) -> ()
    }) {indexing_maps = [#map7, #map], iterator_types = [#linalg.iterator_type<parallel>, #linalg.iterator_type<parallel>, #linalg.iterator_type<parallel>], operand_segment_sizes = array<i32: 1, 1>} : (tensor<768x1000xf32>, tensor<1x768x1000xf32>) -> tensor<1x768x1000xf32>
    %1256 = "tensor.empty"() : () -> tensor<1x197x1000xf32>
    %1257 = "linalg.fill"(%198, %1256) ({
    ^bb0(%arg1: f32, %arg2: f32):
      "linalg.yield"(%arg1) : (f32) -> ()
    }) {operand_segment_sizes = array<i32: 1, 1>} : (f32, tensor<1x197x1000xf32>) -> tensor<1x197x1000xf32>
    %1258 = "linalg.batch_matmul"(%1253, %1255, %1257) ({
    ^bb0(%arg1: f32, %arg2: f32, %arg3: f32):
      %1260 = "arith.mulf"(%arg1, %arg2) {fastmath = #arith.fastmath<none>} : (f32, f32) -> f32
      %1261 = "arith.addf"(%arg3, %1260) {fastmath = #arith.fastmath<none>} : (f32, f32) -> f32
      "linalg.yield"(%1261) : (f32) -> ()
    }) {linalg.memoized_indexing_maps = [#map8, #map9, #map10], operand_segment_sizes = array<i32: 2, 1>} : (tensor<1x197x768xf32>, tensor<1x768x1000xf32>, tensor<1x197x1000xf32>) -> tensor<1x197x1000xf32>
    %1259 = "linalg.generic"(%1258, %2, %1256) ({
    ^bb0(%arg1: f32, %arg2: f32, %arg3: f32):
      %1260 = "arith.addf"(%arg1, %arg2) {fastmath = #arith.fastmath<none>} : (f32, f32) -> f32
      "linalg.yield"(%1260) : (f32) -> ()
    }) {indexing_maps = [#map3, #map4, #map], iterator_types = [#linalg.iterator_type<parallel>, #linalg.iterator_type<parallel>, #linalg.iterator_type<parallel>], operand_segment_sizes = array<i32: 2, 1>} : (tensor<1x197x1000xf32>, tensor<1000xf32>, tensor<1x197x1000xf32>) -> tensor<1x197x1000xf32>
    "func.return"(%1259) : (tensor<1x197x1000xf32>) -> ()
  }) {function_type = (tensor<1x197x768xf32>) -> tensor<1x197x1000xf32>, sym_name = "forward"} : () -> ()
}) {torch.debug_module_name = "vit"} : () -> ()
