#loc3 = loc("-":18:22)
#loc211 = loc(unknown)
#loc213 = loc("-":227:10)
#loc214 = loc("-":227:20)
#loc218 = loc("-":232:10)
#loc219 = loc("-":232:20)
#loc224 = loc("-":238:10)
#loc225 = loc("-":238:20)
#loc228 = loc("-":242:10)
#loc229 = loc("-":242:20)
#loc230 = loc("-":242:34)
#loc234 = loc("-":247:10)
#loc235 = loc("-":247:20)
#loc236 = loc("-":247:34)
#loc240 = loc("-":252:10)
#loc241 = loc("-":252:20)
#loc245 = loc("-":257:10)
#loc246 = loc("-":257:20)
#loc250 = loc("-":262:10)
#loc251 = loc("-":262:20)
#loc256 = loc("-":268:10)
#loc257 = loc("-":268:20)
#loc261 = loc("-":273:10)
#loc262 = loc("-":273:20)
#loc265 = loc("-":277:10)
#loc266 = loc("-":277:20)
#loc267 = loc("-":277:34)
#loc271 = loc("-":282:10)
#loc272 = loc("-":282:20)
#loc273 = loc("-":282:34)
#loc277 = loc("-":287:10)
#loc278 = loc("-":287:20)
#loc279 = loc("-":287:34)
#loc284 = loc("-":293:10)
#loc285 = loc("-":293:20)
#loc288 = loc("-":297:10)
#loc289 = loc("-":297:20)
#loc293 = loc("-":302:10)
#loc294 = loc("-":302:20)
#loc299 = loc("-":308:10)
#loc300 = loc("-":308:20)
#loc301 = loc("-":308:34)
#loc305 = loc("-":313:10)
#loc306 = loc("-":313:20)
#loc309 = loc("-":317:10)
#loc310 = loc("-":317:20)
#loc314 = loc("-":322:10)
#loc315 = loc("-":322:20)
#loc316 = loc("-":322:34)
#loc322 = loc("-":329:10)
#loc323 = loc("-":329:20)
#loc326 = loc("-":333:10)
#loc327 = loc("-":333:20)
#loc330 = loc("-":337:10)
#loc331 = loc("-":337:20)
#loc335 = loc("-":342:10)
#loc336 = loc("-":342:20)
#loc337 = loc("-":342:34)
#loc342 = loc("-":348:10)
#loc343 = loc("-":348:20)
#loc347 = loc("-":353:10)
#loc348 = loc("-":353:20)
#loc352 = loc("-":358:10)
#loc353 = loc("-":358:20)
#loc356 = loc("-":362:10)
#loc357 = loc("-":362:20)
#loc360 = loc("-":366:10)
#loc361 = loc("-":366:20)
#loc371 = loc("-":377:10)
#loc372 = loc("-":377:20)
#loc373 = loc("-":377:34)
#loc382 = loc("-":387:10)
#loc383 = loc("-":387:20)
#loc384 = loc("-":387:31)
#loc392 = loc("-":396:10)
#loc393 = loc("-":396:20)
#loc394 = loc("-":396:34)
#loc398 = loc("-":401:10)
#loc399 = loc("-":401:20)
#loc404 = loc("-":407:10)
#loc405 = loc("-":407:20)
#loc409 = loc("-":412:10)
#loc410 = loc("-":412:20)
#loc411 = loc("-":412:34)
#loc415 = loc("-":417:10)
#loc416 = loc("-":417:20)
#loc419 = loc("-":421:10)
#loc420 = loc("-":421:20)
#loc430 = loc("-":432:10)
#loc431 = loc("-":432:20)
#loc435 = loc("-":437:10)
#loc436 = loc("-":437:20)
#loc439 = loc("-":441:10)
#loc440 = loc("-":441:20)
#loc443 = loc("-":445:10)
#loc444 = loc("-":445:20)
#loc448 = loc("-":450:10)
#loc449 = loc("-":450:20)
#loc450 = loc("-":450:34)
#loc454 = loc("-":455:10)
#loc455 = loc("-":455:20)
#loc456 = loc("-":455:34)
#loc460 = loc("-":460:10)
#loc461 = loc("-":460:20)
#loc465 = loc("-":465:10)
#loc466 = loc("-":465:20)
#loc470 = loc("-":470:10)
#loc471 = loc("-":470:20)
#loc474 = loc("-":474:10)
#loc475 = loc("-":474:20)
#loc476 = loc("-":474:34)
#loc480 = loc("-":479:10)
#loc481 = loc("-":479:20)
#loc482 = loc("-":479:34)
#loc486 = loc("-":484:10)
#loc487 = loc("-":484:20)
#loc491 = loc("-":489:10)
#loc492 = loc("-":489:20)
#loc496 = loc("-":494:10)
#loc497 = loc("-":494:20)
#loc502 = loc("-":500:10)
#loc503 = loc("-":500:20)
#loc507 = loc("-":505:10)
#loc508 = loc("-":505:20)
#loc511 = loc("-":509:10)
#loc512 = loc("-":509:20)
#loc513 = loc("-":509:34)
#loc517 = loc("-":514:10)
#loc518 = loc("-":514:20)
#loc519 = loc("-":514:34)
#loc523 = loc("-":519:10)
#loc524 = loc("-":519:20)
#loc525 = loc("-":519:34)
#loc530 = loc("-":525:10)
#loc531 = loc("-":525:20)
#loc534 = loc("-":529:10)
#loc535 = loc("-":529:20)
#loc539 = loc("-":534:10)
#loc540 = loc("-":534:20)
#loc546 = loc("-":541:10)
#loc547 = loc("-":541:20)
#loc548 = loc("-":541:34)
#loc552 = loc("-":546:10)
#loc553 = loc("-":546:20)
#loc562 = loc("-":556:10)
#loc563 = loc("-":556:20)
#loc566 = loc("-":560:10)
#loc567 = loc("-":560:20)
#loc571 = loc("-":565:10)
#loc572 = loc("-":565:20)
#loc576 = loc("-":570:10)
#loc577 = loc("-":570:20)
#loc578 = loc("-":570:34)
#loc582 = loc("-":575:10)
#loc583 = loc("-":575:20)
#loc584 = loc("-":575:34)
#loc588 = loc("-":580:10)
#loc589 = loc("-":580:20)
#loc593 = loc("-":585:10)
#loc594 = loc("-":585:20)
#loc598 = loc("-":590:10)
#loc599 = loc("-":590:20)
#loc602 = loc("-":594:10)
#loc603 = loc("-":594:20)
#loc604 = loc("-":594:34)
#loc608 = loc("-":599:10)
#loc609 = loc("-":599:20)
#loc610 = loc("-":599:34)
#loc614 = loc("-":604:10)
#loc615 = loc("-":604:20)
#loc619 = loc("-":609:10)
#loc620 = loc("-":609:20)
#loc624 = loc("-":614:10)
#loc625 = loc("-":614:20)
#loc630 = loc("-":620:10)
#loc631 = loc("-":620:20)
#loc635 = loc("-":625:10)
#loc636 = loc("-":625:20)
#loc639 = loc("-":629:10)
#loc640 = loc("-":629:20)
#loc641 = loc("-":629:34)
#loc645 = loc("-":634:10)
#loc646 = loc("-":634:20)
#loc647 = loc("-":634:34)
#loc651 = loc("-":639:10)
#loc652 = loc("-":639:20)
#loc653 = loc("-":639:34)
#loc657 = loc("-":644:10)
#loc658 = loc("-":644:20)
#loc661 = loc("-":648:10)
#loc662 = loc("-":648:20)
#loc665 = loc("-":652:10)
#loc666 = loc("-":652:20)
#loc670 = loc("-":657:10)
#loc671 = loc("-":657:20)
#loc672 = loc("-":657:34)
#loc676 = loc("-":662:10)
#loc677 = loc("-":662:20)
#loc680 = loc("-":666:10)
#loc681 = loc("-":666:20)
#loc685 = loc("-":671:10)
#loc686 = loc("-":671:20)
#loc687 = loc("-":671:34)
#loc692 = loc("-":677:10)
#loc693 = loc("-":677:20)
#loc696 = loc("-":681:10)
#loc697 = loc("-":681:20)
#loc700 = loc("-":685:10)
#loc701 = loc("-":685:20)
#loc705 = loc("-":690:10)
#loc706 = loc("-":690:20)
#loc707 = loc("-":690:34)
#loc712 = loc("-":696:10)
#loc713 = loc("-":696:20)
#loc717 = loc("-":701:10)
#loc718 = loc("-":701:20)
#loc721 = loc("-":705:10)
#loc722 = loc("-":705:20)
#loc725 = loc("-":709:10)
#loc726 = loc("-":709:20)
#loc729 = loc("-":713:10)
#loc730 = loc("-":713:20)
#loc737 = loc("-":721:10)
#loc738 = loc("-":721:20)
#loc739 = loc("-":721:34)
#loc744 = loc("-":727:10)
#loc745 = loc("-":727:20)
#loc746 = loc("-":727:31)
#loc754 = loc("-":736:10)
#loc755 = loc("-":736:20)
#loc756 = loc("-":736:34)
#loc760 = loc("-":741:10)
#loc761 = loc("-":741:20)
#loc765 = loc("-":746:10)
#loc766 = loc("-":746:20)
#loc770 = loc("-":751:10)
#loc771 = loc("-":751:20)
#loc772 = loc("-":751:34)
#loc776 = loc("-":756:10)
#loc777 = loc("-":756:20)
#loc780 = loc("-":760:10)
#loc781 = loc("-":760:20)
#loc788 = loc("-":768:10)
#loc789 = loc("-":768:20)
#loc793 = loc("-":773:10)
#loc794 = loc("-":773:20)
#loc797 = loc("-":777:10)
#loc798 = loc("-":777:20)
#loc801 = loc("-":781:10)
#loc802 = loc("-":781:20)
#loc806 = loc("-":786:10)
#loc807 = loc("-":786:20)
#loc808 = loc("-":786:34)
#loc812 = loc("-":791:10)
#loc813 = loc("-":791:20)
#loc814 = loc("-":791:34)
#loc818 = loc("-":796:10)
#loc819 = loc("-":796:20)
#loc823 = loc("-":801:10)
#loc824 = loc("-":801:20)
#loc828 = loc("-":806:10)
#loc829 = loc("-":806:20)
#loc832 = loc("-":810:10)
#loc833 = loc("-":810:20)
#loc834 = loc("-":810:34)
#loc838 = loc("-":815:10)
#loc839 = loc("-":815:20)
#loc840 = loc("-":815:34)
#loc844 = loc("-":820:10)
#loc845 = loc("-":820:20)
#loc849 = loc("-":825:10)
#loc850 = loc("-":825:20)
#loc854 = loc("-":830:10)
#loc855 = loc("-":830:20)
#loc860 = loc("-":836:10)
#loc861 = loc("-":836:20)
#loc865 = loc("-":841:10)
#loc866 = loc("-":841:20)
#loc869 = loc("-":845:10)
#loc870 = loc("-":845:20)
#loc871 = loc("-":845:34)
#loc875 = loc("-":850:10)
#loc876 = loc("-":850:20)
#loc877 = loc("-":850:34)
#loc881 = loc("-":855:10)
#loc882 = loc("-":855:20)
#loc883 = loc("-":855:34)
#loc887 = loc("-":860:10)
#loc888 = loc("-":860:20)
#loc891 = loc("-":864:10)
#loc892 = loc("-":864:20)
#loc895 = loc("-":868:10)
#loc896 = loc("-":868:20)
#loc900 = loc("-":873:10)
#loc901 = loc("-":873:20)
#loc902 = loc("-":873:34)
#loc906 = loc("-":878:10)
#loc907 = loc("-":878:20)
#loc915 = loc("-":887:10)
#loc916 = loc("-":887:20)
#loc919 = loc("-":891:10)
#loc920 = loc("-":891:20)
#loc923 = loc("-":895:10)
#loc924 = loc("-":895:20)
#loc928 = loc("-":900:10)
#loc929 = loc("-":900:20)
#loc930 = loc("-":900:34)
#loc934 = loc("-":905:10)
#loc935 = loc("-":905:20)
#loc936 = loc("-":905:34)
#loc940 = loc("-":910:10)
#loc941 = loc("-":910:20)
#loc945 = loc("-":915:10)
#loc946 = loc("-":915:20)
#loc950 = loc("-":920:10)
#loc951 = loc("-":920:20)
#loc954 = loc("-":924:10)
#loc955 = loc("-":924:20)
#loc956 = loc("-":924:34)
#loc960 = loc("-":929:10)
#loc961 = loc("-":929:20)
#loc962 = loc("-":929:34)
#loc966 = loc("-":934:10)
#loc967 = loc("-":934:20)
#loc971 = loc("-":939:10)
#loc972 = loc("-":939:20)
#loc976 = loc("-":944:10)
#loc977 = loc("-":944:20)
#loc982 = loc("-":950:10)
#loc983 = loc("-":950:20)
#loc987 = loc("-":955:10)
#loc988 = loc("-":955:20)
#loc991 = loc("-":959:10)
#loc992 = loc("-":959:20)
#loc993 = loc("-":959:34)
#loc997 = loc("-":964:10)
#loc998 = loc("-":964:20)
#loc999 = loc("-":964:34)
#loc1003 = loc("-":969:10)
#loc1004 = loc("-":969:20)
#loc1005 = loc("-":969:34)
#loc1009 = loc("-":974:10)
#loc1010 = loc("-":974:20)
#loc1013 = loc("-":978:10)
#loc1014 = loc("-":978:20)
#loc1017 = loc("-":982:10)
#loc1018 = loc("-":982:20)
#loc1022 = loc("-":987:10)
#loc1023 = loc("-":987:20)
#loc1024 = loc("-":987:34)
#loc1028 = loc("-":992:10)
#loc1029 = loc("-":992:20)
#loc1032 = loc("-":996:10)
#loc1033 = loc("-":996:20)
#loc1037 = loc("-":1001:10)
#loc1038 = loc("-":1001:20)
#loc1039 = loc("-":1001:34)
#loc1044 = loc("-":1007:10)
#loc1045 = loc("-":1007:20)
#loc1048 = loc("-":1011:10)
#loc1049 = loc("-":1011:20)
#loc1052 = loc("-":1015:10)
#loc1053 = loc("-":1015:20)
#loc1057 = loc("-":1020:10)
#loc1058 = loc("-":1020:20)
#loc1059 = loc("-":1020:34)
#loc1064 = loc("-":1026:10)
#loc1065 = loc("-":1026:20)
#loc1069 = loc("-":1031:10)
#loc1070 = loc("-":1031:20)
#loc1073 = loc("-":1035:10)
#loc1074 = loc("-":1035:20)
#loc1077 = loc("-":1039:10)
#loc1078 = loc("-":1039:20)
#loc1081 = loc("-":1043:10)
#loc1082 = loc("-":1043:20)
#loc1089 = loc("-":1051:10)
#loc1090 = loc("-":1051:20)
#loc1091 = loc("-":1051:34)
#loc1096 = loc("-":1057:10)
#loc1097 = loc("-":1057:20)
#loc1098 = loc("-":1057:31)
#loc1106 = loc("-":1066:10)
#loc1107 = loc("-":1066:20)
#loc1108 = loc("-":1066:34)
#loc1112 = loc("-":1071:10)
#loc1113 = loc("-":1071:20)
#loc1117 = loc("-":1076:10)
#loc1118 = loc("-":1076:20)
#loc1122 = loc("-":1081:10)
#loc1123 = loc("-":1081:20)
#loc1124 = loc("-":1081:34)
#loc1128 = loc("-":1086:10)
#loc1129 = loc("-":1086:20)
#loc1132 = loc("-":1090:10)
#loc1133 = loc("-":1090:20)
#loc1140 = loc("-":1098:10)
#loc1141 = loc("-":1098:20)
#loc1145 = loc("-":1103:10)
#loc1146 = loc("-":1103:20)
#loc1149 = loc("-":1107:10)
#loc1150 = loc("-":1107:20)
#loc1153 = loc("-":1111:10)
#loc1154 = loc("-":1111:20)
#loc1158 = loc("-":1116:10)
#loc1159 = loc("-":1116:20)
#loc1160 = loc("-":1116:34)
#loc1164 = loc("-":1121:10)
#loc1165 = loc("-":1121:20)
#loc1166 = loc("-":1121:34)
#loc1170 = loc("-":1126:10)
#loc1171 = loc("-":1126:20)
#loc1175 = loc("-":1131:10)
#loc1176 = loc("-":1131:20)
#loc1180 = loc("-":1136:10)
#loc1181 = loc("-":1136:20)
#loc1184 = loc("-":1140:10)
#loc1185 = loc("-":1140:20)
#loc1186 = loc("-":1140:34)
#loc1190 = loc("-":1145:10)
#loc1191 = loc("-":1145:20)
#loc1192 = loc("-":1145:34)
#loc1196 = loc("-":1150:10)
#loc1197 = loc("-":1150:20)
#loc1201 = loc("-":1155:10)
#loc1202 = loc("-":1155:20)
#loc1206 = loc("-":1160:10)
#loc1207 = loc("-":1160:20)
#loc1212 = loc("-":1166:10)
#loc1213 = loc("-":1166:20)
#loc1217 = loc("-":1171:10)
#loc1218 = loc("-":1171:20)
#loc1221 = loc("-":1175:10)
#loc1222 = loc("-":1175:20)
#loc1223 = loc("-":1175:34)
#loc1227 = loc("-":1180:10)
#loc1228 = loc("-":1180:20)
#loc1229 = loc("-":1180:34)
#loc1233 = loc("-":1185:10)
#loc1234 = loc("-":1185:20)
#loc1235 = loc("-":1185:34)
#loc1239 = loc("-":1190:10)
#loc1240 = loc("-":1190:20)
#loc1243 = loc("-":1194:10)
#loc1244 = loc("-":1194:20)
#loc1247 = loc("-":1198:10)
#loc1248 = loc("-":1198:20)
#loc1252 = loc("-":1203:10)
#loc1253 = loc("-":1203:20)
#loc1254 = loc("-":1203:34)
#loc1258 = loc("-":1208:10)
#loc1259 = loc("-":1208:20)
#loc1267 = loc("-":1217:10)
#loc1268 = loc("-":1217:20)
#loc1271 = loc("-":1221:10)
#loc1272 = loc("-":1221:20)
#loc1275 = loc("-":1225:10)
#loc1276 = loc("-":1225:20)
#loc1280 = loc("-":1230:10)
#loc1281 = loc("-":1230:20)
#loc1282 = loc("-":1230:34)
#loc1286 = loc("-":1235:10)
#loc1287 = loc("-":1235:20)
#loc1288 = loc("-":1235:34)
#loc1292 = loc("-":1240:10)
#loc1293 = loc("-":1240:20)
#loc1297 = loc("-":1245:10)
#loc1298 = loc("-":1245:20)
#loc1302 = loc("-":1250:10)
#loc1303 = loc("-":1250:20)
#loc1306 = loc("-":1254:10)
#loc1307 = loc("-":1254:20)
#loc1308 = loc("-":1254:34)
#loc1312 = loc("-":1259:10)
#loc1313 = loc("-":1259:20)
#loc1314 = loc("-":1259:34)
#loc1318 = loc("-":1264:10)
#loc1319 = loc("-":1264:20)
#loc1323 = loc("-":1269:10)
#loc1324 = loc("-":1269:20)
#loc1328 = loc("-":1274:10)
#loc1329 = loc("-":1274:20)
#loc1334 = loc("-":1280:10)
#loc1335 = loc("-":1280:20)
#loc1339 = loc("-":1285:10)
#loc1340 = loc("-":1285:20)
#loc1343 = loc("-":1289:10)
#loc1344 = loc("-":1289:20)
#loc1345 = loc("-":1289:34)
#loc1349 = loc("-":1294:10)
#loc1350 = loc("-":1294:20)
#loc1351 = loc("-":1294:34)
#loc1355 = loc("-":1299:10)
#loc1356 = loc("-":1299:20)
#loc1357 = loc("-":1299:34)
#loc1361 = loc("-":1304:10)
#loc1362 = loc("-":1304:20)
#loc1365 = loc("-":1308:10)
#loc1366 = loc("-":1308:20)
#loc1369 = loc("-":1312:10)
#loc1370 = loc("-":1312:20)
#loc1374 = loc("-":1317:10)
#loc1375 = loc("-":1317:20)
#loc1376 = loc("-":1317:34)
#loc1380 = loc("-":1322:10)
#loc1381 = loc("-":1322:20)
#loc1384 = loc("-":1326:10)
#loc1385 = loc("-":1326:20)
#loc1389 = loc("-":1331:10)
#loc1390 = loc("-":1331:20)
#loc1391 = loc("-":1331:34)
#loc1396 = loc("-":1337:10)
#loc1397 = loc("-":1337:20)
#loc1400 = loc("-":1341:10)
#loc1401 = loc("-":1341:20)
#loc1404 = loc("-":1345:10)
#loc1405 = loc("-":1345:20)
#loc1409 = loc("-":1350:10)
#loc1410 = loc("-":1350:20)
#loc1411 = loc("-":1350:34)
#loc1416 = loc("-":1356:10)
#loc1417 = loc("-":1356:20)
#loc1421 = loc("-":1361:10)
#loc1422 = loc("-":1361:20)
#loc1425 = loc("-":1365:10)
#loc1426 = loc("-":1365:20)
#loc1429 = loc("-":1369:10)
#loc1430 = loc("-":1369:20)
#loc1433 = loc("-":1373:10)
#loc1434 = loc("-":1373:20)
#loc1441 = loc("-":1381:10)
#loc1442 = loc("-":1381:20)
#loc1443 = loc("-":1381:34)
#loc1448 = loc("-":1387:10)
#loc1449 = loc("-":1387:20)
#loc1450 = loc("-":1387:31)
#loc1458 = loc("-":1396:10)
#loc1459 = loc("-":1396:20)
#loc1460 = loc("-":1396:34)
#loc1464 = loc("-":1401:10)
#loc1465 = loc("-":1401:20)
#loc1469 = loc("-":1406:10)
#loc1470 = loc("-":1406:20)
#loc1474 = loc("-":1411:10)
#loc1475 = loc("-":1411:20)
#loc1476 = loc("-":1411:34)
#loc1480 = loc("-":1416:10)
#loc1481 = loc("-":1416:20)
#loc1484 = loc("-":1420:10)
#loc1485 = loc("-":1420:20)
#loc1492 = loc("-":1428:10)
#loc1493 = loc("-":1428:20)
#loc1497 = loc("-":1433:10)
#loc1498 = loc("-":1433:20)
#loc1501 = loc("-":1437:10)
#loc1502 = loc("-":1437:20)
#loc1505 = loc("-":1441:10)
#loc1506 = loc("-":1441:20)
#loc1510 = loc("-":1446:10)
#loc1511 = loc("-":1446:20)
#loc1512 = loc("-":1446:34)
#loc1516 = loc("-":1451:10)
#loc1517 = loc("-":1451:20)
#loc1518 = loc("-":1451:34)
#loc1522 = loc("-":1456:10)
#loc1523 = loc("-":1456:20)
#loc1527 = loc("-":1461:10)
#loc1528 = loc("-":1461:20)
#loc1532 = loc("-":1466:10)
#loc1533 = loc("-":1466:20)
#loc1536 = loc("-":1470:10)
#loc1537 = loc("-":1470:20)
#loc1538 = loc("-":1470:34)
#loc1542 = loc("-":1475:10)
#loc1543 = loc("-":1475:20)
#loc1544 = loc("-":1475:34)
#loc1548 = loc("-":1480:10)
#loc1549 = loc("-":1480:20)
#loc1553 = loc("-":1485:10)
#loc1554 = loc("-":1485:20)
#loc1558 = loc("-":1490:10)
#loc1559 = loc("-":1490:20)
#loc1564 = loc("-":1496:10)
#loc1565 = loc("-":1496:20)
#loc1569 = loc("-":1501:10)
#loc1570 = loc("-":1501:20)
#loc1573 = loc("-":1505:10)
#loc1574 = loc("-":1505:20)
#loc1575 = loc("-":1505:34)
#loc1579 = loc("-":1510:10)
#loc1580 = loc("-":1510:20)
#loc1581 = loc("-":1510:34)
#loc1585 = loc("-":1515:10)
#loc1586 = loc("-":1515:20)
#loc1587 = loc("-":1515:34)
#loc1591 = loc("-":1520:10)
#loc1592 = loc("-":1520:20)
#loc1595 = loc("-":1524:10)
#loc1596 = loc("-":1524:20)
#loc1599 = loc("-":1528:10)
#loc1600 = loc("-":1528:20)
#loc1604 = loc("-":1533:10)
#loc1605 = loc("-":1533:20)
#loc1606 = loc("-":1533:34)
#loc1610 = loc("-":1538:10)
#loc1611 = loc("-":1538:20)
#loc1619 = loc("-":1547:10)
#loc1620 = loc("-":1547:20)
#loc1623 = loc("-":1551:10)
#loc1624 = loc("-":1551:20)
#loc1627 = loc("-":1555:10)
#loc1628 = loc("-":1555:20)
#loc1632 = loc("-":1560:10)
#loc1633 = loc("-":1560:20)
#loc1634 = loc("-":1560:34)
#loc1638 = loc("-":1565:10)
#loc1639 = loc("-":1565:20)
#loc1640 = loc("-":1565:34)
#loc1644 = loc("-":1570:10)
#loc1645 = loc("-":1570:20)
#loc1649 = loc("-":1575:10)
#loc1650 = loc("-":1575:20)
#loc1654 = loc("-":1580:10)
#loc1655 = loc("-":1580:20)
#loc1658 = loc("-":1584:10)
#loc1659 = loc("-":1584:20)
#loc1660 = loc("-":1584:34)
#loc1664 = loc("-":1589:10)
#loc1665 = loc("-":1589:20)
#loc1666 = loc("-":1589:34)
#loc1670 = loc("-":1594:10)
#loc1671 = loc("-":1594:20)
#loc1675 = loc("-":1599:10)
#loc1676 = loc("-":1599:20)
#loc1680 = loc("-":1604:10)
#loc1681 = loc("-":1604:20)
#loc1686 = loc("-":1610:10)
#loc1687 = loc("-":1610:20)
#loc1691 = loc("-":1615:10)
#loc1692 = loc("-":1615:20)
#loc1695 = loc("-":1619:10)
#loc1696 = loc("-":1619:20)
#loc1697 = loc("-":1619:34)
#loc1701 = loc("-":1624:10)
#loc1702 = loc("-":1624:20)
#loc1703 = loc("-":1624:34)
#loc1707 = loc("-":1629:10)
#loc1708 = loc("-":1629:20)
#loc1709 = loc("-":1629:34)
#loc1713 = loc("-":1634:10)
#loc1714 = loc("-":1634:20)
#loc1717 = loc("-":1638:10)
#loc1718 = loc("-":1638:20)
#loc1721 = loc("-":1642:10)
#loc1722 = loc("-":1642:20)
#loc1726 = loc("-":1647:10)
#loc1727 = loc("-":1647:20)
#loc1728 = loc("-":1647:34)
#loc1732 = loc("-":1652:10)
#loc1733 = loc("-":1652:20)
#loc1736 = loc("-":1656:10)
#loc1737 = loc("-":1656:20)
#loc1741 = loc("-":1661:10)
#loc1742 = loc("-":1661:20)
#loc1743 = loc("-":1661:34)
#loc1748 = loc("-":1667:10)
#loc1749 = loc("-":1667:20)
#loc1752 = loc("-":1671:10)
#loc1753 = loc("-":1671:20)
#loc1756 = loc("-":1675:10)
#loc1757 = loc("-":1675:20)
#loc1761 = loc("-":1680:10)
#loc1762 = loc("-":1680:20)
#loc1763 = loc("-":1680:34)
#loc1768 = loc("-":1686:10)
#loc1769 = loc("-":1686:20)
#loc1773 = loc("-":1691:10)
#loc1774 = loc("-":1691:20)
#loc1777 = loc("-":1695:10)
#loc1778 = loc("-":1695:20)
#loc1781 = loc("-":1699:10)
#loc1782 = loc("-":1699:20)
#loc1785 = loc("-":1703:10)
#loc1786 = loc("-":1703:20)
#loc1793 = loc("-":1711:10)
#loc1794 = loc("-":1711:20)
#loc1795 = loc("-":1711:34)
#loc1800 = loc("-":1717:10)
#loc1801 = loc("-":1717:20)
#loc1802 = loc("-":1717:31)
#loc1810 = loc("-":1726:10)
#loc1811 = loc("-":1726:20)
#loc1812 = loc("-":1726:34)
#loc1816 = loc("-":1731:10)
#loc1817 = loc("-":1731:20)
#loc1821 = loc("-":1736:10)
#loc1822 = loc("-":1736:20)
#loc1826 = loc("-":1741:10)
#loc1827 = loc("-":1741:20)
#loc1828 = loc("-":1741:34)
#loc1832 = loc("-":1746:10)
#loc1833 = loc("-":1746:20)
#loc1836 = loc("-":1750:10)
#loc1837 = loc("-":1750:20)
#loc1844 = loc("-":1758:10)
#loc1845 = loc("-":1758:20)
#loc1849 = loc("-":1763:10)
#loc1850 = loc("-":1763:20)
#loc1853 = loc("-":1767:10)
#loc1854 = loc("-":1767:20)
#loc1857 = loc("-":1771:10)
#loc1858 = loc("-":1771:20)
#loc1862 = loc("-":1776:10)
#loc1863 = loc("-":1776:20)
#loc1864 = loc("-":1776:34)
#loc1868 = loc("-":1781:10)
#loc1869 = loc("-":1781:20)
#loc1870 = loc("-":1781:34)
#loc1874 = loc("-":1786:10)
#loc1875 = loc("-":1786:20)
#loc1879 = loc("-":1791:10)
#loc1880 = loc("-":1791:20)
#loc1884 = loc("-":1796:10)
#loc1885 = loc("-":1796:20)
#loc1888 = loc("-":1800:10)
#loc1889 = loc("-":1800:20)
#loc1890 = loc("-":1800:34)
#loc1894 = loc("-":1805:10)
#loc1895 = loc("-":1805:20)
#loc1896 = loc("-":1805:34)
#loc1900 = loc("-":1810:10)
#loc1901 = loc("-":1810:20)
#loc1905 = loc("-":1815:10)
#loc1906 = loc("-":1815:20)
#loc1910 = loc("-":1820:10)
#loc1911 = loc("-":1820:20)
#loc1916 = loc("-":1826:10)
#loc1917 = loc("-":1826:20)
#loc1921 = loc("-":1831:10)
#loc1922 = loc("-":1831:20)
#loc1925 = loc("-":1835:10)
#loc1926 = loc("-":1835:20)
#loc1927 = loc("-":1835:34)
#loc1931 = loc("-":1840:10)
#loc1932 = loc("-":1840:20)
#loc1933 = loc("-":1840:34)
#loc1937 = loc("-":1845:10)
#loc1938 = loc("-":1845:20)
#loc1939 = loc("-":1845:34)
#loc1943 = loc("-":1850:10)
#loc1944 = loc("-":1850:20)
#loc1947 = loc("-":1854:10)
#loc1948 = loc("-":1854:20)
#loc1951 = loc("-":1858:10)
#loc1952 = loc("-":1858:20)
#loc1956 = loc("-":1863:10)
#loc1957 = loc("-":1863:20)
#loc1958 = loc("-":1863:34)
#loc1962 = loc("-":1868:10)
#loc1963 = loc("-":1868:20)
#loc1971 = loc("-":1877:10)
#loc1972 = loc("-":1877:20)
#loc1975 = loc("-":1881:10)
#loc1976 = loc("-":1881:20)
#loc1979 = loc("-":1885:10)
#loc1980 = loc("-":1885:20)
#loc1984 = loc("-":1890:10)
#loc1985 = loc("-":1890:20)
#loc1986 = loc("-":1890:34)
#loc1990 = loc("-":1895:10)
#loc1991 = loc("-":1895:20)
#loc1992 = loc("-":1895:34)
#loc1996 = loc("-":1900:10)
#loc1997 = loc("-":1900:20)
#loc2001 = loc("-":1905:10)
#loc2002 = loc("-":1905:20)
#loc2006 = loc("-":1910:10)
#loc2007 = loc("-":1910:20)
#loc2010 = loc("-":1914:10)
#loc2011 = loc("-":1914:20)
#loc2012 = loc("-":1914:34)
#loc2016 = loc("-":1919:10)
#loc2017 = loc("-":1919:20)
#loc2018 = loc("-":1919:34)
#loc2022 = loc("-":1924:10)
#loc2023 = loc("-":1924:20)
#loc2027 = loc("-":1929:10)
#loc2028 = loc("-":1929:20)
#loc2032 = loc("-":1934:10)
#loc2033 = loc("-":1934:20)
#loc2038 = loc("-":1940:10)
#loc2039 = loc("-":1940:20)
#loc2043 = loc("-":1945:10)
#loc2044 = loc("-":1945:20)
#loc2047 = loc("-":1949:10)
#loc2048 = loc("-":1949:20)
#loc2049 = loc("-":1949:34)
#loc2053 = loc("-":1954:10)
#loc2054 = loc("-":1954:20)
#loc2055 = loc("-":1954:34)
#loc2059 = loc("-":1959:10)
#loc2060 = loc("-":1959:20)
#loc2061 = loc("-":1959:34)
#loc2065 = loc("-":1964:10)
#loc2066 = loc("-":1964:20)
#loc2069 = loc("-":1968:10)
#loc2070 = loc("-":1968:20)
#loc2073 = loc("-":1972:10)
#loc2074 = loc("-":1972:20)
#loc2078 = loc("-":1977:10)
#loc2079 = loc("-":1977:20)
#loc2080 = loc("-":1977:34)
#loc2084 = loc("-":1982:10)
#loc2085 = loc("-":1982:20)
#loc2088 = loc("-":1986:10)
#loc2089 = loc("-":1986:20)
#loc2093 = loc("-":1991:10)
#loc2094 = loc("-":1991:20)
#loc2095 = loc("-":1991:34)
#loc2100 = loc("-":1997:10)
#loc2101 = loc("-":1997:20)
#loc2104 = loc("-":2001:10)
#loc2105 = loc("-":2001:20)
#loc2108 = loc("-":2005:10)
#loc2109 = loc("-":2005:20)
#loc2113 = loc("-":2010:10)
#loc2114 = loc("-":2010:20)
#loc2115 = loc("-":2010:34)
#loc2120 = loc("-":2016:10)
#loc2121 = loc("-":2016:20)
#loc2125 = loc("-":2021:10)
#loc2126 = loc("-":2021:20)
#loc2129 = loc("-":2025:10)
#loc2130 = loc("-":2025:20)
#loc2133 = loc("-":2029:10)
#loc2134 = loc("-":2029:20)
#loc2137 = loc("-":2033:10)
#loc2138 = loc("-":2033:20)
#loc2145 = loc("-":2041:10)
#loc2146 = loc("-":2041:20)
#loc2147 = loc("-":2041:34)
#loc2152 = loc("-":2047:10)
#loc2153 = loc("-":2047:20)
#loc2154 = loc("-":2047:31)
#loc2162 = loc("-":2056:10)
#loc2163 = loc("-":2056:20)
#loc2164 = loc("-":2056:34)
#loc2168 = loc("-":2061:10)
#loc2169 = loc("-":2061:20)
#loc2173 = loc("-":2066:10)
#loc2174 = loc("-":2066:20)
#loc2178 = loc("-":2071:10)
#loc2179 = loc("-":2071:20)
#loc2180 = loc("-":2071:34)
#loc2184 = loc("-":2076:10)
#loc2185 = loc("-":2076:20)
#loc2188 = loc("-":2080:10)
#loc2189 = loc("-":2080:20)
#loc2196 = loc("-":2088:10)
#loc2197 = loc("-":2088:20)
#loc2201 = loc("-":2093:10)
#loc2202 = loc("-":2093:20)
#loc2205 = loc("-":2097:10)
#loc2206 = loc("-":2097:20)
#loc2209 = loc("-":2101:10)
#loc2210 = loc("-":2101:20)
#loc2214 = loc("-":2106:10)
#loc2215 = loc("-":2106:20)
#loc2216 = loc("-":2106:34)
#loc2220 = loc("-":2111:10)
#loc2221 = loc("-":2111:20)
#loc2222 = loc("-":2111:34)
#loc2226 = loc("-":2116:10)
#loc2227 = loc("-":2116:20)
#loc2231 = loc("-":2121:10)
#loc2232 = loc("-":2121:20)
#loc2236 = loc("-":2126:10)
#loc2237 = loc("-":2126:20)
#loc2240 = loc("-":2130:10)
#loc2241 = loc("-":2130:20)
#loc2242 = loc("-":2130:34)
#loc2246 = loc("-":2135:10)
#loc2247 = loc("-":2135:20)
#loc2248 = loc("-":2135:34)
#loc2252 = loc("-":2140:10)
#loc2253 = loc("-":2140:20)
#loc2257 = loc("-":2145:10)
#loc2258 = loc("-":2145:20)
#loc2262 = loc("-":2150:10)
#loc2263 = loc("-":2150:20)
#loc2268 = loc("-":2156:10)
#loc2269 = loc("-":2156:20)
#loc2273 = loc("-":2161:10)
#loc2274 = loc("-":2161:20)
#loc2277 = loc("-":2165:10)
#loc2278 = loc("-":2165:20)
#loc2279 = loc("-":2165:34)
#loc2283 = loc("-":2170:10)
#loc2284 = loc("-":2170:20)
#loc2285 = loc("-":2170:34)
#loc2289 = loc("-":2175:10)
#loc2290 = loc("-":2175:20)
#loc2291 = loc("-":2175:34)
#loc2295 = loc("-":2180:10)
#loc2296 = loc("-":2180:20)
#loc2299 = loc("-":2184:10)
#loc2300 = loc("-":2184:20)
#loc2303 = loc("-":2188:10)
#loc2304 = loc("-":2188:20)
#loc2308 = loc("-":2193:10)
#loc2309 = loc("-":2193:20)
#loc2310 = loc("-":2193:34)
#loc2314 = loc("-":2198:10)
#loc2315 = loc("-":2198:20)
#loc2323 = loc("-":2207:10)
#loc2324 = loc("-":2207:20)
#loc2327 = loc("-":2211:10)
#loc2328 = loc("-":2211:20)
#loc2331 = loc("-":2215:10)
#loc2332 = loc("-":2215:20)
#loc2336 = loc("-":2220:10)
#loc2337 = loc("-":2220:20)
#loc2338 = loc("-":2220:34)
#loc2342 = loc("-":2225:10)
#loc2343 = loc("-":2225:20)
#loc2344 = loc("-":2225:34)
#loc2348 = loc("-":2230:10)
#loc2349 = loc("-":2230:20)
#loc2353 = loc("-":2235:10)
#loc2354 = loc("-":2235:20)
#loc2358 = loc("-":2240:10)
#loc2359 = loc("-":2240:20)
#loc2362 = loc("-":2244:10)
#loc2363 = loc("-":2244:20)
#loc2364 = loc("-":2244:34)
#loc2368 = loc("-":2249:10)
#loc2369 = loc("-":2249:20)
#loc2370 = loc("-":2249:34)
#loc2374 = loc("-":2254:10)
#loc2375 = loc("-":2254:20)
#loc2379 = loc("-":2259:10)
#loc2380 = loc("-":2259:20)
#loc2384 = loc("-":2264:10)
#loc2385 = loc("-":2264:20)
#loc2390 = loc("-":2270:10)
#loc2391 = loc("-":2270:20)
#loc2395 = loc("-":2275:10)
#loc2396 = loc("-":2275:20)
#loc2399 = loc("-":2279:10)
#loc2400 = loc("-":2279:20)
#loc2401 = loc("-":2279:34)
#loc2405 = loc("-":2284:10)
#loc2406 = loc("-":2284:20)
#loc2407 = loc("-":2284:34)
#loc2411 = loc("-":2289:10)
#loc2412 = loc("-":2289:20)
#loc2413 = loc("-":2289:34)
#loc2417 = loc("-":2294:10)
#loc2418 = loc("-":2294:20)
#loc2421 = loc("-":2298:10)
#loc2422 = loc("-":2298:20)
#loc2425 = loc("-":2302:10)
#loc2426 = loc("-":2302:20)
#loc2430 = loc("-":2307:10)
#loc2431 = loc("-":2307:20)
#loc2432 = loc("-":2307:34)
#loc2436 = loc("-":2312:10)
#loc2437 = loc("-":2312:20)
#loc2440 = loc("-":2316:10)
#loc2441 = loc("-":2316:20)
#loc2445 = loc("-":2321:10)
#loc2446 = loc("-":2321:20)
#loc2447 = loc("-":2321:34)
#loc2452 = loc("-":2327:10)
#loc2453 = loc("-":2327:20)
#loc2456 = loc("-":2331:10)
#loc2457 = loc("-":2331:20)
#loc2460 = loc("-":2335:10)
#loc2461 = loc("-":2335:20)
#loc2465 = loc("-":2340:10)
#loc2466 = loc("-":2340:20)
#loc2467 = loc("-":2340:34)
#loc2472 = loc("-":2346:10)
#loc2473 = loc("-":2346:20)
#loc2477 = loc("-":2351:10)
#loc2478 = loc("-":2351:20)
#loc2481 = loc("-":2355:10)
#loc2482 = loc("-":2355:20)
#loc2485 = loc("-":2359:10)
#loc2486 = loc("-":2359:20)
#loc2489 = loc("-":2363:10)
#loc2490 = loc("-":2363:20)
#loc2497 = loc("-":2371:10)
#loc2498 = loc("-":2371:20)
#loc2499 = loc("-":2371:34)
#loc2504 = loc("-":2377:10)
#loc2505 = loc("-":2377:20)
#loc2506 = loc("-":2377:31)
#loc2514 = loc("-":2386:10)
#loc2515 = loc("-":2386:20)
#loc2516 = loc("-":2386:34)
#loc2520 = loc("-":2391:10)
#loc2521 = loc("-":2391:20)
#loc2525 = loc("-":2396:10)
#loc2526 = loc("-":2396:20)
#loc2530 = loc("-":2401:10)
#loc2531 = loc("-":2401:20)
#loc2532 = loc("-":2401:34)
#loc2536 = loc("-":2406:10)
#loc2537 = loc("-":2406:20)
#loc2540 = loc("-":2410:10)
#loc2541 = loc("-":2410:20)
#loc2548 = loc("-":2418:10)
#loc2549 = loc("-":2418:20)
#loc2553 = loc("-":2423:10)
#loc2554 = loc("-":2423:20)
#loc2557 = loc("-":2427:10)
#loc2558 = loc("-":2427:20)
#loc2561 = loc("-":2431:10)
#loc2562 = loc("-":2431:20)
#loc2566 = loc("-":2436:10)
#loc2567 = loc("-":2436:20)
#loc2568 = loc("-":2436:34)
#loc2572 = loc("-":2441:10)
#loc2573 = loc("-":2441:20)
#loc2574 = loc("-":2441:34)
#loc2578 = loc("-":2446:10)
#loc2579 = loc("-":2446:20)
#loc2583 = loc("-":2451:10)
#loc2584 = loc("-":2451:20)
#loc2588 = loc("-":2456:10)
#loc2589 = loc("-":2456:20)
#loc2592 = loc("-":2460:10)
#loc2593 = loc("-":2460:20)
#loc2594 = loc("-":2460:34)
#loc2598 = loc("-":2465:10)
#loc2599 = loc("-":2465:20)
#loc2600 = loc("-":2465:34)
#loc2604 = loc("-":2470:10)
#loc2605 = loc("-":2470:20)
#loc2609 = loc("-":2475:10)
#loc2610 = loc("-":2475:20)
#loc2614 = loc("-":2480:10)
#loc2615 = loc("-":2480:20)
#loc2620 = loc("-":2486:10)
#loc2621 = loc("-":2486:20)
#loc2625 = loc("-":2491:10)
#loc2626 = loc("-":2491:20)
#loc2629 = loc("-":2495:10)
#loc2630 = loc("-":2495:20)
#loc2631 = loc("-":2495:34)
#loc2635 = loc("-":2500:10)
#loc2636 = loc("-":2500:20)
#loc2637 = loc("-":2500:34)
#loc2641 = loc("-":2505:10)
#loc2642 = loc("-":2505:20)
#loc2643 = loc("-":2505:34)
#loc2647 = loc("-":2510:10)
#loc2648 = loc("-":2510:20)
#loc2651 = loc("-":2514:10)
#loc2652 = loc("-":2514:20)
#loc2655 = loc("-":2518:10)
#loc2656 = loc("-":2518:20)
#loc2660 = loc("-":2523:10)
#loc2661 = loc("-":2523:20)
#loc2662 = loc("-":2523:34)
#loc2666 = loc("-":2528:10)
#loc2667 = loc("-":2528:20)
#loc2675 = loc("-":2537:10)
#loc2676 = loc("-":2537:20)
#loc2679 = loc("-":2541:10)
#loc2680 = loc("-":2541:20)
#loc2683 = loc("-":2545:10)
#loc2684 = loc("-":2545:20)
#loc2688 = loc("-":2550:10)
#loc2689 = loc("-":2550:20)
#loc2690 = loc("-":2550:34)
#loc2694 = loc("-":2555:10)
#loc2695 = loc("-":2555:20)
#loc2696 = loc("-":2555:34)
#loc2700 = loc("-":2560:10)
#loc2701 = loc("-":2560:20)
#loc2705 = loc("-":2565:10)
#loc2706 = loc("-":2565:20)
#loc2710 = loc("-":2570:10)
#loc2711 = loc("-":2570:20)
#loc2714 = loc("-":2574:10)
#loc2715 = loc("-":2574:20)
#loc2716 = loc("-":2574:34)
#loc2720 = loc("-":2579:10)
#loc2721 = loc("-":2579:20)
#loc2722 = loc("-":2579:34)
#loc2726 = loc("-":2584:10)
#loc2727 = loc("-":2584:20)
#loc2731 = loc("-":2589:10)
#loc2732 = loc("-":2589:20)
#loc2736 = loc("-":2594:10)
#loc2737 = loc("-":2594:20)
#loc2742 = loc("-":2600:10)
#loc2743 = loc("-":2600:20)
#loc2747 = loc("-":2605:10)
#loc2748 = loc("-":2605:20)
#loc2751 = loc("-":2609:10)
#loc2752 = loc("-":2609:20)
#loc2753 = loc("-":2609:34)
#loc2757 = loc("-":2614:10)
#loc2758 = loc("-":2614:20)
#loc2759 = loc("-":2614:34)
#loc2763 = loc("-":2619:10)
#loc2764 = loc("-":2619:20)
#loc2765 = loc("-":2619:34)
#loc2769 = loc("-":2624:10)
#loc2770 = loc("-":2624:20)
#loc2773 = loc("-":2628:10)
#loc2774 = loc("-":2628:20)
#loc2777 = loc("-":2632:10)
#loc2778 = loc("-":2632:20)
#loc2782 = loc("-":2637:10)
#loc2783 = loc("-":2637:20)
#loc2784 = loc("-":2637:34)
#loc2788 = loc("-":2642:10)
#loc2789 = loc("-":2642:20)
#loc2792 = loc("-":2646:10)
#loc2793 = loc("-":2646:20)
#loc2797 = loc("-":2651:10)
#loc2798 = loc("-":2651:20)
#loc2799 = loc("-":2651:34)
#loc2804 = loc("-":2657:10)
#loc2805 = loc("-":2657:20)
#loc2808 = loc("-":2661:10)
#loc2809 = loc("-":2661:20)
#loc2812 = loc("-":2665:10)
#loc2813 = loc("-":2665:20)
#loc2817 = loc("-":2670:10)
#loc2818 = loc("-":2670:20)
#loc2819 = loc("-":2670:34)
#loc2824 = loc("-":2676:10)
#loc2825 = loc("-":2676:20)
#loc2829 = loc("-":2681:10)
#loc2830 = loc("-":2681:20)
#loc2833 = loc("-":2685:10)
#loc2834 = loc("-":2685:20)
#loc2837 = loc("-":2689:10)
#loc2838 = loc("-":2689:20)
#loc2841 = loc("-":2693:10)
#loc2842 = loc("-":2693:20)
#loc2849 = loc("-":2701:10)
#loc2850 = loc("-":2701:20)
#loc2851 = loc("-":2701:34)
#loc2856 = loc("-":2707:10)
#loc2857 = loc("-":2707:20)
#loc2858 = loc("-":2707:31)
#loc2866 = loc("-":2716:10)
#loc2867 = loc("-":2716:20)
#loc2868 = loc("-":2716:34)
#loc2872 = loc("-":2721:10)
#loc2873 = loc("-":2721:20)
#loc2877 = loc("-":2726:10)
#loc2878 = loc("-":2726:20)
#loc2882 = loc("-":2731:10)
#loc2883 = loc("-":2731:20)
#loc2884 = loc("-":2731:34)
#loc2888 = loc("-":2736:10)
#loc2889 = loc("-":2736:20)
#loc2892 = loc("-":2740:10)
#loc2893 = loc("-":2740:20)
#loc2900 = loc("-":2748:10)
#loc2901 = loc("-":2748:20)
#loc2905 = loc("-":2753:10)
#loc2906 = loc("-":2753:20)
#loc2909 = loc("-":2757:10)
#loc2910 = loc("-":2757:20)
#loc2913 = loc("-":2761:10)
#loc2914 = loc("-":2761:20)
#loc2918 = loc("-":2766:10)
#loc2919 = loc("-":2766:20)
#loc2920 = loc("-":2766:34)
#loc2924 = loc("-":2771:10)
#loc2925 = loc("-":2771:20)
#loc2926 = loc("-":2771:34)
#loc2930 = loc("-":2776:10)
#loc2931 = loc("-":2776:20)
#loc2935 = loc("-":2781:10)
#loc2936 = loc("-":2781:20)
#loc2940 = loc("-":2786:10)
#loc2941 = loc("-":2786:20)
#loc2944 = loc("-":2790:10)
#loc2945 = loc("-":2790:20)
#loc2946 = loc("-":2790:34)
#loc2950 = loc("-":2795:10)
#loc2951 = loc("-":2795:20)
#loc2952 = loc("-":2795:34)
#loc2956 = loc("-":2800:10)
#loc2957 = loc("-":2800:20)
#loc2961 = loc("-":2805:10)
#loc2962 = loc("-":2805:20)
#loc2966 = loc("-":2810:10)
#loc2967 = loc("-":2810:20)
#loc2972 = loc("-":2816:10)
#loc2973 = loc("-":2816:20)
#loc2977 = loc("-":2821:10)
#loc2978 = loc("-":2821:20)
#loc2981 = loc("-":2825:10)
#loc2982 = loc("-":2825:20)
#loc2983 = loc("-":2825:34)
#loc2987 = loc("-":2830:10)
#loc2988 = loc("-":2830:20)
#loc2989 = loc("-":2830:34)
#loc2993 = loc("-":2835:10)
#loc2994 = loc("-":2835:20)
#loc2995 = loc("-":2835:34)
#loc2999 = loc("-":2840:10)
#loc3000 = loc("-":2840:20)
#loc3003 = loc("-":2844:10)
#loc3004 = loc("-":2844:20)
#loc3007 = loc("-":2848:10)
#loc3008 = loc("-":2848:20)
#loc3012 = loc("-":2853:10)
#loc3013 = loc("-":2853:20)
#loc3014 = loc("-":2853:34)
#loc3018 = loc("-":2858:10)
#loc3019 = loc("-":2858:20)
#loc3027 = loc("-":2867:10)
#loc3028 = loc("-":2867:20)
#loc3031 = loc("-":2871:10)
#loc3032 = loc("-":2871:20)
#loc3035 = loc("-":2875:10)
#loc3036 = loc("-":2875:20)
#loc3040 = loc("-":2880:10)
#loc3041 = loc("-":2880:20)
#loc3042 = loc("-":2880:34)
#loc3046 = loc("-":2885:10)
#loc3047 = loc("-":2885:20)
#loc3048 = loc("-":2885:34)
#loc3052 = loc("-":2890:10)
#loc3053 = loc("-":2890:20)
#loc3057 = loc("-":2895:10)
#loc3058 = loc("-":2895:20)
#loc3062 = loc("-":2900:10)
#loc3063 = loc("-":2900:20)
#loc3066 = loc("-":2904:10)
#loc3067 = loc("-":2904:20)
#loc3068 = loc("-":2904:34)
#loc3072 = loc("-":2909:10)
#loc3073 = loc("-":2909:20)
#loc3074 = loc("-":2909:34)
#loc3078 = loc("-":2914:10)
#loc3079 = loc("-":2914:20)
#loc3083 = loc("-":2919:10)
#loc3084 = loc("-":2919:20)
#loc3088 = loc("-":2924:10)
#loc3089 = loc("-":2924:20)
#loc3094 = loc("-":2930:10)
#loc3095 = loc("-":2930:20)
#loc3099 = loc("-":2935:10)
#loc3100 = loc("-":2935:20)
#loc3103 = loc("-":2939:10)
#loc3104 = loc("-":2939:20)
#loc3105 = loc("-":2939:34)
#loc3109 = loc("-":2944:10)
#loc3110 = loc("-":2944:20)
#loc3111 = loc("-":2944:34)
#loc3115 = loc("-":2949:10)
#loc3116 = loc("-":2949:20)
#loc3117 = loc("-":2949:34)
#loc3121 = loc("-":2954:10)
#loc3122 = loc("-":2954:20)
#loc3125 = loc("-":2958:10)
#loc3126 = loc("-":2958:20)
#loc3129 = loc("-":2962:10)
#loc3130 = loc("-":2962:20)
#loc3134 = loc("-":2967:10)
#loc3135 = loc("-":2967:20)
#loc3136 = loc("-":2967:34)
#loc3140 = loc("-":2972:10)
#loc3141 = loc("-":2972:20)
#loc3144 = loc("-":2976:10)
#loc3145 = loc("-":2976:20)
#loc3149 = loc("-":2981:10)
#loc3150 = loc("-":2981:20)
#loc3151 = loc("-":2981:34)
#loc3156 = loc("-":2987:10)
#loc3157 = loc("-":2987:20)
#loc3160 = loc("-":2991:10)
#loc3161 = loc("-":2991:20)
#loc3164 = loc("-":2995:10)
#loc3165 = loc("-":2995:20)
#loc3169 = loc("-":3000:10)
#loc3170 = loc("-":3000:20)
#loc3171 = loc("-":3000:34)
#loc3176 = loc("-":3006:10)
#loc3177 = loc("-":3006:20)
#loc3181 = loc("-":3011:10)
#loc3182 = loc("-":3011:20)
#loc3185 = loc("-":3015:10)
#loc3186 = loc("-":3015:20)
#loc3189 = loc("-":3019:10)
#loc3190 = loc("-":3019:20)
#loc3193 = loc("-":3023:10)
#loc3194 = loc("-":3023:20)
#loc3201 = loc("-":3031:10)
#loc3202 = loc("-":3031:20)
#loc3203 = loc("-":3031:34)
#loc3208 = loc("-":3037:10)
#loc3209 = loc("-":3037:20)
#loc3210 = loc("-":3037:31)
#loc3218 = loc("-":3046:10)
#loc3219 = loc("-":3046:20)
#loc3220 = loc("-":3046:34)
#loc3224 = loc("-":3051:10)
#loc3225 = loc("-":3051:20)
#loc3229 = loc("-":3056:10)
#loc3230 = loc("-":3056:20)
#loc3234 = loc("-":3061:10)
#loc3235 = loc("-":3061:20)
#loc3236 = loc("-":3061:34)
#loc3240 = loc("-":3066:10)
#loc3241 = loc("-":3066:20)
#loc3244 = loc("-":3070:10)
#loc3245 = loc("-":3070:20)
#loc3252 = loc("-":3078:10)
#loc3253 = loc("-":3078:20)
#loc3257 = loc("-":3083:10)
#loc3258 = loc("-":3083:20)
#loc3261 = loc("-":3087:10)
#loc3262 = loc("-":3087:20)
#loc3265 = loc("-":3091:10)
#loc3266 = loc("-":3091:20)
#loc3270 = loc("-":3096:10)
#loc3271 = loc("-":3096:20)
#loc3272 = loc("-":3096:34)
#loc3276 = loc("-":3101:10)
#loc3277 = loc("-":3101:20)
#loc3278 = loc("-":3101:34)
#loc3282 = loc("-":3106:10)
#loc3283 = loc("-":3106:20)
#loc3287 = loc("-":3111:10)
#loc3288 = loc("-":3111:20)
#loc3292 = loc("-":3116:10)
#loc3293 = loc("-":3116:20)
#loc3296 = loc("-":3120:10)
#loc3297 = loc("-":3120:20)
#loc3298 = loc("-":3120:34)
#loc3302 = loc("-":3125:10)
#loc3303 = loc("-":3125:20)
#loc3304 = loc("-":3125:34)
#loc3308 = loc("-":3130:10)
#loc3309 = loc("-":3130:20)
#loc3313 = loc("-":3135:10)
#loc3314 = loc("-":3135:20)
#loc3318 = loc("-":3140:10)
#loc3319 = loc("-":3140:20)
#loc3324 = loc("-":3146:10)
#loc3325 = loc("-":3146:20)
#loc3329 = loc("-":3151:10)
#loc3330 = loc("-":3151:20)
#loc3333 = loc("-":3155:10)
#loc3334 = loc("-":3155:20)
#loc3335 = loc("-":3155:34)
#loc3339 = loc("-":3160:10)
#loc3340 = loc("-":3160:20)
#loc3341 = loc("-":3160:34)
#loc3345 = loc("-":3165:10)
#loc3346 = loc("-":3165:20)
#loc3347 = loc("-":3165:34)
#loc3351 = loc("-":3170:10)
#loc3352 = loc("-":3170:20)
#loc3355 = loc("-":3174:10)
#loc3356 = loc("-":3174:20)
#loc3359 = loc("-":3178:10)
#loc3360 = loc("-":3178:20)
#loc3364 = loc("-":3183:10)
#loc3365 = loc("-":3183:20)
#loc3366 = loc("-":3183:34)
#loc3370 = loc("-":3188:10)
#loc3371 = loc("-":3188:20)
#loc3379 = loc("-":3197:10)
#loc3380 = loc("-":3197:20)
#loc3383 = loc("-":3201:10)
#loc3384 = loc("-":3201:20)
#loc3387 = loc("-":3205:10)
#loc3388 = loc("-":3205:20)
#loc3392 = loc("-":3210:10)
#loc3393 = loc("-":3210:20)
#loc3394 = loc("-":3210:34)
#loc3398 = loc("-":3215:10)
#loc3399 = loc("-":3215:20)
#loc3400 = loc("-":3215:34)
#loc3404 = loc("-":3220:10)
#loc3405 = loc("-":3220:20)
#loc3409 = loc("-":3225:10)
#loc3410 = loc("-":3225:20)
#loc3414 = loc("-":3230:10)
#loc3415 = loc("-":3230:20)
#loc3418 = loc("-":3234:10)
#loc3419 = loc("-":3234:20)
#loc3420 = loc("-":3234:34)
#loc3424 = loc("-":3239:10)
#loc3425 = loc("-":3239:20)
#loc3426 = loc("-":3239:34)
#loc3430 = loc("-":3244:10)
#loc3431 = loc("-":3244:20)
#loc3435 = loc("-":3249:10)
#loc3436 = loc("-":3249:20)
#loc3440 = loc("-":3254:10)
#loc3441 = loc("-":3254:20)
#loc3446 = loc("-":3260:10)
#loc3447 = loc("-":3260:20)
#loc3451 = loc("-":3265:10)
#loc3452 = loc("-":3265:20)
#loc3455 = loc("-":3269:10)
#loc3456 = loc("-":3269:20)
#loc3457 = loc("-":3269:34)
#loc3461 = loc("-":3274:10)
#loc3462 = loc("-":3274:20)
#loc3463 = loc("-":3274:34)
#loc3467 = loc("-":3279:10)
#loc3468 = loc("-":3279:20)
#loc3469 = loc("-":3279:34)
#loc3473 = loc("-":3284:10)
#loc3474 = loc("-":3284:20)
#loc3477 = loc("-":3288:10)
#loc3478 = loc("-":3288:20)
#loc3481 = loc("-":3292:10)
#loc3482 = loc("-":3292:20)
#loc3486 = loc("-":3297:10)
#loc3487 = loc("-":3297:20)
#loc3488 = loc("-":3297:34)
#loc3492 = loc("-":3302:10)
#loc3493 = loc("-":3302:20)
#loc3496 = loc("-":3306:10)
#loc3497 = loc("-":3306:20)
#loc3501 = loc("-":3311:10)
#loc3502 = loc("-":3311:20)
#loc3503 = loc("-":3311:34)
#loc3508 = loc("-":3317:10)
#loc3509 = loc("-":3317:20)
#loc3512 = loc("-":3321:10)
#loc3513 = loc("-":3321:20)
#loc3516 = loc("-":3325:10)
#loc3517 = loc("-":3325:20)
#loc3521 = loc("-":3330:10)
#loc3522 = loc("-":3330:20)
#loc3523 = loc("-":3330:34)
#loc3528 = loc("-":3336:10)
#loc3529 = loc("-":3336:20)
#loc3533 = loc("-":3341:10)
#loc3534 = loc("-":3341:20)
#loc3537 = loc("-":3345:10)
#loc3538 = loc("-":3345:20)
#loc3541 = loc("-":3349:10)
#loc3542 = loc("-":3349:20)
#loc3545 = loc("-":3353:10)
#loc3546 = loc("-":3353:20)
#loc3553 = loc("-":3361:10)
#loc3554 = loc("-":3361:20)
#loc3555 = loc("-":3361:34)
#loc3560 = loc("-":3367:10)
#loc3561 = loc("-":3367:20)
#loc3562 = loc("-":3367:31)
#loc3570 = loc("-":3376:10)
#loc3571 = loc("-":3376:20)
#loc3572 = loc("-":3376:34)
#loc3576 = loc("-":3381:10)
#loc3577 = loc("-":3381:20)
#loc3581 = loc("-":3386:10)
#loc3582 = loc("-":3386:20)
#loc3586 = loc("-":3391:10)
#loc3587 = loc("-":3391:20)
#loc3588 = loc("-":3391:34)
#loc3592 = loc("-":3396:10)
#loc3593 = loc("-":3396:20)
#loc3596 = loc("-":3400:10)
#loc3597 = loc("-":3400:20)
#loc3604 = loc("-":3408:10)
#loc3605 = loc("-":3408:20)
#loc3609 = loc("-":3413:10)
#loc3610 = loc("-":3413:20)
#loc3613 = loc("-":3417:10)
#loc3614 = loc("-":3417:20)
#loc3617 = loc("-":3421:10)
#loc3618 = loc("-":3421:20)
#loc3622 = loc("-":3426:10)
#loc3623 = loc("-":3426:20)
#loc3624 = loc("-":3426:34)
#loc3628 = loc("-":3431:10)
#loc3629 = loc("-":3431:20)
#loc3630 = loc("-":3431:34)
#loc3634 = loc("-":3436:10)
#loc3635 = loc("-":3436:20)
#loc3639 = loc("-":3441:10)
#loc3640 = loc("-":3441:20)
#loc3644 = loc("-":3446:10)
#loc3645 = loc("-":3446:20)
#loc3648 = loc("-":3450:10)
#loc3649 = loc("-":3450:20)
#loc3650 = loc("-":3450:34)
#loc3654 = loc("-":3455:10)
#loc3655 = loc("-":3455:20)
#loc3656 = loc("-":3455:34)
#loc3660 = loc("-":3460:10)
#loc3661 = loc("-":3460:20)
#loc3665 = loc("-":3465:10)
#loc3666 = loc("-":3465:20)
#loc3670 = loc("-":3470:10)
#loc3671 = loc("-":3470:20)
#loc3676 = loc("-":3476:10)
#loc3677 = loc("-":3476:20)
#loc3681 = loc("-":3481:10)
#loc3682 = loc("-":3481:20)
#loc3685 = loc("-":3485:10)
#loc3686 = loc("-":3485:20)
#loc3687 = loc("-":3485:34)
#loc3691 = loc("-":3490:10)
#loc3692 = loc("-":3490:20)
#loc3693 = loc("-":3490:34)
#loc3697 = loc("-":3495:10)
#loc3698 = loc("-":3495:20)
#loc3699 = loc("-":3495:34)
#loc3703 = loc("-":3500:10)
#loc3704 = loc("-":3500:20)
#loc3707 = loc("-":3504:10)
#loc3708 = loc("-":3504:20)
#loc3711 = loc("-":3508:10)
#loc3712 = loc("-":3508:20)
#loc3716 = loc("-":3513:10)
#loc3717 = loc("-":3513:20)
#loc3718 = loc("-":3513:34)
#loc3722 = loc("-":3518:10)
#loc3723 = loc("-":3518:20)
#loc3731 = loc("-":3527:10)
#loc3732 = loc("-":3527:20)
#loc3735 = loc("-":3531:10)
#loc3736 = loc("-":3531:20)
#loc3739 = loc("-":3535:10)
#loc3740 = loc("-":3535:20)
#loc3744 = loc("-":3540:10)
#loc3745 = loc("-":3540:20)
#loc3746 = loc("-":3540:34)
#loc3750 = loc("-":3545:10)
#loc3751 = loc("-":3545:20)
#loc3752 = loc("-":3545:34)
#loc3756 = loc("-":3550:10)
#loc3757 = loc("-":3550:20)
#loc3761 = loc("-":3555:10)
#loc3762 = loc("-":3555:20)
#loc3766 = loc("-":3560:10)
#loc3767 = loc("-":3560:20)
#loc3770 = loc("-":3564:10)
#loc3771 = loc("-":3564:20)
#loc3772 = loc("-":3564:34)
#loc3776 = loc("-":3569:10)
#loc3777 = loc("-":3569:20)
#loc3778 = loc("-":3569:34)
#loc3782 = loc("-":3574:10)
#loc3783 = loc("-":3574:20)
#loc3787 = loc("-":3579:10)
#loc3788 = loc("-":3579:20)
#loc3792 = loc("-":3584:10)
#loc3793 = loc("-":3584:20)
#loc3798 = loc("-":3590:10)
#loc3799 = loc("-":3590:20)
#loc3803 = loc("-":3595:10)
#loc3804 = loc("-":3595:20)
#loc3807 = loc("-":3599:10)
#loc3808 = loc("-":3599:20)
#loc3809 = loc("-":3599:34)
#loc3813 = loc("-":3604:10)
#loc3814 = loc("-":3604:20)
#loc3815 = loc("-":3604:34)
#loc3819 = loc("-":3609:10)
#loc3820 = loc("-":3609:20)
#loc3821 = loc("-":3609:34)
#loc3825 = loc("-":3614:10)
#loc3826 = loc("-":3614:20)
#loc3829 = loc("-":3618:10)
#loc3830 = loc("-":3618:20)
#loc3833 = loc("-":3622:10)
#loc3834 = loc("-":3622:20)
#loc3838 = loc("-":3627:10)
#loc3839 = loc("-":3627:20)
#loc3840 = loc("-":3627:34)
#loc3844 = loc("-":3632:10)
#loc3845 = loc("-":3632:20)
#loc3848 = loc("-":3636:10)
#loc3849 = loc("-":3636:20)
#loc3853 = loc("-":3641:10)
#loc3854 = loc("-":3641:20)
#loc3855 = loc("-":3641:34)
#loc3860 = loc("-":3647:10)
#loc3861 = loc("-":3647:20)
#loc3864 = loc("-":3651:10)
#loc3865 = loc("-":3651:20)
#loc3868 = loc("-":3655:10)
#loc3869 = loc("-":3655:20)
#loc3873 = loc("-":3660:10)
#loc3874 = loc("-":3660:20)
#loc3875 = loc("-":3660:34)
#loc3880 = loc("-":3666:10)
#loc3881 = loc("-":3666:20)
#loc3885 = loc("-":3671:10)
#loc3886 = loc("-":3671:20)
#loc3889 = loc("-":3675:10)
#loc3890 = loc("-":3675:20)
#loc3893 = loc("-":3679:10)
#loc3894 = loc("-":3679:20)
#loc3897 = loc("-":3683:10)
#loc3898 = loc("-":3683:20)
#loc3905 = loc("-":3691:10)
#loc3906 = loc("-":3691:20)
#loc3907 = loc("-":3691:34)
#loc3912 = loc("-":3697:10)
#loc3913 = loc("-":3697:20)
#loc3914 = loc("-":3697:31)
#loc3922 = loc("-":3706:10)
#loc3923 = loc("-":3706:20)
#loc3924 = loc("-":3706:34)
#loc3928 = loc("-":3711:10)
#loc3929 = loc("-":3711:20)
#loc3933 = loc("-":3716:10)
#loc3934 = loc("-":3716:20)
#loc3938 = loc("-":3721:10)
#loc3939 = loc("-":3721:20)
#loc3940 = loc("-":3721:34)
#loc3944 = loc("-":3726:10)
#loc3945 = loc("-":3726:20)
#loc3948 = loc("-":3730:10)
#loc3949 = loc("-":3730:20)
#loc3956 = loc("-":3738:10)
#loc3957 = loc("-":3738:20)
#loc3961 = loc("-":3743:10)
#loc3962 = loc("-":3743:20)
#loc3965 = loc("-":3747:10)
#loc3966 = loc("-":3747:20)
#loc3969 = loc("-":3751:10)
#loc3970 = loc("-":3751:20)
#loc3974 = loc("-":3756:10)
#loc3975 = loc("-":3756:20)
#loc3976 = loc("-":3756:34)
#loc3980 = loc("-":3761:10)
#loc3981 = loc("-":3761:20)
#loc3982 = loc("-":3761:34)
#loc3986 = loc("-":3766:10)
#loc3987 = loc("-":3766:20)
#loc3991 = loc("-":3771:10)
#loc3992 = loc("-":3771:20)
#loc3996 = loc("-":3776:10)
#loc3997 = loc("-":3776:20)
#loc4000 = loc("-":3780:10)
#loc4001 = loc("-":3780:20)
#loc4002 = loc("-":3780:34)
#loc4006 = loc("-":3785:10)
#loc4007 = loc("-":3785:20)
#loc4008 = loc("-":3785:34)
#loc4012 = loc("-":3790:10)
#loc4013 = loc("-":3790:20)
#loc4017 = loc("-":3795:10)
#loc4018 = loc("-":3795:20)
#loc4022 = loc("-":3800:10)
#loc4023 = loc("-":3800:20)
#loc4028 = loc("-":3806:10)
#loc4029 = loc("-":3806:20)
#loc4033 = loc("-":3811:10)
#loc4034 = loc("-":3811:20)
#loc4037 = loc("-":3815:10)
#loc4038 = loc("-":3815:20)
#loc4039 = loc("-":3815:34)
#loc4043 = loc("-":3820:10)
#loc4044 = loc("-":3820:20)
#loc4045 = loc("-":3820:34)
#loc4049 = loc("-":3825:10)
#loc4050 = loc("-":3825:20)
#loc4051 = loc("-":3825:34)
#loc4055 = loc("-":3830:10)
#loc4056 = loc("-":3830:20)
#loc4059 = loc("-":3834:10)
#loc4060 = loc("-":3834:20)
#loc4063 = loc("-":3838:10)
#loc4064 = loc("-":3838:20)
#loc4068 = loc("-":3843:10)
#loc4069 = loc("-":3843:20)
#loc4070 = loc("-":3843:34)
#loc4074 = loc("-":3848:10)
#loc4075 = loc("-":3848:20)
#loc4083 = loc("-":3857:10)
#loc4084 = loc("-":3857:20)
#loc4087 = loc("-":3861:10)
#loc4088 = loc("-":3861:20)
#loc4091 = loc("-":3865:10)
#loc4092 = loc("-":3865:20)
#loc4096 = loc("-":3870:10)
#loc4097 = loc("-":3870:20)
#loc4098 = loc("-":3870:34)
#loc4102 = loc("-":3875:10)
#loc4103 = loc("-":3875:20)
#loc4104 = loc("-":3875:34)
#loc4108 = loc("-":3880:10)
#loc4109 = loc("-":3880:20)
#loc4113 = loc("-":3885:10)
#loc4114 = loc("-":3885:20)
#loc4118 = loc("-":3890:10)
#loc4119 = loc("-":3890:20)
#loc4122 = loc("-":3894:10)
#loc4123 = loc("-":3894:20)
#loc4124 = loc("-":3894:34)
#loc4128 = loc("-":3899:10)
#loc4129 = loc("-":3899:20)
#loc4130 = loc("-":3899:34)
#loc4134 = loc("-":3904:10)
#loc4135 = loc("-":3904:20)
#loc4139 = loc("-":3909:10)
#loc4140 = loc("-":3909:20)
#loc4144 = loc("-":3914:10)
#loc4145 = loc("-":3914:20)
#loc4150 = loc("-":3920:10)
#loc4151 = loc("-":3920:20)
#loc4155 = loc("-":3925:10)
#loc4156 = loc("-":3925:20)
#loc4159 = loc("-":3929:10)
#loc4160 = loc("-":3929:20)
#loc4161 = loc("-":3929:34)
#loc4165 = loc("-":3934:10)
#loc4166 = loc("-":3934:20)
#loc4167 = loc("-":3934:34)
#loc4171 = loc("-":3939:10)
#loc4172 = loc("-":3939:20)
#loc4173 = loc("-":3939:34)
#loc4177 = loc("-":3944:10)
#loc4178 = loc("-":3944:20)
#loc4181 = loc("-":3948:10)
#loc4182 = loc("-":3948:20)
#loc4185 = loc("-":3952:10)
#loc4186 = loc("-":3952:20)
#loc4190 = loc("-":3957:10)
#loc4191 = loc("-":3957:20)
#loc4192 = loc("-":3957:34)
#loc4196 = loc("-":3962:10)
#loc4197 = loc("-":3962:20)
#loc4200 = loc("-":3966:10)
#loc4201 = loc("-":3966:20)
#loc4205 = loc("-":3971:10)
#loc4206 = loc("-":3971:20)
#loc4207 = loc("-":3971:34)
#loc4212 = loc("-":3977:10)
#loc4213 = loc("-":3977:20)
#loc4216 = loc("-":3981:10)
#loc4217 = loc("-":3981:20)
#loc4220 = loc("-":3985:10)
#loc4221 = loc("-":3985:20)
#loc4225 = loc("-":3990:10)
#loc4226 = loc("-":3990:20)
#loc4227 = loc("-":3990:34)
#loc4232 = loc("-":3996:10)
#loc4233 = loc("-":3996:20)
#loc4237 = loc("-":4001:10)
#loc4238 = loc("-":4001:20)
#loc4241 = loc("-":4005:10)
#loc4242 = loc("-":4005:20)
#loc4245 = loc("-":4009:10)
#loc4246 = loc("-":4009:20)
#loc4249 = loc("-":4013:10)
#loc4250 = loc("-":4013:20)
#loc4257 = loc("-":4021:10)
#loc4258 = loc("-":4021:20)
#loc4259 = loc("-":4021:34)
#loc4264 = loc("-":4027:10)
#loc4265 = loc("-":4027:20)
#loc4266 = loc("-":4027:31)
#loc4274 = loc("-":4036:10)
#loc4275 = loc("-":4036:20)
#loc4276 = loc("-":4036:34)
#loc4280 = loc("-":4041:10)
#loc4281 = loc("-":4041:20)
#loc4285 = loc("-":4046:10)
#loc4286 = loc("-":4046:20)
#loc4290 = loc("-":4051:10)
#loc4291 = loc("-":4051:20)
#loc4292 = loc("-":4051:34)
#loc4296 = loc("-":4056:10)
#loc4297 = loc("-":4056:20)
#loc4300 = loc("-":4060:10)
#loc4301 = loc("-":4060:20)
#loc4308 = loc("-":4068:10)
#loc4309 = loc("-":4068:20)
#loc4313 = loc("-":4073:10)
#loc4314 = loc("-":4073:20)
#loc4317 = loc("-":4077:10)
#loc4318 = loc("-":4077:20)
#loc4321 = loc("-":4081:10)
#loc4322 = loc("-":4081:20)
#loc4326 = loc("-":4086:10)
#loc4327 = loc("-":4086:20)
#loc4328 = loc("-":4086:34)
#loc4332 = loc("-":4091:10)
#loc4333 = loc("-":4091:20)
#loc4334 = loc("-":4091:34)
#loc4338 = loc("-":4096:10)
#loc4339 = loc("-":4096:20)
#loc4343 = loc("-":4101:10)
#loc4344 = loc("-":4101:20)
#loc4348 = loc("-":4106:10)
#loc4349 = loc("-":4106:20)
#loc4352 = loc("-":4110:10)
#loc4353 = loc("-":4110:20)
#loc4354 = loc("-":4110:34)
#loc4358 = loc("-":4115:10)
#loc4359 = loc("-":4115:20)
#loc4360 = loc("-":4115:34)
#loc4364 = loc("-":4120:10)
#loc4365 = loc("-":4120:20)
#loc4369 = loc("-":4125:10)
#loc4370 = loc("-":4125:20)
#loc4374 = loc("-":4130:10)
#loc4375 = loc("-":4130:20)
#loc4380 = loc("-":4136:10)
#loc4381 = loc("-":4136:20)
#loc4385 = loc("-":4141:10)
#loc4386 = loc("-":4141:20)
#loc4389 = loc("-":4145:10)
#loc4390 = loc("-":4145:20)
#loc4391 = loc("-":4145:34)
#loc4395 = loc("-":4150:10)
#loc4396 = loc("-":4150:20)
#loc4397 = loc("-":4150:34)
#loc4401 = loc("-":4155:10)
#loc4402 = loc("-":4155:20)
#loc4403 = loc("-":4155:34)
#loc4407 = loc("-":4160:10)
#loc4408 = loc("-":4160:20)
#loc4411 = loc("-":4164:10)
#loc4412 = loc("-":4164:20)
#loc4415 = loc("-":4168:10)
#loc4416 = loc("-":4168:20)
#loc4420 = loc("-":4173:10)
#loc4421 = loc("-":4173:20)
#loc4422 = loc("-":4173:34)
#loc4426 = loc("-":4178:10)
#loc4427 = loc("-":4178:20)
#loc4435 = loc("-":4187:10)
#loc4436 = loc("-":4187:20)
#loc4439 = loc("-":4191:10)
#loc4440 = loc("-":4191:20)
#loc4443 = loc("-":4195:10)
#loc4444 = loc("-":4195:20)
#loc4448 = loc("-":4200:10)
#loc4449 = loc("-":4200:20)
#loc4450 = loc("-":4200:34)
#loc4454 = loc("-":4205:10)
#loc4455 = loc("-":4205:20)
#loc4456 = loc("-":4205:34)
#loc4460 = loc("-":4210:10)
#loc4461 = loc("-":4210:20)
#loc4465 = loc("-":4215:10)
#loc4466 = loc("-":4215:20)
#loc4470 = loc("-":4220:10)
#loc4471 = loc("-":4220:20)
#loc4474 = loc("-":4224:10)
#loc4475 = loc("-":4224:20)
#loc4476 = loc("-":4224:34)
#loc4480 = loc("-":4229:10)
#loc4481 = loc("-":4229:20)
#loc4482 = loc("-":4229:34)
#loc4486 = loc("-":4234:10)
#loc4487 = loc("-":4234:20)
#loc4491 = loc("-":4239:10)
#loc4492 = loc("-":4239:20)
#loc4496 = loc("-":4244:10)
#loc4497 = loc("-":4244:20)
#loc4502 = loc("-":4250:10)
#loc4503 = loc("-":4250:20)
#loc4507 = loc("-":4255:10)
#loc4508 = loc("-":4255:20)
#loc4511 = loc("-":4259:10)
#loc4512 = loc("-":4259:20)
#loc4513 = loc("-":4259:34)
#loc4517 = loc("-":4264:10)
#loc4518 = loc("-":4264:20)
#loc4519 = loc("-":4264:34)
#loc4523 = loc("-":4269:10)
#loc4524 = loc("-":4269:20)
#loc4525 = loc("-":4269:34)
#loc4530 = loc("-":4275:10)
#loc4531 = loc("-":4275:20)
#loc4534 = loc("-":4279:10)
#loc4535 = loc("-":4279:20)
#loc4539 = loc("-":4284:10)
#loc4540 = loc("-":4284:20)
#loc4546 = loc("-":4291:10)
#loc4547 = loc("-":4291:20)
#loc4548 = loc("-":4291:34)
#map = affine_map<(d0, d1, d2) -> (d0, d1, d2)>
#map1 = affine_map<(d0, d1, d2) -> (d0, d1, 0)>
#map2 = affine_map<(d0, d1, d2) -> (0, d1, 0)>
#map3 = affine_map<(d0, d1, d2) -> (0, d1, d2)>
#map4 = affine_map<(d0, d1, d2) -> (d2)>
#map5 = affine_map<(d0, d1) -> (d0, d1)>
#map6 = affine_map<(d0, d1) -> (d1, d0)>
#map7 = affine_map<(d0, d1, d2) -> (d1, d2)>
#map8 = affine_map<(d0, d1, d2, d3) -> (d0, d1, d3)>
#map9 = affine_map<(d0, d1, d2, d3) -> (d0, d3, d2)>
#map10 = affine_map<(d0, d1, d2, d3) -> (d0, d1, d2)>
#map11 = affine_map<(d0, d1, d2, d3) -> (d0, d1, d2, d3)>
#map12 = affine_map<(d0, d1, d2, d3) -> (d0, d2, d1, d3)>
#map13 = affine_map<(d0, d1, d2, d3) -> (d0, d1, d3, d2)>
#map14 = affine_map<(d0, d1, d2, d3) -> (0, d1, d2, d3)>
#map15 = affine_map<(d0, d1, d2, d3) -> ()>
#map16 = affine_map<(d0, d1, d2, d3) -> (d0, d1, d2, 0)>
#map17 = affine_map<(d0, d1, d2, d3) -> (0, d1, d2, 0)>
"builtin.module"() ({
  "ml_program.global"() {is_mutable, sym_name = "global_seed", sym_visibility = "private", type = tensor<i64>, value = dense<0> : tensor<i64>} : () -> () loc(#loc1)
  "func.func"() ({
  ^bb0(%arg0: tensor<1x197x768xf32> loc("-":18:22)):
    %0 = "arith.constant"() {value = 0 : i64} : () -> i64 loc(#loc4)
    %1 = "arith.constant"() : () -> tensor<1000x768xf32> loc(#loc5)
    %2 = "arith.constant"() : () -> tensor<1000xf32> loc(#loc6)
    %3 = "arith.constant"() : () -> tensor<768xf32> loc(#loc7)
    %4 = "arith.constant"() : () -> tensor<768xf32> loc(#loc8)
    %5 = "arith.constant"() : () -> tensor<768x3072xf32> loc(#loc9)
    %6 = "arith.constant"() : () -> tensor<768xf32> loc(#loc10)
    %7 = "arith.constant"() : () -> tensor<3072x768xf32> loc(#loc11)
    %8 = "arith.constant"() : () -> tensor<3072xf32> loc(#loc12)
    %9 = "arith.constant"() : () -> tensor<768xf32> loc(#loc13)
    %10 = "arith.constant"() : () -> tensor<768xf32> loc(#loc14)
    %11 = "arith.constant"() : () -> tensor<768x768xf32> loc(#loc15)
    %12 = "arith.constant"() : () -> tensor<768xf32> loc(#loc16)
    %13 = "arith.constant"() : () -> tensor<768x768xf32> loc(#loc17)
    %14 = "arith.constant"() : () -> tensor<768xf32> loc(#loc18)
    %15 = "arith.constant"() : () -> tensor<768x768xf32> loc(#loc19)
    %16 = "arith.constant"() : () -> tensor<768xf32> loc(#loc20)
    %17 = "arith.constant"() : () -> tensor<768x768xf32> loc(#loc21)
    %18 = "arith.constant"() : () -> tensor<768xf32> loc(#loc22)
    %19 = "arith.constant"() : () -> tensor<768xf32> loc(#loc23)
    %20 = "arith.constant"() : () -> tensor<768xf32> loc(#loc24)
    %21 = "arith.constant"() : () -> tensor<768x3072xf32> loc(#loc25)
    %22 = "arith.constant"() : () -> tensor<768xf32> loc(#loc26)
    %23 = "arith.constant"() : () -> tensor<3072x768xf32> loc(#loc27)
    %24 = "arith.constant"() : () -> tensor<3072xf32> loc(#loc28)
    %25 = "arith.constant"() : () -> tensor<768xf32> loc(#loc29)
    %26 = "arith.constant"() : () -> tensor<768xf32> loc(#loc30)
    %27 = "arith.constant"() : () -> tensor<768x768xf32> loc(#loc31)
    %28 = "arith.constant"() : () -> tensor<768xf32> loc(#loc32)
    %29 = "arith.constant"() : () -> tensor<768x768xf32> loc(#loc33)
    %30 = "arith.constant"() : () -> tensor<768xf32> loc(#loc34)
    %31 = "arith.constant"() : () -> tensor<768x768xf32> loc(#loc35)
    %32 = "arith.constant"() : () -> tensor<768xf32> loc(#loc36)
    %33 = "arith.constant"() : () -> tensor<768x768xf32> loc(#loc37)
    %34 = "arith.constant"() : () -> tensor<768xf32> loc(#loc38)
    %35 = "arith.constant"() : () -> tensor<768xf32> loc(#loc39)
    %36 = "arith.constant"() : () -> tensor<768xf32> loc(#loc40)
    %37 = "arith.constant"() : () -> tensor<768x3072xf32> loc(#loc41)
    %38 = "arith.constant"() : () -> tensor<768xf32> loc(#loc42)
    %39 = "arith.constant"() : () -> tensor<3072x768xf32> loc(#loc43)
    %40 = "arith.constant"() : () -> tensor<3072xf32> loc(#loc44)
    %41 = "arith.constant"() : () -> tensor<768xf32> loc(#loc45)
    %42 = "arith.constant"() : () -> tensor<768xf32> loc(#loc46)
    %43 = "arith.constant"() : () -> tensor<768x768xf32> loc(#loc47)
    %44 = "arith.constant"() : () -> tensor<768xf32> loc(#loc48)
    %45 = "arith.constant"() : () -> tensor<768x768xf32> loc(#loc49)
    %46 = "arith.constant"() : () -> tensor<768xf32> loc(#loc50)
    %47 = "arith.constant"() : () -> tensor<768x768xf32> loc(#loc51)
    %48 = "arith.constant"() : () -> tensor<768xf32> loc(#loc52)
    %49 = "arith.constant"() : () -> tensor<768x768xf32> loc(#loc53)
    %50 = "arith.constant"() : () -> tensor<768xf32> loc(#loc54)
    %51 = "arith.constant"() : () -> tensor<768xf32> loc(#loc55)
    %52 = "arith.constant"() : () -> tensor<768xf32> loc(#loc56)
    %53 = "arith.constant"() : () -> tensor<768x3072xf32> loc(#loc57)
    %54 = "arith.constant"() : () -> tensor<768xf32> loc(#loc58)
    %55 = "arith.constant"() : () -> tensor<3072x768xf32> loc(#loc59)
    %56 = "arith.constant"() : () -> tensor<3072xf32> loc(#loc60)
    %57 = "arith.constant"() : () -> tensor<768xf32> loc(#loc61)
    %58 = "arith.constant"() : () -> tensor<768xf32> loc(#loc62)
    %59 = "arith.constant"() : () -> tensor<768x768xf32> loc(#loc63)
    %60 = "arith.constant"() : () -> tensor<768xf32> loc(#loc64)
    %61 = "arith.constant"() : () -> tensor<768x768xf32> loc(#loc65)
    %62 = "arith.constant"() : () -> tensor<768xf32> loc(#loc66)
    %63 = "arith.constant"() : () -> tensor<768x768xf32> loc(#loc67)
    %64 = "arith.constant"() : () -> tensor<768xf32> loc(#loc68)
    %65 = "arith.constant"() : () -> tensor<768x768xf32> loc(#loc69)
    %66 = "arith.constant"() : () -> tensor<768xf32> loc(#loc70)
    %67 = "arith.constant"() : () -> tensor<768xf32> loc(#loc71)
    %68 = "arith.constant"() : () -> tensor<768xf32> loc(#loc72)
    %69 = "arith.constant"() : () -> tensor<768x3072xf32> loc(#loc73)
    %70 = "arith.constant"() : () -> tensor<768xf32> loc(#loc74)
    %71 = "arith.constant"() : () -> tensor<3072x768xf32> loc(#loc75)
    %72 = "arith.constant"() : () -> tensor<3072xf32> loc(#loc76)
    %73 = "arith.constant"() : () -> tensor<768xf32> loc(#loc77)
    %74 = "arith.constant"() : () -> tensor<768xf32> loc(#loc78)
    %75 = "arith.constant"() : () -> tensor<768x768xf32> loc(#loc79)
    %76 = "arith.constant"() : () -> tensor<768xf32> loc(#loc80)
    %77 = "arith.constant"() : () -> tensor<768x768xf32> loc(#loc81)
    %78 = "arith.constant"() : () -> tensor<768xf32> loc(#loc82)
    %79 = "arith.constant"() : () -> tensor<768x768xf32> loc(#loc83)
    %80 = "arith.constant"() : () -> tensor<768xf32> loc(#loc84)
    %81 = "arith.constant"() : () -> tensor<768x768xf32> loc(#loc85)
    %82 = "arith.constant"() : () -> tensor<768xf32> loc(#loc86)
    %83 = "arith.constant"() : () -> tensor<768xf32> loc(#loc87)
    %84 = "arith.constant"() : () -> tensor<768xf32> loc(#loc88)
    %85 = "arith.constant"() : () -> tensor<768x3072xf32> loc(#loc89)
    %86 = "arith.constant"() : () -> tensor<768xf32> loc(#loc90)
    %87 = "arith.constant"() : () -> tensor<3072x768xf32> loc(#loc91)
    %88 = "arith.constant"() : () -> tensor<3072xf32> loc(#loc92)
    %89 = "arith.constant"() : () -> tensor<768xf32> loc(#loc93)
    %90 = "arith.constant"() : () -> tensor<768xf32> loc(#loc94)
    %91 = "arith.constant"() : () -> tensor<768x768xf32> loc(#loc95)
    %92 = "arith.constant"() : () -> tensor<768xf32> loc(#loc96)
    %93 = "arith.constant"() : () -> tensor<768x768xf32> loc(#loc97)
    %94 = "arith.constant"() : () -> tensor<768xf32> loc(#loc98)
    %95 = "arith.constant"() : () -> tensor<768x768xf32> loc(#loc99)
    %96 = "arith.constant"() : () -> tensor<768xf32> loc(#loc100)
    %97 = "arith.constant"() : () -> tensor<768x768xf32> loc(#loc101)
    %98 = "arith.constant"() : () -> tensor<768xf32> loc(#loc102)
    %99 = "arith.constant"() : () -> tensor<768xf32> loc(#loc103)
    %100 = "arith.constant"() : () -> tensor<768xf32> loc(#loc104)
    %101 = "arith.constant"() : () -> tensor<768x3072xf32> loc(#loc105)
    %102 = "arith.constant"() : () -> tensor<768xf32> loc(#loc106)
    %103 = "arith.constant"() : () -> tensor<3072x768xf32> loc(#loc107)
    %104 = "arith.constant"() : () -> tensor<3072xf32> loc(#loc108)
    %105 = "arith.constant"() : () -> tensor<768xf32> loc(#loc109)
    %106 = "arith.constant"() : () -> tensor<768xf32> loc(#loc110)
    %107 = "arith.constant"() : () -> tensor<768x768xf32> loc(#loc111)
    %108 = "arith.constant"() : () -> tensor<768xf32> loc(#loc112)
    %109 = "arith.constant"() : () -> tensor<768x768xf32> loc(#loc113)
    %110 = "arith.constant"() : () -> tensor<768xf32> loc(#loc114)
    %111 = "arith.constant"() : () -> tensor<768x768xf32> loc(#loc115)
    %112 = "arith.constant"() : () -> tensor<768xf32> loc(#loc116)
    %113 = "arith.constant"() : () -> tensor<768x768xf32> loc(#loc117)
    %114 = "arith.constant"() : () -> tensor<768xf32> loc(#loc118)
    %115 = "arith.constant"() : () -> tensor<768xf32> loc(#loc119)
    %116 = "arith.constant"() : () -> tensor<768xf32> loc(#loc120)
    %117 = "arith.constant"() : () -> tensor<768x3072xf32> loc(#loc121)
    %118 = "arith.constant"() : () -> tensor<768xf32> loc(#loc122)
    %119 = "arith.constant"() : () -> tensor<3072x768xf32> loc(#loc123)
    %120 = "arith.constant"() : () -> tensor<3072xf32> loc(#loc124)
    %121 = "arith.constant"() : () -> tensor<768xf32> loc(#loc125)
    %122 = "arith.constant"() : () -> tensor<768xf32> loc(#loc126)
    %123 = "arith.constant"() : () -> tensor<768x768xf32> loc(#loc127)
    %124 = "arith.constant"() : () -> tensor<768xf32> loc(#loc128)
    %125 = "arith.constant"() : () -> tensor<768x768xf32> loc(#loc129)
    %126 = "arith.constant"() : () -> tensor<768xf32> loc(#loc130)
    %127 = "arith.constant"() : () -> tensor<768x768xf32> loc(#loc131)
    %128 = "arith.constant"() : () -> tensor<768xf32> loc(#loc132)
    %129 = "arith.constant"() : () -> tensor<768x768xf32> loc(#loc133)
    %130 = "arith.constant"() : () -> tensor<768xf32> loc(#loc134)
    %131 = "arith.constant"() : () -> tensor<768xf32> loc(#loc135)
    %132 = "arith.constant"() : () -> tensor<768xf32> loc(#loc136)
    %133 = "arith.constant"() : () -> tensor<768x3072xf32> loc(#loc137)
    %134 = "arith.constant"() : () -> tensor<768xf32> loc(#loc138)
    %135 = "arith.constant"() : () -> tensor<3072x768xf32> loc(#loc139)
    %136 = "arith.constant"() : () -> tensor<3072xf32> loc(#loc140)
    %137 = "arith.constant"() : () -> tensor<768xf32> loc(#loc141)
    %138 = "arith.constant"() : () -> tensor<768xf32> loc(#loc142)
    %139 = "arith.constant"() : () -> tensor<768x768xf32> loc(#loc143)
    %140 = "arith.constant"() : () -> tensor<768xf32> loc(#loc144)
    %141 = "arith.constant"() : () -> tensor<768x768xf32> loc(#loc145)
    %142 = "arith.constant"() : () -> tensor<768xf32> loc(#loc146)
    %143 = "arith.constant"() : () -> tensor<768x768xf32> loc(#loc147)
    %144 = "arith.constant"() : () -> tensor<768xf32> loc(#loc148)
    %145 = "arith.constant"() : () -> tensor<768x768xf32> loc(#loc149)
    %146 = "arith.constant"() : () -> tensor<768xf32> loc(#loc150)
    %147 = "arith.constant"() : () -> tensor<768xf32> loc(#loc151)
    %148 = "arith.constant"() : () -> tensor<768xf32> loc(#loc152)
    %149 = "arith.constant"() : () -> tensor<768x3072xf32> loc(#loc153)
    %150 = "arith.constant"() : () -> tensor<768xf32> loc(#loc154)
    %151 = "arith.constant"() : () -> tensor<3072x768xf32> loc(#loc155)
    %152 = "arith.constant"() : () -> tensor<3072xf32> loc(#loc156)
    %153 = "arith.constant"() : () -> tensor<768xf32> loc(#loc157)
    %154 = "arith.constant"() : () -> tensor<768xf32> loc(#loc158)
    %155 = "arith.constant"() : () -> tensor<768x768xf32> loc(#loc159)
    %156 = "arith.constant"() : () -> tensor<768xf32> loc(#loc160)
    %157 = "arith.constant"() : () -> tensor<768x768xf32> loc(#loc161)
    %158 = "arith.constant"() : () -> tensor<768xf32> loc(#loc162)
    %159 = "arith.constant"() : () -> tensor<768x768xf32> loc(#loc163)
    %160 = "arith.constant"() : () -> tensor<768xf32> loc(#loc164)
    %161 = "arith.constant"() : () -> tensor<768x768xf32> loc(#loc165)
    %162 = "arith.constant"() : () -> tensor<768xf32> loc(#loc166)
    %163 = "arith.constant"() : () -> tensor<768xf32> loc(#loc167)
    %164 = "arith.constant"() : () -> tensor<768xf32> loc(#loc168)
    %165 = "arith.constant"() : () -> tensor<768x3072xf32> loc(#loc169)
    %166 = "arith.constant"() : () -> tensor<768xf32> loc(#loc170)
    %167 = "arith.constant"() : () -> tensor<3072x768xf32> loc(#loc171)
    %168 = "arith.constant"() : () -> tensor<3072xf32> loc(#loc172)
    %169 = "arith.constant"() : () -> tensor<768xf32> loc(#loc173)
    %170 = "arith.constant"() : () -> tensor<768xf32> loc(#loc174)
    %171 = "arith.constant"() : () -> tensor<768x768xf32> loc(#loc175)
    %172 = "arith.constant"() : () -> tensor<768xf32> loc(#loc176)
    %173 = "arith.constant"() : () -> tensor<768x768xf32> loc(#loc177)
    %174 = "arith.constant"() : () -> tensor<768xf32> loc(#loc178)
    %175 = "arith.constant"() : () -> tensor<768x768xf32> loc(#loc179)
    %176 = "arith.constant"() : () -> tensor<768xf32> loc(#loc180)
    %177 = "arith.constant"() : () -> tensor<768x768xf32> loc(#loc181)
    %178 = "arith.constant"() : () -> tensor<768xf32> loc(#loc182)
    %179 = "arith.constant"() : () -> tensor<768xf32> loc(#loc183)
    %180 = "arith.constant"() : () -> tensor<768xf32> loc(#loc184)
    %181 = "arith.constant"() : () -> tensor<768x3072xf32> loc(#loc185)
    %182 = "arith.constant"() : () -> tensor<768xf32> loc(#loc186)
    %183 = "arith.constant"() : () -> tensor<3072x768xf32> loc(#loc187)
    %184 = "arith.constant"() : () -> tensor<3072xf32> loc(#loc188)
    %185 = "arith.constant"() : () -> tensor<768xf32> loc(#loc189)
    %186 = "arith.constant"() : () -> tensor<768xf32> loc(#loc190)
    %187 = "arith.constant"() : () -> tensor<768x768xf32> loc(#loc191)
    %188 = "arith.constant"() : () -> tensor<768xf32> loc(#loc192)
    %189 = "arith.constant"() : () -> tensor<f64> loc(#loc193)
    %190 = "arith.constant"() : () -> tensor<768x768xf32> loc(#loc194)
    %191 = "arith.constant"() : () -> tensor<768xf32> loc(#loc195)
    %192 = "arith.constant"() : () -> tensor<768x768xf32> loc(#loc196)
    %193 = "arith.constant"() : () -> tensor<768xf32> loc(#loc197)
    %194 = "arith.constant"() : () -> tensor<768x768xf32> loc(#loc198)
    %195 = "arith.constant"() : () -> tensor<768xf32> loc(#loc199)
    %196 = "arith.constant"() : () -> tensor<768xf32> loc(#loc200)
    %197 = "arith.constant"() : () -> tensor<768xf32> loc(#loc201)
    %198 = "arith.constant"() : () -> f32 loc(#loc202)
    %199 = "arith.constant"() : () -> f32 loc(#loc203)
    %200 = "arith.constant"() : () -> f32 loc(#loc204)
    %201 = "arith.constant"() : () -> f32 loc(#loc205)
    %202 = "arith.constant"() : () -> f32 loc(#loc206)
    %203 = "arith.constant"() : () -> f64 loc(#loc207)
    %204 = "arith.constant"() : () -> f32 loc(#loc208)
    %205 = "tensor.empty"() : () -> tensor<1x197x1xf32> loc(#loc209)
    %206 = "linalg.fill"(%198, %205) ({
    ^bb0(%arg1: f32 loc(unknown), %arg2: f32 loc(unknown)):
      "linalg.yield"(%arg1) : (f32) -> () loc(#loc211)
    }) {operand_segment_sizes = array<i32: 1, 1>} : (f32, tensor<1x197x1xf32>) -> tensor<1x197x1xf32> loc(#loc210)
    %207 = "linalg.generic"(%arg0, %206) ({
    ^bb0(%arg1: f32 loc("-":227:10), %arg2: f32 loc("-":227:20)):
      %1260 = "arith.addf"(%arg1, %arg2) {fastmath = #arith.fastmath<none>} : (f32, f32) -> f32 loc(#loc215)
      "linalg.yield"(%1260) : (f32) -> () loc(#loc216)
    }) {indexing_maps = [#map, #map1], iterator_types = [#linalg.iterator_type<parallel>, #linalg.iterator_type<parallel>, #linalg.iterator_type<reduction>], operand_segment_sizes = array<i32: 1, 1>} : (tensor<1x197x768xf32>, tensor<1x197x1xf32>) -> tensor<1x197x1xf32> loc(#loc212)
    %208 = "linalg.generic"(%207, %205) ({
    ^bb0(%arg1: f32 loc("-":232:10), %arg2: f32 loc("-":232:20)):
      %1260 = "arith.divf"(%arg1, %204) {fastmath = #arith.fastmath<none>} : (f32, f32) -> f32 loc(#loc220)
      "linalg.yield"(%1260) : (f32) -> () loc(#loc221)
    }) {indexing_maps = [#map2, #map], iterator_types = [#linalg.iterator_type<parallel>, #linalg.iterator_type<parallel>, #linalg.iterator_type<parallel>], operand_segment_sizes = array<i32: 1, 1>} : (tensor<1x197x1xf32>, tensor<1x197x1xf32>) -> tensor<1x197x1xf32> loc(#loc217)
    %209 = "tensor.empty"() : () -> tensor<1x197x768xf32> loc(#loc222)
    %210 = "linalg.generic"(%208, %209) ({
    ^bb0(%arg1: f32 loc("-":238:10), %arg2: f32 loc("-":238:20)):
      "linalg.yield"(%arg1) : (f32) -> () loc(#loc226)
    }) {indexing_maps = [#map2, #map], iterator_types = [#linalg.iterator_type<parallel>, #linalg.iterator_type<parallel>, #linalg.iterator_type<parallel>], operand_segment_sizes = array<i32: 1, 1>} : (tensor<1x197x1xf32>, tensor<1x197x768xf32>) -> tensor<1x197x768xf32> loc(#loc223)
    %211 = "linalg.generic"(%arg0, %210, %209) ({
    ^bb0(%arg1: f32 loc("-":242:10), %arg2: f32 loc("-":242:20), %arg3: f32 loc("-":242:34)):
      %1260 = "arith.subf"(%arg1, %arg2) {fastmath = #arith.fastmath<none>} : (f32, f32) -> f32 loc(#loc231)
      "linalg.yield"(%1260) : (f32) -> () loc(#loc232)
    }) {indexing_maps = [#map3, #map3, #map], iterator_types = [#linalg.iterator_type<parallel>, #linalg.iterator_type<parallel>, #linalg.iterator_type<parallel>], operand_segment_sizes = array<i32: 2, 1>} : (tensor<1x197x768xf32>, tensor<1x197x768xf32>, tensor<1x197x768xf32>) -> tensor<1x197x768xf32> loc(#loc227)
    %212 = "linalg.generic"(%211, %211, %209) ({
    ^bb0(%arg1: f32 loc("-":247:10), %arg2: f32 loc("-":247:20), %arg3: f32 loc("-":247:34)):
      %1260 = "arith.mulf"(%arg1, %arg2) {fastmath = #arith.fastmath<none>} : (f32, f32) -> f32 loc(#loc237)
      "linalg.yield"(%1260) : (f32) -> () loc(#loc238)
    }) {indexing_maps = [#map3, #map3, #map], iterator_types = [#linalg.iterator_type<parallel>, #linalg.iterator_type<parallel>, #linalg.iterator_type<parallel>], operand_segment_sizes = array<i32: 2, 1>} : (tensor<1x197x768xf32>, tensor<1x197x768xf32>, tensor<1x197x768xf32>) -> tensor<1x197x768xf32> loc(#loc233)
    %213 = "linalg.generic"(%212, %206) ({
    ^bb0(%arg1: f32 loc("-":252:10), %arg2: f32 loc("-":252:20)):
      %1260 = "arith.addf"(%arg1, %arg2) {fastmath = #arith.fastmath<none>} : (f32, f32) -> f32 loc(#loc242)
      "linalg.yield"(%1260) : (f32) -> () loc(#loc243)
    }) {indexing_maps = [#map, #map1], iterator_types = [#linalg.iterator_type<parallel>, #linalg.iterator_type<parallel>, #linalg.iterator_type<reduction>], operand_segment_sizes = array<i32: 1, 1>} : (tensor<1x197x768xf32>, tensor<1x197x1xf32>) -> tensor<1x197x1xf32> loc(#loc239)
    %214 = "linalg.generic"(%213, %205) ({
    ^bb0(%arg1: f32 loc("-":257:10), %arg2: f32 loc("-":257:20)):
      %1260 = "arith.divf"(%arg1, %204) {fastmath = #arith.fastmath<none>} : (f32, f32) -> f32 loc(#loc247)
      "linalg.yield"(%1260) : (f32) -> () loc(#loc248)
    }) {indexing_maps = [#map2, #map], iterator_types = [#linalg.iterator_type<parallel>, #linalg.iterator_type<parallel>, #linalg.iterator_type<parallel>], operand_segment_sizes = array<i32: 1, 1>} : (tensor<1x197x1xf32>, tensor<1x197x1xf32>) -> tensor<1x197x1xf32> loc(#loc244)
    %215 = "linalg.generic"(%214, %205) ({
    ^bb0(%arg1: f32 loc("-":262:10), %arg2: f32 loc("-":262:20)):
      %1260 = "arith.truncf"(%203) : (f64) -> f32 loc(#loc252)
      %1261 = "arith.addf"(%arg1, %1260) {fastmath = #arith.fastmath<none>} : (f32, f32) -> f32 loc(#loc253)
      "linalg.yield"(%1261) : (f32) -> () loc(#loc254)
    }) {indexing_maps = [#map2, #map], iterator_types = [#linalg.iterator_type<parallel>, #linalg.iterator_type<parallel>, #linalg.iterator_type<parallel>], operand_segment_sizes = array<i32: 1, 1>} : (tensor<1x197x1xf32>, tensor<1x197x1xf32>) -> tensor<1x197x1xf32> loc(#loc249)
    %216 = "linalg.generic"(%215, %205) ({
    ^bb0(%arg1: f32 loc("-":268:10), %arg2: f32 loc("-":268:20)):
      %1260 = "math.rsqrt"(%arg1) {fastmath = #arith.fastmath<none>} : (f32) -> f32 loc(#loc258)
      "linalg.yield"(%1260) : (f32) -> () loc(#loc259)
    }) {indexing_maps = [#map2, #map], iterator_types = [#linalg.iterator_type<parallel>, #linalg.iterator_type<parallel>, #linalg.iterator_type<parallel>], operand_segment_sizes = array<i32: 1, 1>} : (tensor<1x197x1xf32>, tensor<1x197x1xf32>) -> tensor<1x197x1xf32> loc(#loc255)
    %217 = "linalg.generic"(%216, %209) ({
    ^bb0(%arg1: f32 loc("-":273:10), %arg2: f32 loc("-":273:20)):
      "linalg.yield"(%arg1) : (f32) -> () loc(#loc263)
    }) {indexing_maps = [#map2, #map], iterator_types = [#linalg.iterator_type<parallel>, #linalg.iterator_type<parallel>, #linalg.iterator_type<parallel>], operand_segment_sizes = array<i32: 1, 1>} : (tensor<1x197x1xf32>, tensor<1x197x768xf32>) -> tensor<1x197x768xf32> loc(#loc260)
    %218 = "linalg.generic"(%211, %217, %209) ({
    ^bb0(%arg1: f32 loc("-":277:10), %arg2: f32 loc("-":277:20), %arg3: f32 loc("-":277:34)):
      %1260 = "arith.mulf"(%arg1, %arg2) {fastmath = #arith.fastmath<none>} : (f32, f32) -> f32 loc(#loc268)
      "linalg.yield"(%1260) : (f32) -> () loc(#loc269)
    }) {indexing_maps = [#map3, #map3, #map], iterator_types = [#linalg.iterator_type<parallel>, #linalg.iterator_type<parallel>, #linalg.iterator_type<parallel>], operand_segment_sizes = array<i32: 2, 1>} : (tensor<1x197x768xf32>, tensor<1x197x768xf32>, tensor<1x197x768xf32>) -> tensor<1x197x768xf32> loc(#loc264)
    %219 = "linalg.generic"(%218, %196, %209) ({
    ^bb0(%arg1: f32 loc("-":282:10), %arg2: f32 loc("-":282:20), %arg3: f32 loc("-":282:34)):
      %1260 = "arith.mulf"(%arg1, %arg2) {fastmath = #arith.fastmath<none>} : (f32, f32) -> f32 loc(#loc274)
      "linalg.yield"(%1260) : (f32) -> () loc(#loc275)
    }) {indexing_maps = [#map3, #map4, #map], iterator_types = [#linalg.iterator_type<parallel>, #linalg.iterator_type<parallel>, #linalg.iterator_type<parallel>], operand_segment_sizes = array<i32: 2, 1>} : (tensor<1x197x768xf32>, tensor<768xf32>, tensor<1x197x768xf32>) -> tensor<1x197x768xf32> loc(#loc270)
    %220 = "linalg.generic"(%219, %197, %209) ({
    ^bb0(%arg1: f32 loc("-":287:10), %arg2: f32 loc("-":287:20), %arg3: f32 loc("-":287:34)):
      %1260 = "arith.addf"(%arg1, %arg2) {fastmath = #arith.fastmath<none>} : (f32, f32) -> f32 loc(#loc280)
      "linalg.yield"(%1260) : (f32) -> () loc(#loc281)
    }) {indexing_maps = [#map3, #map4, #map], iterator_types = [#linalg.iterator_type<parallel>, #linalg.iterator_type<parallel>, #linalg.iterator_type<parallel>], operand_segment_sizes = array<i32: 2, 1>} : (tensor<1x197x768xf32>, tensor<768xf32>, tensor<1x197x768xf32>) -> tensor<1x197x768xf32> loc(#loc276)
    %221 = "tensor.empty"() : () -> tensor<768x768xf32> loc(#loc282)
    %222 = "linalg.generic"(%194, %221) ({
    ^bb0(%arg1: f32 loc("-":293:10), %arg2: f32 loc("-":293:20)):
      "linalg.yield"(%arg1) : (f32) -> () loc(#loc286)
    }) {indexing_maps = [#map5, #map6], iterator_types = [#linalg.iterator_type<parallel>, #linalg.iterator_type<parallel>], operand_segment_sizes = array<i32: 1, 1>} : (tensor<768x768xf32>, tensor<768x768xf32>) -> tensor<768x768xf32> loc(#loc283)
    %223 = "linalg.generic"(%220, %209) ({
    ^bb0(%arg1: f32 loc("-":297:10), %arg2: f32 loc("-":297:20)):
      "linalg.yield"(%arg1) : (f32) -> () loc(#loc290)
    }) {indexing_maps = [#map3, #map], iterator_types = [#linalg.iterator_type<parallel>, #linalg.iterator_type<parallel>, #linalg.iterator_type<parallel>], operand_segment_sizes = array<i32: 1, 1>} : (tensor<1x197x768xf32>, tensor<1x197x768xf32>) -> tensor<1x197x768xf32> loc(#loc287)
    %224 = "tensor.empty"() : () -> tensor<1x768x768xf32> loc(#loc291)
    %225 = "linalg.generic"(%222, %224) ({
    ^bb0(%arg1: f32 loc("-":302:10), %arg2: f32 loc("-":302:20)):
      "linalg.yield"(%arg1) : (f32) -> () loc(#loc295)
    }) {indexing_maps = [#map7, #map], iterator_types = [#linalg.iterator_type<parallel>, #linalg.iterator_type<parallel>, #linalg.iterator_type<parallel>], operand_segment_sizes = array<i32: 1, 1>} : (tensor<768x768xf32>, tensor<1x768x768xf32>) -> tensor<1x768x768xf32> loc(#loc292)
    %226 = "linalg.fill"(%198, %209) ({
    ^bb0(%arg1: f32 loc(unknown), %arg2: f32 loc(unknown)):
      "linalg.yield"(%arg1) : (f32) -> () loc(#loc211)
    }) {operand_segment_sizes = array<i32: 1, 1>} : (f32, tensor<1x197x768xf32>) -> tensor<1x197x768xf32> loc(#loc296)
    %227 = "linalg.batch_matmul"(%223, %225, %226) ({
    ^bb0(%arg1: f32 loc(unknown), %arg2: f32 loc(unknown), %arg3: f32 loc(unknown)):
      %1260 = "arith.mulf"(%arg1, %arg2) {fastmath = #arith.fastmath<none>} : (f32, f32) -> f32 loc(#loc211)
      %1261 = "arith.addf"(%arg3, %1260) {fastmath = #arith.fastmath<none>} : (f32, f32) -> f32 loc(#loc211)
      "linalg.yield"(%1261) : (f32) -> () loc(#loc211)
    }) {linalg.memoized_indexing_maps = [#map8, #map9, #map10], operand_segment_sizes = array<i32: 2, 1>} : (tensor<1x197x768xf32>, tensor<1x768x768xf32>, tensor<1x197x768xf32>) -> tensor<1x197x768xf32> loc(#loc297)
    %228 = "linalg.generic"(%227, %195, %209) ({
    ^bb0(%arg1: f32 loc("-":308:10), %arg2: f32 loc("-":308:20), %arg3: f32 loc("-":308:34)):
      %1260 = "arith.addf"(%arg1, %arg2) {fastmath = #arith.fastmath<none>} : (f32, f32) -> f32 loc(#loc302)
      "linalg.yield"(%1260) : (f32) -> () loc(#loc303)
    }) {indexing_maps = [#map3, #map4, #map], iterator_types = [#linalg.iterator_type<parallel>, #linalg.iterator_type<parallel>, #linalg.iterator_type<parallel>], operand_segment_sizes = array<i32: 2, 1>} : (tensor<1x197x768xf32>, tensor<768xf32>, tensor<1x197x768xf32>) -> tensor<1x197x768xf32> loc(#loc298)
    %229 = "linalg.generic"(%192, %221) ({
    ^bb0(%arg1: f32 loc("-":313:10), %arg2: f32 loc("-":313:20)):
      "linalg.yield"(%arg1) : (f32) -> () loc(#loc307)
    }) {indexing_maps = [#map5, #map6], iterator_types = [#linalg.iterator_type<parallel>, #linalg.iterator_type<parallel>], operand_segment_sizes = array<i32: 1, 1>} : (tensor<768x768xf32>, tensor<768x768xf32>) -> tensor<768x768xf32> loc(#loc304)
    %230 = "linalg.generic"(%229, %224) ({
    ^bb0(%arg1: f32 loc("-":317:10), %arg2: f32 loc("-":317:20)):
      "linalg.yield"(%arg1) : (f32) -> () loc(#loc311)
    }) {indexing_maps = [#map7, #map], iterator_types = [#linalg.iterator_type<parallel>, #linalg.iterator_type<parallel>, #linalg.iterator_type<parallel>], operand_segment_sizes = array<i32: 1, 1>} : (tensor<768x768xf32>, tensor<1x768x768xf32>) -> tensor<1x768x768xf32> loc(#loc308)
    %231 = "linalg.batch_matmul"(%223, %230, %226) ({
    ^bb0(%arg1: f32 loc(unknown), %arg2: f32 loc(unknown), %arg3: f32 loc(unknown)):
      %1260 = "arith.mulf"(%arg1, %arg2) {fastmath = #arith.fastmath<none>} : (f32, f32) -> f32 loc(#loc211)
      %1261 = "arith.addf"(%arg3, %1260) {fastmath = #arith.fastmath<none>} : (f32, f32) -> f32 loc(#loc211)
      "linalg.yield"(%1261) : (f32) -> () loc(#loc211)
    }) {linalg.memoized_indexing_maps = [#map8, #map9, #map10], operand_segment_sizes = array<i32: 2, 1>} : (tensor<1x197x768xf32>, tensor<1x768x768xf32>, tensor<1x197x768xf32>) -> tensor<1x197x768xf32> loc(#loc312)
    %232 = "linalg.generic"(%231, %193, %209) ({
    ^bb0(%arg1: f32 loc("-":322:10), %arg2: f32 loc("-":322:20), %arg3: f32 loc("-":322:34)):
      %1260 = "arith.addf"(%arg1, %arg2) {fastmath = #arith.fastmath<none>} : (f32, f32) -> f32 loc(#loc317)
      "linalg.yield"(%1260) : (f32) -> () loc(#loc318)
    }) {indexing_maps = [#map3, #map4, #map], iterator_types = [#linalg.iterator_type<parallel>, #linalg.iterator_type<parallel>, #linalg.iterator_type<parallel>], operand_segment_sizes = array<i32: 2, 1>} : (tensor<1x197x768xf32>, tensor<768xf32>, tensor<1x197x768xf32>) -> tensor<1x197x768xf32> loc(#loc313)
    %233 = "tensor.expand_shape"(%232) {reassociation = [[0], [1], [2, 3]]} : (tensor<1x197x768xf32>) -> tensor<1x197x12x64xf32> loc(#loc319)
    %234 = "tensor.empty"() : () -> tensor<1x12x197x64xf32> loc(#loc320)
    %235 = "linalg.generic"(%233, %234) ({
    ^bb0(%arg1: f32 loc("-":329:10), %arg2: f32 loc("-":329:20)):
      "linalg.yield"(%arg1) : (f32) -> () loc(#loc324)
    }) {indexing_maps = [#map11, #map12], iterator_types = [#linalg.iterator_type<parallel>, #linalg.iterator_type<parallel>, #linalg.iterator_type<parallel>, #linalg.iterator_type<parallel>], operand_segment_sizes = array<i32: 1, 1>} : (tensor<1x197x12x64xf32>, tensor<1x12x197x64xf32>) -> tensor<1x12x197x64xf32> loc(#loc321)
    %236 = "linalg.generic"(%190, %221) ({
    ^bb0(%arg1: f32 loc("-":333:10), %arg2: f32 loc("-":333:20)):
      "linalg.yield"(%arg1) : (f32) -> () loc(#loc328)
    }) {indexing_maps = [#map5, #map6], iterator_types = [#linalg.iterator_type<parallel>, #linalg.iterator_type<parallel>], operand_segment_sizes = array<i32: 1, 1>} : (tensor<768x768xf32>, tensor<768x768xf32>) -> tensor<768x768xf32> loc(#loc325)
    %237 = "linalg.generic"(%236, %224) ({
    ^bb0(%arg1: f32 loc("-":337:10), %arg2: f32 loc("-":337:20)):
      "linalg.yield"(%arg1) : (f32) -> () loc(#loc332)
    }) {indexing_maps = [#map7, #map], iterator_types = [#linalg.iterator_type<parallel>, #linalg.iterator_type<parallel>, #linalg.iterator_type<parallel>], operand_segment_sizes = array<i32: 1, 1>} : (tensor<768x768xf32>, tensor<1x768x768xf32>) -> tensor<1x768x768xf32> loc(#loc329)
    %238 = "linalg.batch_matmul"(%223, %237, %226) ({
    ^bb0(%arg1: f32 loc(unknown), %arg2: f32 loc(unknown), %arg3: f32 loc(unknown)):
      %1260 = "arith.mulf"(%arg1, %arg2) {fastmath = #arith.fastmath<none>} : (f32, f32) -> f32 loc(#loc211)
      %1261 = "arith.addf"(%arg3, %1260) {fastmath = #arith.fastmath<none>} : (f32, f32) -> f32 loc(#loc211)
      "linalg.yield"(%1261) : (f32) -> () loc(#loc211)
    }) {linalg.memoized_indexing_maps = [#map8, #map9, #map10], operand_segment_sizes = array<i32: 2, 1>} : (tensor<1x197x768xf32>, tensor<1x768x768xf32>, tensor<1x197x768xf32>) -> tensor<1x197x768xf32> loc(#loc333)
    %239 = "linalg.generic"(%238, %191, %209) ({
    ^bb0(%arg1: f32 loc("-":342:10), %arg2: f32 loc("-":342:20), %arg3: f32 loc("-":342:34)):
      %1260 = "arith.addf"(%arg1, %arg2) {fastmath = #arith.fastmath<none>} : (f32, f32) -> f32 loc(#loc338)
      "linalg.yield"(%1260) : (f32) -> () loc(#loc339)
    }) {indexing_maps = [#map3, #map4, #map], iterator_types = [#linalg.iterator_type<parallel>, #linalg.iterator_type<parallel>, #linalg.iterator_type<parallel>], operand_segment_sizes = array<i32: 2, 1>} : (tensor<1x197x768xf32>, tensor<768xf32>, tensor<1x197x768xf32>) -> tensor<1x197x768xf32> loc(#loc334)
    %240 = "tensor.expand_shape"(%239) {reassociation = [[0], [1], [2, 3]]} : (tensor<1x197x768xf32>) -> tensor<1x197x12x64xf32> loc(#loc340)
    %241 = "linalg.generic"(%240, %234) ({
    ^bb0(%arg1: f32 loc("-":348:10), %arg2: f32 loc("-":348:20)):
      "linalg.yield"(%arg1) : (f32) -> () loc(#loc344)
    }) {indexing_maps = [#map11, #map12], iterator_types = [#linalg.iterator_type<parallel>, #linalg.iterator_type<parallel>, #linalg.iterator_type<parallel>, #linalg.iterator_type<parallel>], operand_segment_sizes = array<i32: 1, 1>} : (tensor<1x197x12x64xf32>, tensor<1x12x197x64xf32>) -> tensor<1x12x197x64xf32> loc(#loc341)
    %242 = "tensor.expand_shape"(%228) {reassociation = [[0], [1], [2, 3]]} : (tensor<1x197x768xf32>) -> tensor<1x197x12x64xf32> loc(#loc345)
    %243 = "linalg.generic"(%242, %234) ({
    ^bb0(%arg1: f32 loc("-":353:10), %arg2: f32 loc("-":353:20)):
      "linalg.yield"(%arg1) : (f32) -> () loc(#loc349)
    }) {indexing_maps = [#map11, #map12], iterator_types = [#linalg.iterator_type<parallel>, #linalg.iterator_type<parallel>, #linalg.iterator_type<parallel>, #linalg.iterator_type<parallel>], operand_segment_sizes = array<i32: 1, 1>} : (tensor<1x197x12x64xf32>, tensor<1x12x197x64xf32>) -> tensor<1x12x197x64xf32> loc(#loc346)
    %244 = "tensor.empty"() : () -> tensor<1x12x64x197xf32> loc(#loc350)
    %245 = "linalg.generic"(%235, %244) ({
    ^bb0(%arg1: f32 loc("-":358:10), %arg2: f32 loc("-":358:20)):
      "linalg.yield"(%arg1) : (f32) -> () loc(#loc354)
    }) {indexing_maps = [#map11, #map13], iterator_types = [#linalg.iterator_type<parallel>, #linalg.iterator_type<parallel>, #linalg.iterator_type<parallel>, #linalg.iterator_type<parallel>], operand_segment_sizes = array<i32: 1, 1>} : (tensor<1x12x197x64xf32>, tensor<1x12x64x197xf32>) -> tensor<1x12x64x197xf32> loc(#loc351)
    %246 = "linalg.generic"(%243, %234) ({
    ^bb0(%arg1: f32 loc("-":362:10), %arg2: f32 loc("-":362:20)):
      "linalg.yield"(%arg1) : (f32) -> () loc(#loc358)
    }) {indexing_maps = [#map14, #map11], iterator_types = [#linalg.iterator_type<parallel>, #linalg.iterator_type<parallel>, #linalg.iterator_type<parallel>, #linalg.iterator_type<parallel>], operand_segment_sizes = array<i32: 1, 1>} : (tensor<1x12x197x64xf32>, tensor<1x12x197x64xf32>) -> tensor<1x12x197x64xf32> loc(#loc355)
    %247 = "linalg.generic"(%245, %244) ({
    ^bb0(%arg1: f32 loc("-":366:10), %arg2: f32 loc("-":366:20)):
      "linalg.yield"(%arg1) : (f32) -> () loc(#loc362)
    }) {indexing_maps = [#map14, #map11], iterator_types = [#linalg.iterator_type<parallel>, #linalg.iterator_type<parallel>, #linalg.iterator_type<parallel>, #linalg.iterator_type<parallel>], operand_segment_sizes = array<i32: 1, 1>} : (tensor<1x12x64x197xf32>, tensor<1x12x64x197xf32>) -> tensor<1x12x64x197xf32> loc(#loc359)
    %248 = "tensor.collapse_shape"(%246) {reassociation = [[0, 1], [2], [3]]} : (tensor<1x12x197x64xf32>) -> tensor<12x197x64xf32> loc(#loc363)
    %249 = "tensor.collapse_shape"(%247) {reassociation = [[0, 1], [2], [3]]} : (tensor<1x12x64x197xf32>) -> tensor<12x64x197xf32> loc(#loc364)
    %250 = "tensor.empty"() : () -> tensor<12x197x197xf32> loc(#loc365)
    %251 = "linalg.fill"(%198, %250) ({
    ^bb0(%arg1: f32 loc(unknown), %arg2: f32 loc(unknown)):
      "linalg.yield"(%arg1) : (f32) -> () loc(#loc211)
    }) {operand_segment_sizes = array<i32: 1, 1>} : (f32, tensor<12x197x197xf32>) -> tensor<12x197x197xf32> loc(#loc366)
    %252 = "linalg.batch_matmul"(%248, %249, %251) ({
    ^bb0(%arg1: f32 loc(unknown), %arg2: f32 loc(unknown), %arg3: f32 loc(unknown)):
      %1260 = "arith.mulf"(%arg1, %arg2) {fastmath = #arith.fastmath<none>} : (f32, f32) -> f32 loc(#loc211)
      %1261 = "arith.addf"(%arg3, %1260) {fastmath = #arith.fastmath<none>} : (f32, f32) -> f32 loc(#loc211)
      "linalg.yield"(%1261) : (f32) -> () loc(#loc211)
    }) {linalg.memoized_indexing_maps = [#map8, #map9, #map10], operand_segment_sizes = array<i32: 2, 1>} : (tensor<12x197x64xf32>, tensor<12x64x197xf32>, tensor<12x197x197xf32>) -> tensor<12x197x197xf32> loc(#loc367)
    %253 = "tensor.expand_shape"(%252) {reassociation = [[0, 1], [2], [3]]} : (tensor<12x197x197xf32>) -> tensor<1x12x197x197xf32> loc(#loc368)
    %254 = "tensor.empty"() : () -> tensor<1x12x197x197xf32> loc(#loc369)
    %255 = "linalg.generic"(%253, %189, %254) ({
    ^bb0(%arg1: f32 loc("-":377:10), %arg2: f64 loc("-":377:20), %arg3: f32 loc("-":377:34)):
      %1260 = "arith.truncf"(%arg2) : (f64) -> f32 loc(#loc374)
      %1261 = "arith.divf"(%arg1, %1260) {fastmath = #arith.fastmath<none>} : (f32, f32) -> f32 loc(#loc375)
      "linalg.yield"(%1261) : (f32) -> () loc(#loc376)
    }) {indexing_maps = [#map14, #map15, #map11], iterator_types = [#linalg.iterator_type<parallel>, #linalg.iterator_type<parallel>, #linalg.iterator_type<parallel>, #linalg.iterator_type<parallel>], operand_segment_sizes = array<i32: 2, 1>} : (tensor<1x12x197x197xf32>, tensor<f64>, tensor<1x12x197x197xf32>) -> tensor<1x12x197x197xf32> loc(#loc370)
    %256 = "tensor.empty"() : () -> tensor<1x12x197x1xi64> loc(#loc377)
    %257 = "linalg.fill"(%0, %256) ({
    ^bb0(%arg1: i64 loc(unknown), %arg2: i64 loc(unknown)):
      "linalg.yield"(%arg1) : (i64) -> () loc(#loc211)
    }) {operand_segment_sizes = array<i32: 1, 1>} : (i64, tensor<1x12x197x1xi64>) -> tensor<1x12x197x1xi64> loc(#loc378)
    %258 = "tensor.empty"() : () -> tensor<1x12x197x1xf32> loc(#loc379)
    %259 = "linalg.fill"(%199, %258) ({
    ^bb0(%arg1: f32 loc(unknown), %arg2: f32 loc(unknown)):
      "linalg.yield"(%arg1) : (f32) -> () loc(#loc211)
    }) {operand_segment_sizes = array<i32: 1, 1>} : (f32, tensor<1x12x197x1xf32>) -> tensor<1x12x197x1xf32> loc(#loc380)
    %260:2 = "linalg.generic"(%255, %259, %257) ({
    ^bb0(%arg1: f32 loc("-":387:10), %arg2: f32 loc("-":387:20), %arg3: i64 loc("-":387:31)):
      %1260 = "linalg.index"() {dim = 3 : i64} : () -> index loc(#loc385)
      %1261 = "arith.index_cast"(%1260) : (index) -> i64 loc(#loc386)
      %1262 = "arith.maxf"(%arg1, %arg2) {fastmath = #arith.fastmath<none>} : (f32, f32) -> f32 loc(#loc387)
      %1263 = "arith.cmpf"(%arg1, %arg2) {predicate = 2 : i64} : (f32, f32) -> i1 loc(#loc388)
      %1264 = "arith.select"(%1263, %1261, %arg3) : (i1, i64, i64) -> i64 loc(#loc389)
      "linalg.yield"(%1262, %1264) : (f32, i64) -> () loc(#loc390)
    }) {indexing_maps = [#map11, #map16, #map16], iterator_types = [#linalg.iterator_type<parallel>, #linalg.iterator_type<parallel>, #linalg.iterator_type<parallel>, #linalg.iterator_type<reduction>], operand_segment_sizes = array<i32: 1, 2>} : (tensor<1x12x197x197xf32>, tensor<1x12x197x1xf32>, tensor<1x12x197x1xi64>) -> (tensor<1x12x197x1xf32>, tensor<1x12x197x1xi64>) loc(#loc381)
    %261 = "linalg.generic"(%255, %260#0, %254) ({
    ^bb0(%arg1: f32 loc("-":396:10), %arg2: f32 loc("-":396:20), %arg3: f32 loc("-":396:34)):
      %1260 = "arith.subf"(%arg1, %arg2) {fastmath = #arith.fastmath<none>} : (f32, f32) -> f32 loc(#loc395)
      "linalg.yield"(%1260) : (f32) -> () loc(#loc396)
    }) {indexing_maps = [#map14, #map17, #map11], iterator_types = [#linalg.iterator_type<parallel>, #linalg.iterator_type<parallel>, #linalg.iterator_type<parallel>, #linalg.iterator_type<parallel>], operand_segment_sizes = array<i32: 2, 1>} : (tensor<1x12x197x197xf32>, tensor<1x12x197x1xf32>, tensor<1x12x197x197xf32>) -> tensor<1x12x197x197xf32> loc(#loc391)
    %262 = "linalg.generic"(%261, %254) ({
    ^bb0(%arg1: f32 loc("-":401:10), %arg2: f32 loc("-":401:20)):
      %1260 = "math.exp"(%arg1) {fastmath = #arith.fastmath<none>} : (f32) -> f32 loc(#loc400)
      "linalg.yield"(%1260) : (f32) -> () loc(#loc401)
    }) {indexing_maps = [#map14, #map11], iterator_types = [#linalg.iterator_type<parallel>, #linalg.iterator_type<parallel>, #linalg.iterator_type<parallel>, #linalg.iterator_type<parallel>], operand_segment_sizes = array<i32: 1, 1>} : (tensor<1x12x197x197xf32>, tensor<1x12x197x197xf32>) -> tensor<1x12x197x197xf32> loc(#loc397)
    %263 = "linalg.fill"(%198, %258) ({
    ^bb0(%arg1: f32 loc(unknown), %arg2: f32 loc(unknown)):
      "linalg.yield"(%arg1) : (f32) -> () loc(#loc211)
    }) {operand_segment_sizes = array<i32: 1, 1>} : (f32, tensor<1x12x197x1xf32>) -> tensor<1x12x197x1xf32> loc(#loc402)
    %264 = "linalg.generic"(%262, %263) ({
    ^bb0(%arg1: f32 loc("-":407:10), %arg2: f32 loc("-":407:20)):
      %1260 = "arith.addf"(%arg1, %arg2) {fastmath = #arith.fastmath<none>} : (f32, f32) -> f32 loc(#loc406)
      "linalg.yield"(%1260) : (f32) -> () loc(#loc407)
    }) {indexing_maps = [#map11, #map16], iterator_types = [#linalg.iterator_type<parallel>, #linalg.iterator_type<parallel>, #linalg.iterator_type<parallel>, #linalg.iterator_type<reduction>], operand_segment_sizes = array<i32: 1, 1>} : (tensor<1x12x197x197xf32>, tensor<1x12x197x1xf32>) -> tensor<1x12x197x1xf32> loc(#loc403)
    %265 = "linalg.generic"(%262, %264, %254) ({
    ^bb0(%arg1: f32 loc("-":412:10), %arg2: f32 loc("-":412:20), %arg3: f32 loc("-":412:34)):
      %1260 = "arith.divf"(%arg1, %arg2) {fastmath = #arith.fastmath<none>} : (f32, f32) -> f32 loc(#loc412)
      "linalg.yield"(%1260) : (f32) -> () loc(#loc413)
    }) {indexing_maps = [#map14, #map17, #map11], iterator_types = [#linalg.iterator_type<parallel>, #linalg.iterator_type<parallel>, #linalg.iterator_type<parallel>, #linalg.iterator_type<parallel>], operand_segment_sizes = array<i32: 2, 1>} : (tensor<1x12x197x197xf32>, tensor<1x12x197x1xf32>, tensor<1x12x197x197xf32>) -> tensor<1x12x197x197xf32> loc(#loc408)
    %266 = "linalg.generic"(%265, %254) ({
    ^bb0(%arg1: f32 loc("-":417:10), %arg2: f32 loc("-":417:20)):
      "linalg.yield"(%arg1) : (f32) -> () loc(#loc417)
    }) {indexing_maps = [#map14, #map11], iterator_types = [#linalg.iterator_type<parallel>, #linalg.iterator_type<parallel>, #linalg.iterator_type<parallel>, #linalg.iterator_type<parallel>], operand_segment_sizes = array<i32: 1, 1>} : (tensor<1x12x197x197xf32>, tensor<1x12x197x197xf32>) -> tensor<1x12x197x197xf32> loc(#loc414)
    %267 = "linalg.generic"(%241, %234) ({
    ^bb0(%arg1: f32 loc("-":421:10), %arg2: f32 loc("-":421:20)):
      "linalg.yield"(%arg1) : (f32) -> () loc(#loc421)
    }) {indexing_maps = [#map14, #map11], iterator_types = [#linalg.iterator_type<parallel>, #linalg.iterator_type<parallel>, #linalg.iterator_type<parallel>, #linalg.iterator_type<parallel>], operand_segment_sizes = array<i32: 1, 1>} : (tensor<1x12x197x64xf32>, tensor<1x12x197x64xf32>) -> tensor<1x12x197x64xf32> loc(#loc418)
    %268 = "tensor.collapse_shape"(%266) {reassociation = [[0, 1], [2], [3]]} : (tensor<1x12x197x197xf32>) -> tensor<12x197x197xf32> loc(#loc422)
    %269 = "tensor.collapse_shape"(%267) {reassociation = [[0, 1], [2], [3]]} : (tensor<1x12x197x64xf32>) -> tensor<12x197x64xf32> loc(#loc423)
    %270 = "tensor.empty"() : () -> tensor<12x197x64xf32> loc(#loc424)
    %271 = "linalg.fill"(%198, %270) ({
    ^bb0(%arg1: f32 loc(unknown), %arg2: f32 loc(unknown)):
      "linalg.yield"(%arg1) : (f32) -> () loc(#loc211)
    }) {operand_segment_sizes = array<i32: 1, 1>} : (f32, tensor<12x197x64xf32>) -> tensor<12x197x64xf32> loc(#loc425)
    %272 = "linalg.batch_matmul"(%268, %269, %271) ({
    ^bb0(%arg1: f32 loc(unknown), %arg2: f32 loc(unknown), %arg3: f32 loc(unknown)):
      %1260 = "arith.mulf"(%arg1, %arg2) {fastmath = #arith.fastmath<none>} : (f32, f32) -> f32 loc(#loc211)
      %1261 = "arith.addf"(%arg3, %1260) {fastmath = #arith.fastmath<none>} : (f32, f32) -> f32 loc(#loc211)
      "linalg.yield"(%1261) : (f32) -> () loc(#loc211)
    }) {linalg.memoized_indexing_maps = [#map8, #map9, #map10], operand_segment_sizes = array<i32: 2, 1>} : (tensor<12x197x197xf32>, tensor<12x197x64xf32>, tensor<12x197x64xf32>) -> tensor<12x197x64xf32> loc(#loc426)
    %273 = "tensor.expand_shape"(%272) {reassociation = [[0, 1], [2], [3]]} : (tensor<12x197x64xf32>) -> tensor<1x12x197x64xf32> loc(#loc427)
    %274 = "tensor.empty"() : () -> tensor<1x197x12x64xf32> loc(#loc428)
    %275 = "linalg.generic"(%273, %274) ({
    ^bb0(%arg1: f32 loc("-":432:10), %arg2: f32 loc("-":432:20)):
      "linalg.yield"(%arg1) : (f32) -> () loc(#loc432)
    }) {indexing_maps = [#map11, #map12], iterator_types = [#linalg.iterator_type<parallel>, #linalg.iterator_type<parallel>, #linalg.iterator_type<parallel>, #linalg.iterator_type<parallel>], operand_segment_sizes = array<i32: 1, 1>} : (tensor<1x12x197x64xf32>, tensor<1x197x12x64xf32>) -> tensor<1x197x12x64xf32> loc(#loc429)
    %276 = "tensor.collapse_shape"(%275) {reassociation = [[0], [1], [2, 3]]} : (tensor<1x197x12x64xf32>) -> tensor<1x197x768xf32> loc(#loc433)
    %277 = "linalg.generic"(%187, %221) ({
    ^bb0(%arg1: f32 loc("-":437:10), %arg2: f32 loc("-":437:20)):
      "linalg.yield"(%arg1) : (f32) -> () loc(#loc437)
    }) {indexing_maps = [#map5, #map6], iterator_types = [#linalg.iterator_type<parallel>, #linalg.iterator_type<parallel>], operand_segment_sizes = array<i32: 1, 1>} : (tensor<768x768xf32>, tensor<768x768xf32>) -> tensor<768x768xf32> loc(#loc434)
    %278 = "linalg.generic"(%276, %209) ({
    ^bb0(%arg1: f32 loc("-":441:10), %arg2: f32 loc("-":441:20)):
      "linalg.yield"(%arg1) : (f32) -> () loc(#loc441)
    }) {indexing_maps = [#map3, #map], iterator_types = [#linalg.iterator_type<parallel>, #linalg.iterator_type<parallel>, #linalg.iterator_type<parallel>], operand_segment_sizes = array<i32: 1, 1>} : (tensor<1x197x768xf32>, tensor<1x197x768xf32>) -> tensor<1x197x768xf32> loc(#loc438)
    %279 = "linalg.generic"(%277, %224) ({
    ^bb0(%arg1: f32 loc("-":445:10), %arg2: f32 loc("-":445:20)):
      "linalg.yield"(%arg1) : (f32) -> () loc(#loc445)
    }) {indexing_maps = [#map7, #map], iterator_types = [#linalg.iterator_type<parallel>, #linalg.iterator_type<parallel>, #linalg.iterator_type<parallel>], operand_segment_sizes = array<i32: 1, 1>} : (tensor<768x768xf32>, tensor<1x768x768xf32>) -> tensor<1x768x768xf32> loc(#loc442)
    %280 = "linalg.batch_matmul"(%278, %279, %226) ({
    ^bb0(%arg1: f32 loc(unknown), %arg2: f32 loc(unknown), %arg3: f32 loc(unknown)):
      %1260 = "arith.mulf"(%arg1, %arg2) {fastmath = #arith.fastmath<none>} : (f32, f32) -> f32 loc(#loc211)
      %1261 = "arith.addf"(%arg3, %1260) {fastmath = #arith.fastmath<none>} : (f32, f32) -> f32 loc(#loc211)
      "linalg.yield"(%1261) : (f32) -> () loc(#loc211)
    }) {linalg.memoized_indexing_maps = [#map8, #map9, #map10], operand_segment_sizes = array<i32: 2, 1>} : (tensor<1x197x768xf32>, tensor<1x768x768xf32>, tensor<1x197x768xf32>) -> tensor<1x197x768xf32> loc(#loc446)
    %281 = "linalg.generic"(%280, %188, %209) ({
    ^bb0(%arg1: f32 loc("-":450:10), %arg2: f32 loc("-":450:20), %arg3: f32 loc("-":450:34)):
      %1260 = "arith.addf"(%arg1, %arg2) {fastmath = #arith.fastmath<none>} : (f32, f32) -> f32 loc(#loc451)
      "linalg.yield"(%1260) : (f32) -> () loc(#loc452)
    }) {indexing_maps = [#map3, #map4, #map], iterator_types = [#linalg.iterator_type<parallel>, #linalg.iterator_type<parallel>, #linalg.iterator_type<parallel>], operand_segment_sizes = array<i32: 2, 1>} : (tensor<1x197x768xf32>, tensor<768xf32>, tensor<1x197x768xf32>) -> tensor<1x197x768xf32> loc(#loc447)
    %282 = "linalg.generic"(%281, %arg0, %209) ({
    ^bb0(%arg1: f32 loc("-":455:10), %arg2: f32 loc("-":455:20), %arg3: f32 loc("-":455:34)):
      %1260 = "arith.addf"(%arg1, %arg2) {fastmath = #arith.fastmath<none>} : (f32, f32) -> f32 loc(#loc457)
      "linalg.yield"(%1260) : (f32) -> () loc(#loc458)
    }) {indexing_maps = [#map3, #map3, #map], iterator_types = [#linalg.iterator_type<parallel>, #linalg.iterator_type<parallel>, #linalg.iterator_type<parallel>], operand_segment_sizes = array<i32: 2, 1>} : (tensor<1x197x768xf32>, tensor<1x197x768xf32>, tensor<1x197x768xf32>) -> tensor<1x197x768xf32> loc(#loc453)
    %283 = "linalg.generic"(%282, %206) ({
    ^bb0(%arg1: f32 loc("-":460:10), %arg2: f32 loc("-":460:20)):
      %1260 = "arith.addf"(%arg1, %arg2) {fastmath = #arith.fastmath<none>} : (f32, f32) -> f32 loc(#loc462)
      "linalg.yield"(%1260) : (f32) -> () loc(#loc463)
    }) {indexing_maps = [#map, #map1], iterator_types = [#linalg.iterator_type<parallel>, #linalg.iterator_type<parallel>, #linalg.iterator_type<reduction>], operand_segment_sizes = array<i32: 1, 1>} : (tensor<1x197x768xf32>, tensor<1x197x1xf32>) -> tensor<1x197x1xf32> loc(#loc459)
    %284 = "linalg.generic"(%283, %205) ({
    ^bb0(%arg1: f32 loc("-":465:10), %arg2: f32 loc("-":465:20)):
      %1260 = "arith.divf"(%arg1, %204) {fastmath = #arith.fastmath<none>} : (f32, f32) -> f32 loc(#loc467)
      "linalg.yield"(%1260) : (f32) -> () loc(#loc468)
    }) {indexing_maps = [#map2, #map], iterator_types = [#linalg.iterator_type<parallel>, #linalg.iterator_type<parallel>, #linalg.iterator_type<parallel>], operand_segment_sizes = array<i32: 1, 1>} : (tensor<1x197x1xf32>, tensor<1x197x1xf32>) -> tensor<1x197x1xf32> loc(#loc464)
    %285 = "linalg.generic"(%284, %209) ({
    ^bb0(%arg1: f32 loc("-":470:10), %arg2: f32 loc("-":470:20)):
      "linalg.yield"(%arg1) : (f32) -> () loc(#loc472)
    }) {indexing_maps = [#map2, #map], iterator_types = [#linalg.iterator_type<parallel>, #linalg.iterator_type<parallel>, #linalg.iterator_type<parallel>], operand_segment_sizes = array<i32: 1, 1>} : (tensor<1x197x1xf32>, tensor<1x197x768xf32>) -> tensor<1x197x768xf32> loc(#loc469)
    %286 = "linalg.generic"(%282, %285, %209) ({
    ^bb0(%arg1: f32 loc("-":474:10), %arg2: f32 loc("-":474:20), %arg3: f32 loc("-":474:34)):
      %1260 = "arith.subf"(%arg1, %arg2) {fastmath = #arith.fastmath<none>} : (f32, f32) -> f32 loc(#loc477)
      "linalg.yield"(%1260) : (f32) -> () loc(#loc478)
    }) {indexing_maps = [#map3, #map3, #map], iterator_types = [#linalg.iterator_type<parallel>, #linalg.iterator_type<parallel>, #linalg.iterator_type<parallel>], operand_segment_sizes = array<i32: 2, 1>} : (tensor<1x197x768xf32>, tensor<1x197x768xf32>, tensor<1x197x768xf32>) -> tensor<1x197x768xf32> loc(#loc473)
    %287 = "linalg.generic"(%286, %286, %209) ({
    ^bb0(%arg1: f32 loc("-":479:10), %arg2: f32 loc("-":479:20), %arg3: f32 loc("-":479:34)):
      %1260 = "arith.mulf"(%arg1, %arg2) {fastmath = #arith.fastmath<none>} : (f32, f32) -> f32 loc(#loc483)
      "linalg.yield"(%1260) : (f32) -> () loc(#loc484)
    }) {indexing_maps = [#map3, #map3, #map], iterator_types = [#linalg.iterator_type<parallel>, #linalg.iterator_type<parallel>, #linalg.iterator_type<parallel>], operand_segment_sizes = array<i32: 2, 1>} : (tensor<1x197x768xf32>, tensor<1x197x768xf32>, tensor<1x197x768xf32>) -> tensor<1x197x768xf32> loc(#loc479)
    %288 = "linalg.generic"(%287, %206) ({
    ^bb0(%arg1: f32 loc("-":484:10), %arg2: f32 loc("-":484:20)):
      %1260 = "arith.addf"(%arg1, %arg2) {fastmath = #arith.fastmath<none>} : (f32, f32) -> f32 loc(#loc488)
      "linalg.yield"(%1260) : (f32) -> () loc(#loc489)
    }) {indexing_maps = [#map, #map1], iterator_types = [#linalg.iterator_type<parallel>, #linalg.iterator_type<parallel>, #linalg.iterator_type<reduction>], operand_segment_sizes = array<i32: 1, 1>} : (tensor<1x197x768xf32>, tensor<1x197x1xf32>) -> tensor<1x197x1xf32> loc(#loc485)
    %289 = "linalg.generic"(%288, %205) ({
    ^bb0(%arg1: f32 loc("-":489:10), %arg2: f32 loc("-":489:20)):
      %1260 = "arith.divf"(%arg1, %204) {fastmath = #arith.fastmath<none>} : (f32, f32) -> f32 loc(#loc493)
      "linalg.yield"(%1260) : (f32) -> () loc(#loc494)
    }) {indexing_maps = [#map2, #map], iterator_types = [#linalg.iterator_type<parallel>, #linalg.iterator_type<parallel>, #linalg.iterator_type<parallel>], operand_segment_sizes = array<i32: 1, 1>} : (tensor<1x197x1xf32>, tensor<1x197x1xf32>) -> tensor<1x197x1xf32> loc(#loc490)
    %290 = "linalg.generic"(%289, %205) ({
    ^bb0(%arg1: f32 loc("-":494:10), %arg2: f32 loc("-":494:20)):
      %1260 = "arith.truncf"(%203) : (f64) -> f32 loc(#loc498)
      %1261 = "arith.addf"(%arg1, %1260) {fastmath = #arith.fastmath<none>} : (f32, f32) -> f32 loc(#loc499)
      "linalg.yield"(%1261) : (f32) -> () loc(#loc500)
    }) {indexing_maps = [#map2, #map], iterator_types = [#linalg.iterator_type<parallel>, #linalg.iterator_type<parallel>, #linalg.iterator_type<parallel>], operand_segment_sizes = array<i32: 1, 1>} : (tensor<1x197x1xf32>, tensor<1x197x1xf32>) -> tensor<1x197x1xf32> loc(#loc495)
    %291 = "linalg.generic"(%290, %205) ({
    ^bb0(%arg1: f32 loc("-":500:10), %arg2: f32 loc("-":500:20)):
      %1260 = "math.rsqrt"(%arg1) {fastmath = #arith.fastmath<none>} : (f32) -> f32 loc(#loc504)
      "linalg.yield"(%1260) : (f32) -> () loc(#loc505)
    }) {indexing_maps = [#map2, #map], iterator_types = [#linalg.iterator_type<parallel>, #linalg.iterator_type<parallel>, #linalg.iterator_type<parallel>], operand_segment_sizes = array<i32: 1, 1>} : (tensor<1x197x1xf32>, tensor<1x197x1xf32>) -> tensor<1x197x1xf32> loc(#loc501)
    %292 = "linalg.generic"(%291, %209) ({
    ^bb0(%arg1: f32 loc("-":505:10), %arg2: f32 loc("-":505:20)):
      "linalg.yield"(%arg1) : (f32) -> () loc(#loc509)
    }) {indexing_maps = [#map2, #map], iterator_types = [#linalg.iterator_type<parallel>, #linalg.iterator_type<parallel>, #linalg.iterator_type<parallel>], operand_segment_sizes = array<i32: 1, 1>} : (tensor<1x197x1xf32>, tensor<1x197x768xf32>) -> tensor<1x197x768xf32> loc(#loc506)
    %293 = "linalg.generic"(%286, %292, %209) ({
    ^bb0(%arg1: f32 loc("-":509:10), %arg2: f32 loc("-":509:20), %arg3: f32 loc("-":509:34)):
      %1260 = "arith.mulf"(%arg1, %arg2) {fastmath = #arith.fastmath<none>} : (f32, f32) -> f32 loc(#loc514)
      "linalg.yield"(%1260) : (f32) -> () loc(#loc515)
    }) {indexing_maps = [#map3, #map3, #map], iterator_types = [#linalg.iterator_type<parallel>, #linalg.iterator_type<parallel>, #linalg.iterator_type<parallel>], operand_segment_sizes = array<i32: 2, 1>} : (tensor<1x197x768xf32>, tensor<1x197x768xf32>, tensor<1x197x768xf32>) -> tensor<1x197x768xf32> loc(#loc510)
    %294 = "linalg.generic"(%293, %185, %209) ({
    ^bb0(%arg1: f32 loc("-":514:10), %arg2: f32 loc("-":514:20), %arg3: f32 loc("-":514:34)):
      %1260 = "arith.mulf"(%arg1, %arg2) {fastmath = #arith.fastmath<none>} : (f32, f32) -> f32 loc(#loc520)
      "linalg.yield"(%1260) : (f32) -> () loc(#loc521)
    }) {indexing_maps = [#map3, #map4, #map], iterator_types = [#linalg.iterator_type<parallel>, #linalg.iterator_type<parallel>, #linalg.iterator_type<parallel>], operand_segment_sizes = array<i32: 2, 1>} : (tensor<1x197x768xf32>, tensor<768xf32>, tensor<1x197x768xf32>) -> tensor<1x197x768xf32> loc(#loc516)
    %295 = "linalg.generic"(%294, %186, %209) ({
    ^bb0(%arg1: f32 loc("-":519:10), %arg2: f32 loc("-":519:20), %arg3: f32 loc("-":519:34)):
      %1260 = "arith.addf"(%arg1, %arg2) {fastmath = #arith.fastmath<none>} : (f32, f32) -> f32 loc(#loc526)
      "linalg.yield"(%1260) : (f32) -> () loc(#loc527)
    }) {indexing_maps = [#map3, #map4, #map], iterator_types = [#linalg.iterator_type<parallel>, #linalg.iterator_type<parallel>, #linalg.iterator_type<parallel>], operand_segment_sizes = array<i32: 2, 1>} : (tensor<1x197x768xf32>, tensor<768xf32>, tensor<1x197x768xf32>) -> tensor<1x197x768xf32> loc(#loc522)
    %296 = "tensor.empty"() : () -> tensor<768x3072xf32> loc(#loc528)
    %297 = "linalg.generic"(%183, %296) ({
    ^bb0(%arg1: f32 loc("-":525:10), %arg2: f32 loc("-":525:20)):
      "linalg.yield"(%arg1) : (f32) -> () loc(#loc532)
    }) {indexing_maps = [#map5, #map6], iterator_types = [#linalg.iterator_type<parallel>, #linalg.iterator_type<parallel>], operand_segment_sizes = array<i32: 1, 1>} : (tensor<3072x768xf32>, tensor<768x3072xf32>) -> tensor<768x3072xf32> loc(#loc529)
    %298 = "linalg.generic"(%295, %209) ({
    ^bb0(%arg1: f32 loc("-":529:10), %arg2: f32 loc("-":529:20)):
      "linalg.yield"(%arg1) : (f32) -> () loc(#loc536)
    }) {indexing_maps = [#map3, #map], iterator_types = [#linalg.iterator_type<parallel>, #linalg.iterator_type<parallel>, #linalg.iterator_type<parallel>], operand_segment_sizes = array<i32: 1, 1>} : (tensor<1x197x768xf32>, tensor<1x197x768xf32>) -> tensor<1x197x768xf32> loc(#loc533)
    %299 = "tensor.empty"() : () -> tensor<1x768x3072xf32> loc(#loc537)
    %300 = "linalg.generic"(%297, %299) ({
    ^bb0(%arg1: f32 loc("-":534:10), %arg2: f32 loc("-":534:20)):
      "linalg.yield"(%arg1) : (f32) -> () loc(#loc541)
    }) {indexing_maps = [#map7, #map], iterator_types = [#linalg.iterator_type<parallel>, #linalg.iterator_type<parallel>, #linalg.iterator_type<parallel>], operand_segment_sizes = array<i32: 1, 1>} : (tensor<768x3072xf32>, tensor<1x768x3072xf32>) -> tensor<1x768x3072xf32> loc(#loc538)
    %301 = "tensor.empty"() : () -> tensor<1x197x3072xf32> loc(#loc542)
    %302 = "linalg.fill"(%198, %301) ({
    ^bb0(%arg1: f32 loc(unknown), %arg2: f32 loc(unknown)):
      "linalg.yield"(%arg1) : (f32) -> () loc(#loc211)
    }) {operand_segment_sizes = array<i32: 1, 1>} : (f32, tensor<1x197x3072xf32>) -> tensor<1x197x3072xf32> loc(#loc543)
    %303 = "linalg.batch_matmul"(%298, %300, %302) ({
    ^bb0(%arg1: f32 loc(unknown), %arg2: f32 loc(unknown), %arg3: f32 loc(unknown)):
      %1260 = "arith.mulf"(%arg1, %arg2) {fastmath = #arith.fastmath<none>} : (f32, f32) -> f32 loc(#loc211)
      %1261 = "arith.addf"(%arg3, %1260) {fastmath = #arith.fastmath<none>} : (f32, f32) -> f32 loc(#loc211)
      "linalg.yield"(%1261) : (f32) -> () loc(#loc211)
    }) {linalg.memoized_indexing_maps = [#map8, #map9, #map10], operand_segment_sizes = array<i32: 2, 1>} : (tensor<1x197x768xf32>, tensor<1x768x3072xf32>, tensor<1x197x3072xf32>) -> tensor<1x197x3072xf32> loc(#loc544)
    %304 = "linalg.generic"(%303, %184, %301) ({
    ^bb0(%arg1: f32 loc("-":541:10), %arg2: f32 loc("-":541:20), %arg3: f32 loc("-":541:34)):
      %1260 = "arith.addf"(%arg1, %arg2) {fastmath = #arith.fastmath<none>} : (f32, f32) -> f32 loc(#loc549)
      "linalg.yield"(%1260) : (f32) -> () loc(#loc550)
    }) {indexing_maps = [#map3, #map4, #map], iterator_types = [#linalg.iterator_type<parallel>, #linalg.iterator_type<parallel>, #linalg.iterator_type<parallel>], operand_segment_sizes = array<i32: 2, 1>} : (tensor<1x197x3072xf32>, tensor<3072xf32>, tensor<1x197x3072xf32>) -> tensor<1x197x3072xf32> loc(#loc545)
    %305 = "linalg.generic"(%304, %301) ({
    ^bb0(%arg1: f32 loc("-":546:10), %arg2: f32 loc("-":546:20)):
      %1260 = "arith.divf"(%arg1, %201) {fastmath = #arith.fastmath<none>} : (f32, f32) -> f32 loc(#loc554)
      %1261 = "math.erf"(%1260) {fastmath = #arith.fastmath<none>} : (f32) -> f32 loc(#loc555)
      %1262 = "arith.addf"(%1261, %200) {fastmath = #arith.fastmath<none>} : (f32, f32) -> f32 loc(#loc556)
      %1263 = "arith.mulf"(%1262, %202) {fastmath = #arith.fastmath<none>} : (f32, f32) -> f32 loc(#loc557)
      %1264 = "arith.mulf"(%arg1, %1263) {fastmath = #arith.fastmath<none>} : (f32, f32) -> f32 loc(#loc558)
      "linalg.yield"(%1264) : (f32) -> () loc(#loc559)
    }) {indexing_maps = [#map3, #map], iterator_types = [#linalg.iterator_type<parallel>, #linalg.iterator_type<parallel>, #linalg.iterator_type<parallel>], operand_segment_sizes = array<i32: 1, 1>} : (tensor<1x197x3072xf32>, tensor<1x197x3072xf32>) -> tensor<1x197x3072xf32> loc(#loc551)
    %306 = "tensor.empty"() : () -> tensor<3072x768xf32> loc(#loc560)
    %307 = "linalg.generic"(%181, %306) ({
    ^bb0(%arg1: f32 loc("-":556:10), %arg2: f32 loc("-":556:20)):
      "linalg.yield"(%arg1) : (f32) -> () loc(#loc564)
    }) {indexing_maps = [#map5, #map6], iterator_types = [#linalg.iterator_type<parallel>, #linalg.iterator_type<parallel>], operand_segment_sizes = array<i32: 1, 1>} : (tensor<768x3072xf32>, tensor<3072x768xf32>) -> tensor<3072x768xf32> loc(#loc561)
    %308 = "linalg.generic"(%305, %301) ({
    ^bb0(%arg1: f32 loc("-":560:10), %arg2: f32 loc("-":560:20)):
      "linalg.yield"(%arg1) : (f32) -> () loc(#loc568)
    }) {indexing_maps = [#map3, #map], iterator_types = [#linalg.iterator_type<parallel>, #linalg.iterator_type<parallel>, #linalg.iterator_type<parallel>], operand_segment_sizes = array<i32: 1, 1>} : (tensor<1x197x3072xf32>, tensor<1x197x3072xf32>) -> tensor<1x197x3072xf32> loc(#loc565)
    %309 = "tensor.empty"() : () -> tensor<1x3072x768xf32> loc(#loc569)
    %310 = "linalg.generic"(%307, %309) ({
    ^bb0(%arg1: f32 loc("-":565:10), %arg2: f32 loc("-":565:20)):
      "linalg.yield"(%arg1) : (f32) -> () loc(#loc573)
    }) {indexing_maps = [#map7, #map], iterator_types = [#linalg.iterator_type<parallel>, #linalg.iterator_type<parallel>, #linalg.iterator_type<parallel>], operand_segment_sizes = array<i32: 1, 1>} : (tensor<3072x768xf32>, tensor<1x3072x768xf32>) -> tensor<1x3072x768xf32> loc(#loc570)
    %311 = "linalg.batch_matmul"(%308, %310, %226) ({
    ^bb0(%arg1: f32 loc(unknown), %arg2: f32 loc(unknown), %arg3: f32 loc(unknown)):
      %1260 = "arith.mulf"(%arg1, %arg2) {fastmath = #arith.fastmath<none>} : (f32, f32) -> f32 loc(#loc211)
      %1261 = "arith.addf"(%arg3, %1260) {fastmath = #arith.fastmath<none>} : (f32, f32) -> f32 loc(#loc211)
      "linalg.yield"(%1261) : (f32) -> () loc(#loc211)
    }) {linalg.memoized_indexing_maps = [#map8, #map9, #map10], operand_segment_sizes = array<i32: 2, 1>} : (tensor<1x197x3072xf32>, tensor<1x3072x768xf32>, tensor<1x197x768xf32>) -> tensor<1x197x768xf32> loc(#loc574)
    %312 = "linalg.generic"(%311, %182, %209) ({
    ^bb0(%arg1: f32 loc("-":570:10), %arg2: f32 loc("-":570:20), %arg3: f32 loc("-":570:34)):
      %1260 = "arith.addf"(%arg1, %arg2) {fastmath = #arith.fastmath<none>} : (f32, f32) -> f32 loc(#loc579)
      "linalg.yield"(%1260) : (f32) -> () loc(#loc580)
    }) {indexing_maps = [#map3, #map4, #map], iterator_types = [#linalg.iterator_type<parallel>, #linalg.iterator_type<parallel>, #linalg.iterator_type<parallel>], operand_segment_sizes = array<i32: 2, 1>} : (tensor<1x197x768xf32>, tensor<768xf32>, tensor<1x197x768xf32>) -> tensor<1x197x768xf32> loc(#loc575)
    %313 = "linalg.generic"(%312, %282, %209) ({
    ^bb0(%arg1: f32 loc("-":575:10), %arg2: f32 loc("-":575:20), %arg3: f32 loc("-":575:34)):
      %1260 = "arith.addf"(%arg1, %arg2) {fastmath = #arith.fastmath<none>} : (f32, f32) -> f32 loc(#loc585)
      "linalg.yield"(%1260) : (f32) -> () loc(#loc586)
    }) {indexing_maps = [#map3, #map3, #map], iterator_types = [#linalg.iterator_type<parallel>, #linalg.iterator_type<parallel>, #linalg.iterator_type<parallel>], operand_segment_sizes = array<i32: 2, 1>} : (tensor<1x197x768xf32>, tensor<1x197x768xf32>, tensor<1x197x768xf32>) -> tensor<1x197x768xf32> loc(#loc581)
    %314 = "linalg.generic"(%313, %206) ({
    ^bb0(%arg1: f32 loc("-":580:10), %arg2: f32 loc("-":580:20)):
      %1260 = "arith.addf"(%arg1, %arg2) {fastmath = #arith.fastmath<none>} : (f32, f32) -> f32 loc(#loc590)
      "linalg.yield"(%1260) : (f32) -> () loc(#loc591)
    }) {indexing_maps = [#map, #map1], iterator_types = [#linalg.iterator_type<parallel>, #linalg.iterator_type<parallel>, #linalg.iterator_type<reduction>], operand_segment_sizes = array<i32: 1, 1>} : (tensor<1x197x768xf32>, tensor<1x197x1xf32>) -> tensor<1x197x1xf32> loc(#loc587)
    %315 = "linalg.generic"(%314, %205) ({
    ^bb0(%arg1: f32 loc("-":585:10), %arg2: f32 loc("-":585:20)):
      %1260 = "arith.divf"(%arg1, %204) {fastmath = #arith.fastmath<none>} : (f32, f32) -> f32 loc(#loc595)
      "linalg.yield"(%1260) : (f32) -> () loc(#loc596)
    }) {indexing_maps = [#map2, #map], iterator_types = [#linalg.iterator_type<parallel>, #linalg.iterator_type<parallel>, #linalg.iterator_type<parallel>], operand_segment_sizes = array<i32: 1, 1>} : (tensor<1x197x1xf32>, tensor<1x197x1xf32>) -> tensor<1x197x1xf32> loc(#loc592)
    %316 = "linalg.generic"(%315, %209) ({
    ^bb0(%arg1: f32 loc("-":590:10), %arg2: f32 loc("-":590:20)):
      "linalg.yield"(%arg1) : (f32) -> () loc(#loc600)
    }) {indexing_maps = [#map2, #map], iterator_types = [#linalg.iterator_type<parallel>, #linalg.iterator_type<parallel>, #linalg.iterator_type<parallel>], operand_segment_sizes = array<i32: 1, 1>} : (tensor<1x197x1xf32>, tensor<1x197x768xf32>) -> tensor<1x197x768xf32> loc(#loc597)
    %317 = "linalg.generic"(%313, %316, %209) ({
    ^bb0(%arg1: f32 loc("-":594:10), %arg2: f32 loc("-":594:20), %arg3: f32 loc("-":594:34)):
      %1260 = "arith.subf"(%arg1, %arg2) {fastmath = #arith.fastmath<none>} : (f32, f32) -> f32 loc(#loc605)
      "linalg.yield"(%1260) : (f32) -> () loc(#loc606)
    }) {indexing_maps = [#map3, #map3, #map], iterator_types = [#linalg.iterator_type<parallel>, #linalg.iterator_type<parallel>, #linalg.iterator_type<parallel>], operand_segment_sizes = array<i32: 2, 1>} : (tensor<1x197x768xf32>, tensor<1x197x768xf32>, tensor<1x197x768xf32>) -> tensor<1x197x768xf32> loc(#loc601)
    %318 = "linalg.generic"(%317, %317, %209) ({
    ^bb0(%arg1: f32 loc("-":599:10), %arg2: f32 loc("-":599:20), %arg3: f32 loc("-":599:34)):
      %1260 = "arith.mulf"(%arg1, %arg2) {fastmath = #arith.fastmath<none>} : (f32, f32) -> f32 loc(#loc611)
      "linalg.yield"(%1260) : (f32) -> () loc(#loc612)
    }) {indexing_maps = [#map3, #map3, #map], iterator_types = [#linalg.iterator_type<parallel>, #linalg.iterator_type<parallel>, #linalg.iterator_type<parallel>], operand_segment_sizes = array<i32: 2, 1>} : (tensor<1x197x768xf32>, tensor<1x197x768xf32>, tensor<1x197x768xf32>) -> tensor<1x197x768xf32> loc(#loc607)
    %319 = "linalg.generic"(%318, %206) ({
    ^bb0(%arg1: f32 loc("-":604:10), %arg2: f32 loc("-":604:20)):
      %1260 = "arith.addf"(%arg1, %arg2) {fastmath = #arith.fastmath<none>} : (f32, f32) -> f32 loc(#loc616)
      "linalg.yield"(%1260) : (f32) -> () loc(#loc617)
    }) {indexing_maps = [#map, #map1], iterator_types = [#linalg.iterator_type<parallel>, #linalg.iterator_type<parallel>, #linalg.iterator_type<reduction>], operand_segment_sizes = array<i32: 1, 1>} : (tensor<1x197x768xf32>, tensor<1x197x1xf32>) -> tensor<1x197x1xf32> loc(#loc613)
    %320 = "linalg.generic"(%319, %205) ({
    ^bb0(%arg1: f32 loc("-":609:10), %arg2: f32 loc("-":609:20)):
      %1260 = "arith.divf"(%arg1, %204) {fastmath = #arith.fastmath<none>} : (f32, f32) -> f32 loc(#loc621)
      "linalg.yield"(%1260) : (f32) -> () loc(#loc622)
    }) {indexing_maps = [#map2, #map], iterator_types = [#linalg.iterator_type<parallel>, #linalg.iterator_type<parallel>, #linalg.iterator_type<parallel>], operand_segment_sizes = array<i32: 1, 1>} : (tensor<1x197x1xf32>, tensor<1x197x1xf32>) -> tensor<1x197x1xf32> loc(#loc618)
    %321 = "linalg.generic"(%320, %205) ({
    ^bb0(%arg1: f32 loc("-":614:10), %arg2: f32 loc("-":614:20)):
      %1260 = "arith.truncf"(%203) : (f64) -> f32 loc(#loc626)
      %1261 = "arith.addf"(%arg1, %1260) {fastmath = #arith.fastmath<none>} : (f32, f32) -> f32 loc(#loc627)
      "linalg.yield"(%1261) : (f32) -> () loc(#loc628)
    }) {indexing_maps = [#map2, #map], iterator_types = [#linalg.iterator_type<parallel>, #linalg.iterator_type<parallel>, #linalg.iterator_type<parallel>], operand_segment_sizes = array<i32: 1, 1>} : (tensor<1x197x1xf32>, tensor<1x197x1xf32>) -> tensor<1x197x1xf32> loc(#loc623)
    %322 = "linalg.generic"(%321, %205) ({
    ^bb0(%arg1: f32 loc("-":620:10), %arg2: f32 loc("-":620:20)):
      %1260 = "math.rsqrt"(%arg1) {fastmath = #arith.fastmath<none>} : (f32) -> f32 loc(#loc632)
      "linalg.yield"(%1260) : (f32) -> () loc(#loc633)
    }) {indexing_maps = [#map2, #map], iterator_types = [#linalg.iterator_type<parallel>, #linalg.iterator_type<parallel>, #linalg.iterator_type<parallel>], operand_segment_sizes = array<i32: 1, 1>} : (tensor<1x197x1xf32>, tensor<1x197x1xf32>) -> tensor<1x197x1xf32> loc(#loc629)
    %323 = "linalg.generic"(%322, %209) ({
    ^bb0(%arg1: f32 loc("-":625:10), %arg2: f32 loc("-":625:20)):
      "linalg.yield"(%arg1) : (f32) -> () loc(#loc637)
    }) {indexing_maps = [#map2, #map], iterator_types = [#linalg.iterator_type<parallel>, #linalg.iterator_type<parallel>, #linalg.iterator_type<parallel>], operand_segment_sizes = array<i32: 1, 1>} : (tensor<1x197x1xf32>, tensor<1x197x768xf32>) -> tensor<1x197x768xf32> loc(#loc634)
    %324 = "linalg.generic"(%317, %323, %209) ({
    ^bb0(%arg1: f32 loc("-":629:10), %arg2: f32 loc("-":629:20), %arg3: f32 loc("-":629:34)):
      %1260 = "arith.mulf"(%arg1, %arg2) {fastmath = #arith.fastmath<none>} : (f32, f32) -> f32 loc(#loc642)
      "linalg.yield"(%1260) : (f32) -> () loc(#loc643)
    }) {indexing_maps = [#map3, #map3, #map], iterator_types = [#linalg.iterator_type<parallel>, #linalg.iterator_type<parallel>, #linalg.iterator_type<parallel>], operand_segment_sizes = array<i32: 2, 1>} : (tensor<1x197x768xf32>, tensor<1x197x768xf32>, tensor<1x197x768xf32>) -> tensor<1x197x768xf32> loc(#loc638)
    %325 = "linalg.generic"(%324, %179, %209) ({
    ^bb0(%arg1: f32 loc("-":634:10), %arg2: f32 loc("-":634:20), %arg3: f32 loc("-":634:34)):
      %1260 = "arith.mulf"(%arg1, %arg2) {fastmath = #arith.fastmath<none>} : (f32, f32) -> f32 loc(#loc648)
      "linalg.yield"(%1260) : (f32) -> () loc(#loc649)
    }) {indexing_maps = [#map3, #map4, #map], iterator_types = [#linalg.iterator_type<parallel>, #linalg.iterator_type<parallel>, #linalg.iterator_type<parallel>], operand_segment_sizes = array<i32: 2, 1>} : (tensor<1x197x768xf32>, tensor<768xf32>, tensor<1x197x768xf32>) -> tensor<1x197x768xf32> loc(#loc644)
    %326 = "linalg.generic"(%325, %180, %209) ({
    ^bb0(%arg1: f32 loc("-":639:10), %arg2: f32 loc("-":639:20), %arg3: f32 loc("-":639:34)):
      %1260 = "arith.addf"(%arg1, %arg2) {fastmath = #arith.fastmath<none>} : (f32, f32) -> f32 loc(#loc654)
      "linalg.yield"(%1260) : (f32) -> () loc(#loc655)
    }) {indexing_maps = [#map3, #map4, #map], iterator_types = [#linalg.iterator_type<parallel>, #linalg.iterator_type<parallel>, #linalg.iterator_type<parallel>], operand_segment_sizes = array<i32: 2, 1>} : (tensor<1x197x768xf32>, tensor<768xf32>, tensor<1x197x768xf32>) -> tensor<1x197x768xf32> loc(#loc650)
    %327 = "linalg.generic"(%177, %221) ({
    ^bb0(%arg1: f32 loc("-":644:10), %arg2: f32 loc("-":644:20)):
      "linalg.yield"(%arg1) : (f32) -> () loc(#loc659)
    }) {indexing_maps = [#map5, #map6], iterator_types = [#linalg.iterator_type<parallel>, #linalg.iterator_type<parallel>], operand_segment_sizes = array<i32: 1, 1>} : (tensor<768x768xf32>, tensor<768x768xf32>) -> tensor<768x768xf32> loc(#loc656)
    %328 = "linalg.generic"(%326, %209) ({
    ^bb0(%arg1: f32 loc("-":648:10), %arg2: f32 loc("-":648:20)):
      "linalg.yield"(%arg1) : (f32) -> () loc(#loc663)
    }) {indexing_maps = [#map3, #map], iterator_types = [#linalg.iterator_type<parallel>, #linalg.iterator_type<parallel>, #linalg.iterator_type<parallel>], operand_segment_sizes = array<i32: 1, 1>} : (tensor<1x197x768xf32>, tensor<1x197x768xf32>) -> tensor<1x197x768xf32> loc(#loc660)
    %329 = "linalg.generic"(%327, %224) ({
    ^bb0(%arg1: f32 loc("-":652:10), %arg2: f32 loc("-":652:20)):
      "linalg.yield"(%arg1) : (f32) -> () loc(#loc667)
    }) {indexing_maps = [#map7, #map], iterator_types = [#linalg.iterator_type<parallel>, #linalg.iterator_type<parallel>, #linalg.iterator_type<parallel>], operand_segment_sizes = array<i32: 1, 1>} : (tensor<768x768xf32>, tensor<1x768x768xf32>) -> tensor<1x768x768xf32> loc(#loc664)
    %330 = "linalg.batch_matmul"(%328, %329, %226) ({
    ^bb0(%arg1: f32 loc(unknown), %arg2: f32 loc(unknown), %arg3: f32 loc(unknown)):
      %1260 = "arith.mulf"(%arg1, %arg2) {fastmath = #arith.fastmath<none>} : (f32, f32) -> f32 loc(#loc211)
      %1261 = "arith.addf"(%arg3, %1260) {fastmath = #arith.fastmath<none>} : (f32, f32) -> f32 loc(#loc211)
      "linalg.yield"(%1261) : (f32) -> () loc(#loc211)
    }) {linalg.memoized_indexing_maps = [#map8, #map9, #map10], operand_segment_sizes = array<i32: 2, 1>} : (tensor<1x197x768xf32>, tensor<1x768x768xf32>, tensor<1x197x768xf32>) -> tensor<1x197x768xf32> loc(#loc668)
    %331 = "linalg.generic"(%330, %178, %209) ({
    ^bb0(%arg1: f32 loc("-":657:10), %arg2: f32 loc("-":657:20), %arg3: f32 loc("-":657:34)):
      %1260 = "arith.addf"(%arg1, %arg2) {fastmath = #arith.fastmath<none>} : (f32, f32) -> f32 loc(#loc673)
      "linalg.yield"(%1260) : (f32) -> () loc(#loc674)
    }) {indexing_maps = [#map3, #map4, #map], iterator_types = [#linalg.iterator_type<parallel>, #linalg.iterator_type<parallel>, #linalg.iterator_type<parallel>], operand_segment_sizes = array<i32: 2, 1>} : (tensor<1x197x768xf32>, tensor<768xf32>, tensor<1x197x768xf32>) -> tensor<1x197x768xf32> loc(#loc669)
    %332 = "linalg.generic"(%175, %221) ({
    ^bb0(%arg1: f32 loc("-":662:10), %arg2: f32 loc("-":662:20)):
      "linalg.yield"(%arg1) : (f32) -> () loc(#loc678)
    }) {indexing_maps = [#map5, #map6], iterator_types = [#linalg.iterator_type<parallel>, #linalg.iterator_type<parallel>], operand_segment_sizes = array<i32: 1, 1>} : (tensor<768x768xf32>, tensor<768x768xf32>) -> tensor<768x768xf32> loc(#loc675)
    %333 = "linalg.generic"(%332, %224) ({
    ^bb0(%arg1: f32 loc("-":666:10), %arg2: f32 loc("-":666:20)):
      "linalg.yield"(%arg1) : (f32) -> () loc(#loc682)
    }) {indexing_maps = [#map7, #map], iterator_types = [#linalg.iterator_type<parallel>, #linalg.iterator_type<parallel>, #linalg.iterator_type<parallel>], operand_segment_sizes = array<i32: 1, 1>} : (tensor<768x768xf32>, tensor<1x768x768xf32>) -> tensor<1x768x768xf32> loc(#loc679)
    %334 = "linalg.batch_matmul"(%328, %333, %226) ({
    ^bb0(%arg1: f32 loc(unknown), %arg2: f32 loc(unknown), %arg3: f32 loc(unknown)):
      %1260 = "arith.mulf"(%arg1, %arg2) {fastmath = #arith.fastmath<none>} : (f32, f32) -> f32 loc(#loc211)
      %1261 = "arith.addf"(%arg3, %1260) {fastmath = #arith.fastmath<none>} : (f32, f32) -> f32 loc(#loc211)
      "linalg.yield"(%1261) : (f32) -> () loc(#loc211)
    }) {linalg.memoized_indexing_maps = [#map8, #map9, #map10], operand_segment_sizes = array<i32: 2, 1>} : (tensor<1x197x768xf32>, tensor<1x768x768xf32>, tensor<1x197x768xf32>) -> tensor<1x197x768xf32> loc(#loc683)
    %335 = "linalg.generic"(%334, %176, %209) ({
    ^bb0(%arg1: f32 loc("-":671:10), %arg2: f32 loc("-":671:20), %arg3: f32 loc("-":671:34)):
      %1260 = "arith.addf"(%arg1, %arg2) {fastmath = #arith.fastmath<none>} : (f32, f32) -> f32 loc(#loc688)
      "linalg.yield"(%1260) : (f32) -> () loc(#loc689)
    }) {indexing_maps = [#map3, #map4, #map], iterator_types = [#linalg.iterator_type<parallel>, #linalg.iterator_type<parallel>, #linalg.iterator_type<parallel>], operand_segment_sizes = array<i32: 2, 1>} : (tensor<1x197x768xf32>, tensor<768xf32>, tensor<1x197x768xf32>) -> tensor<1x197x768xf32> loc(#loc684)
    %336 = "tensor.expand_shape"(%335) {reassociation = [[0], [1], [2, 3]]} : (tensor<1x197x768xf32>) -> tensor<1x197x12x64xf32> loc(#loc690)
    %337 = "linalg.generic"(%336, %234) ({
    ^bb0(%arg1: f32 loc("-":677:10), %arg2: f32 loc("-":677:20)):
      "linalg.yield"(%arg1) : (f32) -> () loc(#loc694)
    }) {indexing_maps = [#map11, #map12], iterator_types = [#linalg.iterator_type<parallel>, #linalg.iterator_type<parallel>, #linalg.iterator_type<parallel>, #linalg.iterator_type<parallel>], operand_segment_sizes = array<i32: 1, 1>} : (tensor<1x197x12x64xf32>, tensor<1x12x197x64xf32>) -> tensor<1x12x197x64xf32> loc(#loc691)
    %338 = "linalg.generic"(%173, %221) ({
    ^bb0(%arg1: f32 loc("-":681:10), %arg2: f32 loc("-":681:20)):
      "linalg.yield"(%arg1) : (f32) -> () loc(#loc698)
    }) {indexing_maps = [#map5, #map6], iterator_types = [#linalg.iterator_type<parallel>, #linalg.iterator_type<parallel>], operand_segment_sizes = array<i32: 1, 1>} : (tensor<768x768xf32>, tensor<768x768xf32>) -> tensor<768x768xf32> loc(#loc695)
    %339 = "linalg.generic"(%338, %224) ({
    ^bb0(%arg1: f32 loc("-":685:10), %arg2: f32 loc("-":685:20)):
      "linalg.yield"(%arg1) : (f32) -> () loc(#loc702)
    }) {indexing_maps = [#map7, #map], iterator_types = [#linalg.iterator_type<parallel>, #linalg.iterator_type<parallel>, #linalg.iterator_type<parallel>], operand_segment_sizes = array<i32: 1, 1>} : (tensor<768x768xf32>, tensor<1x768x768xf32>) -> tensor<1x768x768xf32> loc(#loc699)
    %340 = "linalg.batch_matmul"(%328, %339, %226) ({
    ^bb0(%arg1: f32 loc(unknown), %arg2: f32 loc(unknown), %arg3: f32 loc(unknown)):
      %1260 = "arith.mulf"(%arg1, %arg2) {fastmath = #arith.fastmath<none>} : (f32, f32) -> f32 loc(#loc211)
      %1261 = "arith.addf"(%arg3, %1260) {fastmath = #arith.fastmath<none>} : (f32, f32) -> f32 loc(#loc211)
      "linalg.yield"(%1261) : (f32) -> () loc(#loc211)
    }) {linalg.memoized_indexing_maps = [#map8, #map9, #map10], operand_segment_sizes = array<i32: 2, 1>} : (tensor<1x197x768xf32>, tensor<1x768x768xf32>, tensor<1x197x768xf32>) -> tensor<1x197x768xf32> loc(#loc703)
    %341 = "linalg.generic"(%340, %174, %209) ({
    ^bb0(%arg1: f32 loc("-":690:10), %arg2: f32 loc("-":690:20), %arg3: f32 loc("-":690:34)):
      %1260 = "arith.addf"(%arg1, %arg2) {fastmath = #arith.fastmath<none>} : (f32, f32) -> f32 loc(#loc708)
      "linalg.yield"(%1260) : (f32) -> () loc(#loc709)
    }) {indexing_maps = [#map3, #map4, #map], iterator_types = [#linalg.iterator_type<parallel>, #linalg.iterator_type<parallel>, #linalg.iterator_type<parallel>], operand_segment_sizes = array<i32: 2, 1>} : (tensor<1x197x768xf32>, tensor<768xf32>, tensor<1x197x768xf32>) -> tensor<1x197x768xf32> loc(#loc704)
    %342 = "tensor.expand_shape"(%341) {reassociation = [[0], [1], [2, 3]]} : (tensor<1x197x768xf32>) -> tensor<1x197x12x64xf32> loc(#loc710)
    %343 = "linalg.generic"(%342, %234) ({
    ^bb0(%arg1: f32 loc("-":696:10), %arg2: f32 loc("-":696:20)):
      "linalg.yield"(%arg1) : (f32) -> () loc(#loc714)
    }) {indexing_maps = [#map11, #map12], iterator_types = [#linalg.iterator_type<parallel>, #linalg.iterator_type<parallel>, #linalg.iterator_type<parallel>, #linalg.iterator_type<parallel>], operand_segment_sizes = array<i32: 1, 1>} : (tensor<1x197x12x64xf32>, tensor<1x12x197x64xf32>) -> tensor<1x12x197x64xf32> loc(#loc711)
    %344 = "tensor.expand_shape"(%331) {reassociation = [[0], [1], [2, 3]]} : (tensor<1x197x768xf32>) -> tensor<1x197x12x64xf32> loc(#loc715)
    %345 = "linalg.generic"(%344, %234) ({
    ^bb0(%arg1: f32 loc("-":701:10), %arg2: f32 loc("-":701:20)):
      "linalg.yield"(%arg1) : (f32) -> () loc(#loc719)
    }) {indexing_maps = [#map11, #map12], iterator_types = [#linalg.iterator_type<parallel>, #linalg.iterator_type<parallel>, #linalg.iterator_type<parallel>, #linalg.iterator_type<parallel>], operand_segment_sizes = array<i32: 1, 1>} : (tensor<1x197x12x64xf32>, tensor<1x12x197x64xf32>) -> tensor<1x12x197x64xf32> loc(#loc716)
    %346 = "linalg.generic"(%337, %244) ({
    ^bb0(%arg1: f32 loc("-":705:10), %arg2: f32 loc("-":705:20)):
      "linalg.yield"(%arg1) : (f32) -> () loc(#loc723)
    }) {indexing_maps = [#map11, #map13], iterator_types = [#linalg.iterator_type<parallel>, #linalg.iterator_type<parallel>, #linalg.iterator_type<parallel>, #linalg.iterator_type<parallel>], operand_segment_sizes = array<i32: 1, 1>} : (tensor<1x12x197x64xf32>, tensor<1x12x64x197xf32>) -> tensor<1x12x64x197xf32> loc(#loc720)
    %347 = "linalg.generic"(%345, %234) ({
    ^bb0(%arg1: f32 loc("-":709:10), %arg2: f32 loc("-":709:20)):
      "linalg.yield"(%arg1) : (f32) -> () loc(#loc727)
    }) {indexing_maps = [#map14, #map11], iterator_types = [#linalg.iterator_type<parallel>, #linalg.iterator_type<parallel>, #linalg.iterator_type<parallel>, #linalg.iterator_type<parallel>], operand_segment_sizes = array<i32: 1, 1>} : (tensor<1x12x197x64xf32>, tensor<1x12x197x64xf32>) -> tensor<1x12x197x64xf32> loc(#loc724)
    %348 = "linalg.generic"(%346, %244) ({
    ^bb0(%arg1: f32 loc("-":713:10), %arg2: f32 loc("-":713:20)):
      "linalg.yield"(%arg1) : (f32) -> () loc(#loc731)
    }) {indexing_maps = [#map14, #map11], iterator_types = [#linalg.iterator_type<parallel>, #linalg.iterator_type<parallel>, #linalg.iterator_type<parallel>, #linalg.iterator_type<parallel>], operand_segment_sizes = array<i32: 1, 1>} : (tensor<1x12x64x197xf32>, tensor<1x12x64x197xf32>) -> tensor<1x12x64x197xf32> loc(#loc728)
    %349 = "tensor.collapse_shape"(%347) {reassociation = [[0, 1], [2], [3]]} : (tensor<1x12x197x64xf32>) -> tensor<12x197x64xf32> loc(#loc732)
    %350 = "tensor.collapse_shape"(%348) {reassociation = [[0, 1], [2], [3]]} : (tensor<1x12x64x197xf32>) -> tensor<12x64x197xf32> loc(#loc733)
    %351 = "linalg.batch_matmul"(%349, %350, %251) ({
    ^bb0(%arg1: f32 loc(unknown), %arg2: f32 loc(unknown), %arg3: f32 loc(unknown)):
      %1260 = "arith.mulf"(%arg1, %arg2) {fastmath = #arith.fastmath<none>} : (f32, f32) -> f32 loc(#loc211)
      %1261 = "arith.addf"(%arg3, %1260) {fastmath = #arith.fastmath<none>} : (f32, f32) -> f32 loc(#loc211)
      "linalg.yield"(%1261) : (f32) -> () loc(#loc211)
    }) {linalg.memoized_indexing_maps = [#map8, #map9, #map10], operand_segment_sizes = array<i32: 2, 1>} : (tensor<12x197x64xf32>, tensor<12x64x197xf32>, tensor<12x197x197xf32>) -> tensor<12x197x197xf32> loc(#loc734)
    %352 = "tensor.expand_shape"(%351) {reassociation = [[0, 1], [2], [3]]} : (tensor<12x197x197xf32>) -> tensor<1x12x197x197xf32> loc(#loc735)
    %353 = "linalg.generic"(%352, %189, %254) ({
    ^bb0(%arg1: f32 loc("-":721:10), %arg2: f64 loc("-":721:20), %arg3: f32 loc("-":721:34)):
      %1260 = "arith.truncf"(%arg2) : (f64) -> f32 loc(#loc740)
      %1261 = "arith.divf"(%arg1, %1260) {fastmath = #arith.fastmath<none>} : (f32, f32) -> f32 loc(#loc741)
      "linalg.yield"(%1261) : (f32) -> () loc(#loc742)
    }) {indexing_maps = [#map14, #map15, #map11], iterator_types = [#linalg.iterator_type<parallel>, #linalg.iterator_type<parallel>, #linalg.iterator_type<parallel>, #linalg.iterator_type<parallel>], operand_segment_sizes = array<i32: 2, 1>} : (tensor<1x12x197x197xf32>, tensor<f64>, tensor<1x12x197x197xf32>) -> tensor<1x12x197x197xf32> loc(#loc736)
    %354:2 = "linalg.generic"(%353, %259, %257) ({
    ^bb0(%arg1: f32 loc("-":727:10), %arg2: f32 loc("-":727:20), %arg3: i64 loc("-":727:31)):
      %1260 = "linalg.index"() {dim = 3 : i64} : () -> index loc(#loc747)
      %1261 = "arith.index_cast"(%1260) : (index) -> i64 loc(#loc748)
      %1262 = "arith.maxf"(%arg1, %arg2) {fastmath = #arith.fastmath<none>} : (f32, f32) -> f32 loc(#loc749)
      %1263 = "arith.cmpf"(%arg1, %arg2) {predicate = 2 : i64} : (f32, f32) -> i1 loc(#loc750)
      %1264 = "arith.select"(%1263, %1261, %arg3) : (i1, i64, i64) -> i64 loc(#loc751)
      "linalg.yield"(%1262, %1264) : (f32, i64) -> () loc(#loc752)
    }) {indexing_maps = [#map11, #map16, #map16], iterator_types = [#linalg.iterator_type<parallel>, #linalg.iterator_type<parallel>, #linalg.iterator_type<parallel>, #linalg.iterator_type<reduction>], operand_segment_sizes = array<i32: 1, 2>} : (tensor<1x12x197x197xf32>, tensor<1x12x197x1xf32>, tensor<1x12x197x1xi64>) -> (tensor<1x12x197x1xf32>, tensor<1x12x197x1xi64>) loc(#loc743)
    %355 = "linalg.generic"(%353, %354#0, %254) ({
    ^bb0(%arg1: f32 loc("-":736:10), %arg2: f32 loc("-":736:20), %arg3: f32 loc("-":736:34)):
      %1260 = "arith.subf"(%arg1, %arg2) {fastmath = #arith.fastmath<none>} : (f32, f32) -> f32 loc(#loc757)
      "linalg.yield"(%1260) : (f32) -> () loc(#loc758)
    }) {indexing_maps = [#map14, #map17, #map11], iterator_types = [#linalg.iterator_type<parallel>, #linalg.iterator_type<parallel>, #linalg.iterator_type<parallel>, #linalg.iterator_type<parallel>], operand_segment_sizes = array<i32: 2, 1>} : (tensor<1x12x197x197xf32>, tensor<1x12x197x1xf32>, tensor<1x12x197x197xf32>) -> tensor<1x12x197x197xf32> loc(#loc753)
    %356 = "linalg.generic"(%355, %254) ({
    ^bb0(%arg1: f32 loc("-":741:10), %arg2: f32 loc("-":741:20)):
      %1260 = "math.exp"(%arg1) {fastmath = #arith.fastmath<none>} : (f32) -> f32 loc(#loc762)
      "linalg.yield"(%1260) : (f32) -> () loc(#loc763)
    }) {indexing_maps = [#map14, #map11], iterator_types = [#linalg.iterator_type<parallel>, #linalg.iterator_type<parallel>, #linalg.iterator_type<parallel>, #linalg.iterator_type<parallel>], operand_segment_sizes = array<i32: 1, 1>} : (tensor<1x12x197x197xf32>, tensor<1x12x197x197xf32>) -> tensor<1x12x197x197xf32> loc(#loc759)
    %357 = "linalg.generic"(%356, %263) ({
    ^bb0(%arg1: f32 loc("-":746:10), %arg2: f32 loc("-":746:20)):
      %1260 = "arith.addf"(%arg1, %arg2) {fastmath = #arith.fastmath<none>} : (f32, f32) -> f32 loc(#loc767)
      "linalg.yield"(%1260) : (f32) -> () loc(#loc768)
    }) {indexing_maps = [#map11, #map16], iterator_types = [#linalg.iterator_type<parallel>, #linalg.iterator_type<parallel>, #linalg.iterator_type<parallel>, #linalg.iterator_type<reduction>], operand_segment_sizes = array<i32: 1, 1>} : (tensor<1x12x197x197xf32>, tensor<1x12x197x1xf32>) -> tensor<1x12x197x1xf32> loc(#loc764)
    %358 = "linalg.generic"(%356, %357, %254) ({
    ^bb0(%arg1: f32 loc("-":751:10), %arg2: f32 loc("-":751:20), %arg3: f32 loc("-":751:34)):
      %1260 = "arith.divf"(%arg1, %arg2) {fastmath = #arith.fastmath<none>} : (f32, f32) -> f32 loc(#loc773)
      "linalg.yield"(%1260) : (f32) -> () loc(#loc774)
    }) {indexing_maps = [#map14, #map17, #map11], iterator_types = [#linalg.iterator_type<parallel>, #linalg.iterator_type<parallel>, #linalg.iterator_type<parallel>, #linalg.iterator_type<parallel>], operand_segment_sizes = array<i32: 2, 1>} : (tensor<1x12x197x197xf32>, tensor<1x12x197x1xf32>, tensor<1x12x197x197xf32>) -> tensor<1x12x197x197xf32> loc(#loc769)
    %359 = "linalg.generic"(%358, %254) ({
    ^bb0(%arg1: f32 loc("-":756:10), %arg2: f32 loc("-":756:20)):
      "linalg.yield"(%arg1) : (f32) -> () loc(#loc778)
    }) {indexing_maps = [#map14, #map11], iterator_types = [#linalg.iterator_type<parallel>, #linalg.iterator_type<parallel>, #linalg.iterator_type<parallel>, #linalg.iterator_type<parallel>], operand_segment_sizes = array<i32: 1, 1>} : (tensor<1x12x197x197xf32>, tensor<1x12x197x197xf32>) -> tensor<1x12x197x197xf32> loc(#loc775)
    %360 = "linalg.generic"(%343, %234) ({
    ^bb0(%arg1: f32 loc("-":760:10), %arg2: f32 loc("-":760:20)):
      "linalg.yield"(%arg1) : (f32) -> () loc(#loc782)
    }) {indexing_maps = [#map14, #map11], iterator_types = [#linalg.iterator_type<parallel>, #linalg.iterator_type<parallel>, #linalg.iterator_type<parallel>, #linalg.iterator_type<parallel>], operand_segment_sizes = array<i32: 1, 1>} : (tensor<1x12x197x64xf32>, tensor<1x12x197x64xf32>) -> tensor<1x12x197x64xf32> loc(#loc779)
    %361 = "tensor.collapse_shape"(%359) {reassociation = [[0, 1], [2], [3]]} : (tensor<1x12x197x197xf32>) -> tensor<12x197x197xf32> loc(#loc783)
    %362 = "tensor.collapse_shape"(%360) {reassociation = [[0, 1], [2], [3]]} : (tensor<1x12x197x64xf32>) -> tensor<12x197x64xf32> loc(#loc784)
    %363 = "linalg.batch_matmul"(%361, %362, %271) ({
    ^bb0(%arg1: f32 loc(unknown), %arg2: f32 loc(unknown), %arg3: f32 loc(unknown)):
      %1260 = "arith.mulf"(%arg1, %arg2) {fastmath = #arith.fastmath<none>} : (f32, f32) -> f32 loc(#loc211)
      %1261 = "arith.addf"(%arg3, %1260) {fastmath = #arith.fastmath<none>} : (f32, f32) -> f32 loc(#loc211)
      "linalg.yield"(%1261) : (f32) -> () loc(#loc211)
    }) {linalg.memoized_indexing_maps = [#map8, #map9, #map10], operand_segment_sizes = array<i32: 2, 1>} : (tensor<12x197x197xf32>, tensor<12x197x64xf32>, tensor<12x197x64xf32>) -> tensor<12x197x64xf32> loc(#loc785)
    %364 = "tensor.expand_shape"(%363) {reassociation = [[0, 1], [2], [3]]} : (tensor<12x197x64xf32>) -> tensor<1x12x197x64xf32> loc(#loc786)
    %365 = "linalg.generic"(%364, %274) ({
    ^bb0(%arg1: f32 loc("-":768:10), %arg2: f32 loc("-":768:20)):
      "linalg.yield"(%arg1) : (f32) -> () loc(#loc790)
    }) {indexing_maps = [#map11, #map12], iterator_types = [#linalg.iterator_type<parallel>, #linalg.iterator_type<parallel>, #linalg.iterator_type<parallel>, #linalg.iterator_type<parallel>], operand_segment_sizes = array<i32: 1, 1>} : (tensor<1x12x197x64xf32>, tensor<1x197x12x64xf32>) -> tensor<1x197x12x64xf32> loc(#loc787)
    %366 = "tensor.collapse_shape"(%365) {reassociation = [[0], [1], [2, 3]]} : (tensor<1x197x12x64xf32>) -> tensor<1x197x768xf32> loc(#loc791)
    %367 = "linalg.generic"(%171, %221) ({
    ^bb0(%arg1: f32 loc("-":773:10), %arg2: f32 loc("-":773:20)):
      "linalg.yield"(%arg1) : (f32) -> () loc(#loc795)
    }) {indexing_maps = [#map5, #map6], iterator_types = [#linalg.iterator_type<parallel>, #linalg.iterator_type<parallel>], operand_segment_sizes = array<i32: 1, 1>} : (tensor<768x768xf32>, tensor<768x768xf32>) -> tensor<768x768xf32> loc(#loc792)
    %368 = "linalg.generic"(%366, %209) ({
    ^bb0(%arg1: f32 loc("-":777:10), %arg2: f32 loc("-":777:20)):
      "linalg.yield"(%arg1) : (f32) -> () loc(#loc799)
    }) {indexing_maps = [#map3, #map], iterator_types = [#linalg.iterator_type<parallel>, #linalg.iterator_type<parallel>, #linalg.iterator_type<parallel>], operand_segment_sizes = array<i32: 1, 1>} : (tensor<1x197x768xf32>, tensor<1x197x768xf32>) -> tensor<1x197x768xf32> loc(#loc796)
    %369 = "linalg.generic"(%367, %224) ({
    ^bb0(%arg1: f32 loc("-":781:10), %arg2: f32 loc("-":781:20)):
      "linalg.yield"(%arg1) : (f32) -> () loc(#loc803)
    }) {indexing_maps = [#map7, #map], iterator_types = [#linalg.iterator_type<parallel>, #linalg.iterator_type<parallel>, #linalg.iterator_type<parallel>], operand_segment_sizes = array<i32: 1, 1>} : (tensor<768x768xf32>, tensor<1x768x768xf32>) -> tensor<1x768x768xf32> loc(#loc800)
    %370 = "linalg.batch_matmul"(%368, %369, %226) ({
    ^bb0(%arg1: f32 loc(unknown), %arg2: f32 loc(unknown), %arg3: f32 loc(unknown)):
      %1260 = "arith.mulf"(%arg1, %arg2) {fastmath = #arith.fastmath<none>} : (f32, f32) -> f32 loc(#loc211)
      %1261 = "arith.addf"(%arg3, %1260) {fastmath = #arith.fastmath<none>} : (f32, f32) -> f32 loc(#loc211)
      "linalg.yield"(%1261) : (f32) -> () loc(#loc211)
    }) {linalg.memoized_indexing_maps = [#map8, #map9, #map10], operand_segment_sizes = array<i32: 2, 1>} : (tensor<1x197x768xf32>, tensor<1x768x768xf32>, tensor<1x197x768xf32>) -> tensor<1x197x768xf32> loc(#loc804)
    %371 = "linalg.generic"(%370, %172, %209) ({
    ^bb0(%arg1: f32 loc("-":786:10), %arg2: f32 loc("-":786:20), %arg3: f32 loc("-":786:34)):
      %1260 = "arith.addf"(%arg1, %arg2) {fastmath = #arith.fastmath<none>} : (f32, f32) -> f32 loc(#loc809)
      "linalg.yield"(%1260) : (f32) -> () loc(#loc810)
    }) {indexing_maps = [#map3, #map4, #map], iterator_types = [#linalg.iterator_type<parallel>, #linalg.iterator_type<parallel>, #linalg.iterator_type<parallel>], operand_segment_sizes = array<i32: 2, 1>} : (tensor<1x197x768xf32>, tensor<768xf32>, tensor<1x197x768xf32>) -> tensor<1x197x768xf32> loc(#loc805)
    %372 = "linalg.generic"(%371, %313, %209) ({
    ^bb0(%arg1: f32 loc("-":791:10), %arg2: f32 loc("-":791:20), %arg3: f32 loc("-":791:34)):
      %1260 = "arith.addf"(%arg1, %arg2) {fastmath = #arith.fastmath<none>} : (f32, f32) -> f32 loc(#loc815)
      "linalg.yield"(%1260) : (f32) -> () loc(#loc816)
    }) {indexing_maps = [#map3, #map3, #map], iterator_types = [#linalg.iterator_type<parallel>, #linalg.iterator_type<parallel>, #linalg.iterator_type<parallel>], operand_segment_sizes = array<i32: 2, 1>} : (tensor<1x197x768xf32>, tensor<1x197x768xf32>, tensor<1x197x768xf32>) -> tensor<1x197x768xf32> loc(#loc811)
    %373 = "linalg.generic"(%372, %206) ({
    ^bb0(%arg1: f32 loc("-":796:10), %arg2: f32 loc("-":796:20)):
      %1260 = "arith.addf"(%arg1, %arg2) {fastmath = #arith.fastmath<none>} : (f32, f32) -> f32 loc(#loc820)
      "linalg.yield"(%1260) : (f32) -> () loc(#loc821)
    }) {indexing_maps = [#map, #map1], iterator_types = [#linalg.iterator_type<parallel>, #linalg.iterator_type<parallel>, #linalg.iterator_type<reduction>], operand_segment_sizes = array<i32: 1, 1>} : (tensor<1x197x768xf32>, tensor<1x197x1xf32>) -> tensor<1x197x1xf32> loc(#loc817)
    %374 = "linalg.generic"(%373, %205) ({
    ^bb0(%arg1: f32 loc("-":801:10), %arg2: f32 loc("-":801:20)):
      %1260 = "arith.divf"(%arg1, %204) {fastmath = #arith.fastmath<none>} : (f32, f32) -> f32 loc(#loc825)
      "linalg.yield"(%1260) : (f32) -> () loc(#loc826)
    }) {indexing_maps = [#map2, #map], iterator_types = [#linalg.iterator_type<parallel>, #linalg.iterator_type<parallel>, #linalg.iterator_type<parallel>], operand_segment_sizes = array<i32: 1, 1>} : (tensor<1x197x1xf32>, tensor<1x197x1xf32>) -> tensor<1x197x1xf32> loc(#loc822)
    %375 = "linalg.generic"(%374, %209) ({
    ^bb0(%arg1: f32 loc("-":806:10), %arg2: f32 loc("-":806:20)):
      "linalg.yield"(%arg1) : (f32) -> () loc(#loc830)
    }) {indexing_maps = [#map2, #map], iterator_types = [#linalg.iterator_type<parallel>, #linalg.iterator_type<parallel>, #linalg.iterator_type<parallel>], operand_segment_sizes = array<i32: 1, 1>} : (tensor<1x197x1xf32>, tensor<1x197x768xf32>) -> tensor<1x197x768xf32> loc(#loc827)
    %376 = "linalg.generic"(%372, %375, %209) ({
    ^bb0(%arg1: f32 loc("-":810:10), %arg2: f32 loc("-":810:20), %arg3: f32 loc("-":810:34)):
      %1260 = "arith.subf"(%arg1, %arg2) {fastmath = #arith.fastmath<none>} : (f32, f32) -> f32 loc(#loc835)
      "linalg.yield"(%1260) : (f32) -> () loc(#loc836)
    }) {indexing_maps = [#map3, #map3, #map], iterator_types = [#linalg.iterator_type<parallel>, #linalg.iterator_type<parallel>, #linalg.iterator_type<parallel>], operand_segment_sizes = array<i32: 2, 1>} : (tensor<1x197x768xf32>, tensor<1x197x768xf32>, tensor<1x197x768xf32>) -> tensor<1x197x768xf32> loc(#loc831)
    %377 = "linalg.generic"(%376, %376, %209) ({
    ^bb0(%arg1: f32 loc("-":815:10), %arg2: f32 loc("-":815:20), %arg3: f32 loc("-":815:34)):
      %1260 = "arith.mulf"(%arg1, %arg2) {fastmath = #arith.fastmath<none>} : (f32, f32) -> f32 loc(#loc841)
      "linalg.yield"(%1260) : (f32) -> () loc(#loc842)
    }) {indexing_maps = [#map3, #map3, #map], iterator_types = [#linalg.iterator_type<parallel>, #linalg.iterator_type<parallel>, #linalg.iterator_type<parallel>], operand_segment_sizes = array<i32: 2, 1>} : (tensor<1x197x768xf32>, tensor<1x197x768xf32>, tensor<1x197x768xf32>) -> tensor<1x197x768xf32> loc(#loc837)
    %378 = "linalg.generic"(%377, %206) ({
    ^bb0(%arg1: f32 loc("-":820:10), %arg2: f32 loc("-":820:20)):
      %1260 = "arith.addf"(%arg1, %arg2) {fastmath = #arith.fastmath<none>} : (f32, f32) -> f32 loc(#loc846)
      "linalg.yield"(%1260) : (f32) -> () loc(#loc847)
    }) {indexing_maps = [#map, #map1], iterator_types = [#linalg.iterator_type<parallel>, #linalg.iterator_type<parallel>, #linalg.iterator_type<reduction>], operand_segment_sizes = array<i32: 1, 1>} : (tensor<1x197x768xf32>, tensor<1x197x1xf32>) -> tensor<1x197x1xf32> loc(#loc843)
    %379 = "linalg.generic"(%378, %205) ({
    ^bb0(%arg1: f32 loc("-":825:10), %arg2: f32 loc("-":825:20)):
      %1260 = "arith.divf"(%arg1, %204) {fastmath = #arith.fastmath<none>} : (f32, f32) -> f32 loc(#loc851)
      "linalg.yield"(%1260) : (f32) -> () loc(#loc852)
    }) {indexing_maps = [#map2, #map], iterator_types = [#linalg.iterator_type<parallel>, #linalg.iterator_type<parallel>, #linalg.iterator_type<parallel>], operand_segment_sizes = array<i32: 1, 1>} : (tensor<1x197x1xf32>, tensor<1x197x1xf32>) -> tensor<1x197x1xf32> loc(#loc848)
    %380 = "linalg.generic"(%379, %205) ({
    ^bb0(%arg1: f32 loc("-":830:10), %arg2: f32 loc("-":830:20)):
      %1260 = "arith.truncf"(%203) : (f64) -> f32 loc(#loc856)
      %1261 = "arith.addf"(%arg1, %1260) {fastmath = #arith.fastmath<none>} : (f32, f32) -> f32 loc(#loc857)
      "linalg.yield"(%1261) : (f32) -> () loc(#loc858)
    }) {indexing_maps = [#map2, #map], iterator_types = [#linalg.iterator_type<parallel>, #linalg.iterator_type<parallel>, #linalg.iterator_type<parallel>], operand_segment_sizes = array<i32: 1, 1>} : (tensor<1x197x1xf32>, tensor<1x197x1xf32>) -> tensor<1x197x1xf32> loc(#loc853)
    %381 = "linalg.generic"(%380, %205) ({
    ^bb0(%arg1: f32 loc("-":836:10), %arg2: f32 loc("-":836:20)):
      %1260 = "math.rsqrt"(%arg1) {fastmath = #arith.fastmath<none>} : (f32) -> f32 loc(#loc862)
      "linalg.yield"(%1260) : (f32) -> () loc(#loc863)
    }) {indexing_maps = [#map2, #map], iterator_types = [#linalg.iterator_type<parallel>, #linalg.iterator_type<parallel>, #linalg.iterator_type<parallel>], operand_segment_sizes = array<i32: 1, 1>} : (tensor<1x197x1xf32>, tensor<1x197x1xf32>) -> tensor<1x197x1xf32> loc(#loc859)
    %382 = "linalg.generic"(%381, %209) ({
    ^bb0(%arg1: f32 loc("-":841:10), %arg2: f32 loc("-":841:20)):
      "linalg.yield"(%arg1) : (f32) -> () loc(#loc867)
    }) {indexing_maps = [#map2, #map], iterator_types = [#linalg.iterator_type<parallel>, #linalg.iterator_type<parallel>, #linalg.iterator_type<parallel>], operand_segment_sizes = array<i32: 1, 1>} : (tensor<1x197x1xf32>, tensor<1x197x768xf32>) -> tensor<1x197x768xf32> loc(#loc864)
    %383 = "linalg.generic"(%376, %382, %209) ({
    ^bb0(%arg1: f32 loc("-":845:10), %arg2: f32 loc("-":845:20), %arg3: f32 loc("-":845:34)):
      %1260 = "arith.mulf"(%arg1, %arg2) {fastmath = #arith.fastmath<none>} : (f32, f32) -> f32 loc(#loc872)
      "linalg.yield"(%1260) : (f32) -> () loc(#loc873)
    }) {indexing_maps = [#map3, #map3, #map], iterator_types = [#linalg.iterator_type<parallel>, #linalg.iterator_type<parallel>, #linalg.iterator_type<parallel>], operand_segment_sizes = array<i32: 2, 1>} : (tensor<1x197x768xf32>, tensor<1x197x768xf32>, tensor<1x197x768xf32>) -> tensor<1x197x768xf32> loc(#loc868)
    %384 = "linalg.generic"(%383, %169, %209) ({
    ^bb0(%arg1: f32 loc("-":850:10), %arg2: f32 loc("-":850:20), %arg3: f32 loc("-":850:34)):
      %1260 = "arith.mulf"(%arg1, %arg2) {fastmath = #arith.fastmath<none>} : (f32, f32) -> f32 loc(#loc878)
      "linalg.yield"(%1260) : (f32) -> () loc(#loc879)
    }) {indexing_maps = [#map3, #map4, #map], iterator_types = [#linalg.iterator_type<parallel>, #linalg.iterator_type<parallel>, #linalg.iterator_type<parallel>], operand_segment_sizes = array<i32: 2, 1>} : (tensor<1x197x768xf32>, tensor<768xf32>, tensor<1x197x768xf32>) -> tensor<1x197x768xf32> loc(#loc874)
    %385 = "linalg.generic"(%384, %170, %209) ({
    ^bb0(%arg1: f32 loc("-":855:10), %arg2: f32 loc("-":855:20), %arg3: f32 loc("-":855:34)):
      %1260 = "arith.addf"(%arg1, %arg2) {fastmath = #arith.fastmath<none>} : (f32, f32) -> f32 loc(#loc884)
      "linalg.yield"(%1260) : (f32) -> () loc(#loc885)
    }) {indexing_maps = [#map3, #map4, #map], iterator_types = [#linalg.iterator_type<parallel>, #linalg.iterator_type<parallel>, #linalg.iterator_type<parallel>], operand_segment_sizes = array<i32: 2, 1>} : (tensor<1x197x768xf32>, tensor<768xf32>, tensor<1x197x768xf32>) -> tensor<1x197x768xf32> loc(#loc880)
    %386 = "linalg.generic"(%167, %296) ({
    ^bb0(%arg1: f32 loc("-":860:10), %arg2: f32 loc("-":860:20)):
      "linalg.yield"(%arg1) : (f32) -> () loc(#loc889)
    }) {indexing_maps = [#map5, #map6], iterator_types = [#linalg.iterator_type<parallel>, #linalg.iterator_type<parallel>], operand_segment_sizes = array<i32: 1, 1>} : (tensor<3072x768xf32>, tensor<768x3072xf32>) -> tensor<768x3072xf32> loc(#loc886)
    %387 = "linalg.generic"(%385, %209) ({
…
#loc1338 = loc("-":1284:12)
#loc1341 = loc("-":1286:7)
#loc1342 = loc("-":1288:12)
#loc1346 = loc("-":1290:14)
#loc1347 = loc("-":1291:7)
#loc1348 = loc("-":1293:12)
#loc1352 = loc("-":1295:14)
#loc1353 = loc("-":1296:7)
#loc1354 = loc("-":1298:12)
#loc1358 = loc("-":1300:14)
#loc1359 = loc("-":1301:7)
#loc1360 = loc("-":1303:12)
#loc1363 = loc("-":1305:7)
#loc1364 = loc("-":1307:12)
#loc1367 = loc("-":1309:7)
#loc1368 = loc("-":1311:12)
#loc1371 = loc("-":1313:7)
#loc1372 = loc("-":1315:12)
#loc1373 = loc("-":1316:12)
#loc1377 = loc("-":1318:14)
#loc1378 = loc("-":1319:7)
#loc1379 = loc("-":1321:12)
#loc1382 = loc("-":1323:7)
#loc1383 = loc("-":1325:12)
#loc1386 = loc("-":1327:7)
#loc1387 = loc("-":1329:12)
#loc1388 = loc("-":1330:12)
#loc1392 = loc("-":1332:14)
#loc1393 = loc("-":1333:7)
#loc1394 = loc("-":1335:21)
#loc1395 = loc("-":1336:12)
#loc1398 = loc("-":1338:7)
#loc1399 = loc("-":1340:12)
#loc1402 = loc("-":1342:7)
#loc1403 = loc("-":1344:12)
#loc1406 = loc("-":1346:7)
#loc1407 = loc("-":1348:12)
#loc1408 = loc("-":1349:12)
#loc1412 = loc("-":1351:14)
#loc1413 = loc("-":1352:7)
#loc1414 = loc("-":1354:21)
#loc1415 = loc("-":1355:12)
#loc1418 = loc("-":1357:7)
#loc1419 = loc("-":1359:21)
#loc1420 = loc("-":1360:12)
#loc1423 = loc("-":1362:7)
#loc1424 = loc("-":1364:12)
#loc1427 = loc("-":1366:7)
#loc1428 = loc("-":1368:12)
#loc1431 = loc("-":1370:7)
#loc1432 = loc("-":1372:12)
#loc1435 = loc("-":1374:7)
#loc1436 = loc("-":1376:22)
#loc1437 = loc("-":1377:22)
#loc1438 = loc("-":1378:12)
#loc1439 = loc("-":1379:21)
#loc1440 = loc("-":1380:12)
#loc1444 = loc("-":1382:14)
#loc1445 = loc("-":1383:14)
#loc1446 = loc("-":1384:7)
#loc1447 = loc("-":1386:14)
#loc1451 = loc("-":1388:14)
#loc1452 = loc("-":1389:14)
#loc1453 = loc("-":1390:14)
#loc1454 = loc("-":1391:14)
#loc1455 = loc("-":1392:14)
#loc1456 = loc("-":1393:7)
#loc1457 = loc("-":1395:12)
#loc1461 = loc("-":1397:14)
#loc1462 = loc("-":1398:7)
#loc1463 = loc("-":1400:12)
#loc1466 = loc("-":1402:14)
#loc1467 = loc("-":1403:7)
#loc1468 = loc("-":1405:12)
#loc1471 = loc("-":1407:14)
#loc1472 = loc("-":1408:7)
#loc1473 = loc("-":1410:12)
#loc1477 = loc("-":1412:14)
#loc1478 = loc("-":1413:7)
#loc1479 = loc("-":1415:12)
#loc1482 = loc("-":1417:7)
#loc1483 = loc("-":1419:12)
#loc1486 = loc("-":1421:7)
#loc1487 = loc("-":1423:22)
#loc1488 = loc("-":1424:22)
#loc1489 = loc("-":1425:12)
#loc1490 = loc("-":1426:21)
#loc1491 = loc("-":1427:12)
#loc1494 = loc("-":1429:7)
#loc1495 = loc("-":1431:22)
#loc1496 = loc("-":1432:12)
#loc1499 = loc("-":1434:7)
#loc1500 = loc("-":1436:12)
#loc1503 = loc("-":1438:7)
#loc1504 = loc("-":1440:12)
#loc1507 = loc("-":1442:7)
#loc1508 = loc("-":1444:12)
#loc1509 = loc("-":1445:12)
#loc1513 = loc("-":1447:14)
#loc1514 = loc("-":1448:7)
#loc1515 = loc("-":1450:12)
#loc1519 = loc("-":1452:14)
#loc1520 = loc("-":1453:7)
#loc1521 = loc("-":1455:12)
#loc1524 = loc("-":1457:14)
#loc1525 = loc("-":1458:7)
#loc1526 = loc("-":1460:12)
#loc1529 = loc("-":1462:14)
#loc1530 = loc("-":1463:7)
#loc1531 = loc("-":1465:12)
#loc1534 = loc("-":1467:7)
#loc1535 = loc("-":1469:12)
#loc1539 = loc("-":1471:14)
#loc1540 = loc("-":1472:7)
#loc1541 = loc("-":1474:12)
#loc1545 = loc("-":1476:14)
#loc1546 = loc("-":1477:7)
#loc1547 = loc("-":1479:12)
#loc1550 = loc("-":1481:14)
#loc1551 = loc("-":1482:7)
#loc1552 = loc("-":1484:12)
#loc1555 = loc("-":1486:14)
#loc1556 = loc("-":1487:7)
#loc1557 = loc("-":1489:12)
#loc1560 = loc("-":1491:14)
#loc1561 = loc("-":1492:14)
#loc1562 = loc("-":1493:7)
#loc1563 = loc("-":1495:12)
#loc1566 = loc("-":1497:14)
#loc1567 = loc("-":1498:7)
#loc1568 = loc("-":1500:12)
#loc1571 = loc("-":1502:7)
#loc1572 = loc("-":1504:12)
#loc1576 = loc("-":1506:14)
#loc1577 = loc("-":1507:7)
#loc1578 = loc("-":1509:12)
#loc1582 = loc("-":1511:14)
#loc1583 = loc("-":1512:7)
#loc1584 = loc("-":1514:12)
#loc1588 = loc("-":1516:14)
#loc1589 = loc("-":1517:7)
#loc1590 = loc("-":1519:12)
#loc1593 = loc("-":1521:7)
#loc1594 = loc("-":1523:12)
#loc1597 = loc("-":1525:7)
#loc1598 = loc("-":1527:12)
#loc1601 = loc("-":1529:7)
#loc1602 = loc("-":1531:12)
#loc1603 = loc("-":1532:12)
#loc1607 = loc("-":1534:14)
#loc1608 = loc("-":1535:7)
#loc1609 = loc("-":1537:12)
#loc1612 = loc("-":1539:14)
#loc1613 = loc("-":1540:14)
#loc1614 = loc("-":1541:14)
#loc1615 = loc("-":1542:14)
#loc1616 = loc("-":1543:14)
#loc1617 = loc("-":1544:7)
#loc1618 = loc("-":1546:12)
#loc1621 = loc("-":1548:7)
#loc1622 = loc("-":1550:12)
#loc1625 = loc("-":1552:7)
#loc1626 = loc("-":1554:12)
#loc1629 = loc("-":1556:7)
#loc1630 = loc("-":1558:12)
#loc1631 = loc("-":1559:12)
#loc1635 = loc("-":1561:14)
#loc1636 = loc("-":1562:7)
#loc1637 = loc("-":1564:12)
#loc1641 = loc("-":1566:14)
#loc1642 = loc("-":1567:7)
#loc1643 = loc("-":1569:12)
#loc1646 = loc("-":1571:14)
#loc1647 = loc("-":1572:7)
#loc1648 = loc("-":1574:12)
#loc1651 = loc("-":1576:14)
#loc1652 = loc("-":1577:7)
#loc1653 = loc("-":1579:12)
#loc1656 = loc("-":1581:7)
#loc1657 = loc("-":1583:12)
#loc1661 = loc("-":1585:14)
#loc1662 = loc("-":1586:7)
#loc1663 = loc("-":1588:12)
#loc1667 = loc("-":1590:14)
#loc1668 = loc("-":1591:7)
#loc1669 = loc("-":1593:12)
#loc1672 = loc("-":1595:14)
#loc1673 = loc("-":1596:7)
#loc1674 = loc("-":1598:12)
#loc1677 = loc("-":1600:14)
#loc1678 = loc("-":1601:7)
#loc1679 = loc("-":1603:12)
#loc1682 = loc("-":1605:14)
#loc1683 = loc("-":1606:14)
#loc1684 = loc("-":1607:7)
#loc1685 = loc("-":1609:12)
#loc1688 = loc("-":1611:14)
#loc1689 = loc("-":1612:7)
#loc1690 = loc("-":1614:12)
#loc1693 = loc("-":1616:7)
#loc1694 = loc("-":1618:12)
#loc1698 = loc("-":1620:14)
#loc1699 = loc("-":1621:7)
#loc1700 = loc("-":1623:12)
#loc1704 = loc("-":1625:14)
#loc1705 = loc("-":1626:7)
#loc1706 = loc("-":1628:12)
#loc1710 = loc("-":1630:14)
#loc1711 = loc("-":1631:7)
#loc1712 = loc("-":1633:12)
#loc1715 = loc("-":1635:7)
#loc1716 = loc("-":1637:12)
#loc1719 = loc("-":1639:7)
#loc1720 = loc("-":1641:12)
#loc1723 = loc("-":1643:7)
#loc1724 = loc("-":1645:12)
#loc1725 = loc("-":1646:12)
#loc1729 = loc("-":1648:14)
#loc1730 = loc("-":1649:7)
#loc1731 = loc("-":1651:12)
#loc1734 = loc("-":1653:7)
#loc1735 = loc("-":1655:12)
#loc1738 = loc("-":1657:7)
#loc1739 = loc("-":1659:12)
#loc1740 = loc("-":1660:12)
#loc1744 = loc("-":1662:14)
#loc1745 = loc("-":1663:7)
#loc1746 = loc("-":1665:21)
#loc1747 = loc("-":1666:12)
#loc1750 = loc("-":1668:7)
#loc1751 = loc("-":1670:12)
#loc1754 = loc("-":1672:7)
#loc1755 = loc("-":1674:12)
#loc1758 = loc("-":1676:7)
#loc1759 = loc("-":1678:12)
#loc1760 = loc("-":1679:12)
#loc1764 = loc("-":1681:14)
#loc1765 = loc("-":1682:7)
#loc1766 = loc("-":1684:21)
#loc1767 = loc("-":1685:12)
#loc1770 = loc("-":1687:7)
#loc1771 = loc("-":1689:21)
#loc1772 = loc("-":1690:12)
#loc1775 = loc("-":1692:7)
#loc1776 = loc("-":1694:12)
#loc1779 = loc("-":1696:7)
#loc1780 = loc("-":1698:12)
#loc1783 = loc("-":1700:7)
#loc1784 = loc("-":1702:12)
#loc1787 = loc("-":1704:7)
#loc1788 = loc("-":1706:22)
#loc1789 = loc("-":1707:22)
#loc1790 = loc("-":1708:12)
#loc1791 = loc("-":1709:21)
#loc1792 = loc("-":1710:12)
#loc1796 = loc("-":1712:14)
#loc1797 = loc("-":1713:14)
#loc1798 = loc("-":1714:7)
#loc1799 = loc("-":1716:14)
#loc1803 = loc("-":1718:14)
#loc1804 = loc("-":1719:14)
#loc1805 = loc("-":1720:14)
#loc1806 = loc("-":1721:14)
#loc1807 = loc("-":1722:14)
#loc1808 = loc("-":1723:7)
#loc1809 = loc("-":1725:12)
#loc1813 = loc("-":1727:14)
#loc1814 = loc("-":1728:7)
#loc1815 = loc("-":1730:12)
#loc1818 = loc("-":1732:14)
#loc1819 = loc("-":1733:7)
#loc1820 = loc("-":1735:12)
#loc1823 = loc("-":1737:14)
#loc1824 = loc("-":1738:7)
#loc1825 = loc("-":1740:12)
#loc1829 = loc("-":1742:14)
#loc1830 = loc("-":1743:7)
#loc1831 = loc("-":1745:12)
#loc1834 = loc("-":1747:7)
#loc1835 = loc("-":1749:12)
#loc1838 = loc("-":1751:7)
#loc1839 = loc("-":1753:22)
#loc1840 = loc("-":1754:22)
#loc1841 = loc("-":1755:12)
#loc1842 = loc("-":1756:21)
#loc1843 = loc("-":1757:12)
#loc1846 = loc("-":1759:7)
#loc1847 = loc("-":1761:22)
#loc1848 = loc("-":1762:12)
#loc1851 = loc("-":1764:7)
#loc1852 = loc("-":1766:12)
#loc1855 = loc("-":1768:7)
#loc1856 = loc("-":1770:12)
#loc1859 = loc("-":1772:7)
#loc1860 = loc("-":1774:12)
#loc1861 = loc("-":1775:12)
#loc1865 = loc("-":1777:14)
#loc1866 = loc("-":1778:7)
#loc1867 = loc("-":1780:12)
#loc1871 = loc("-":1782:14)
#loc1872 = loc("-":1783:7)
#loc1873 = loc("-":1785:12)
#loc1876 = loc("-":1787:14)
#loc1877 = loc("-":1788:7)
#loc1878 = loc("-":1790:12)
#loc1881 = loc("-":1792:14)
#loc1882 = loc("-":1793:7)
#loc1883 = loc("-":1795:12)
#loc1886 = loc("-":1797:7)
#loc1887 = loc("-":1799:12)
#loc1891 = loc("-":1801:14)
#loc1892 = loc("-":1802:7)
#loc1893 = loc("-":1804:12)
#loc1897 = loc("-":1806:14)
#loc1898 = loc("-":1807:7)
#loc1899 = loc("-":1809:12)
#loc1902 = loc("-":1811:14)
#loc1903 = loc("-":1812:7)
#loc1904 = loc("-":1814:12)
#loc1907 = loc("-":1816:14)
#loc1908 = loc("-":1817:7)
#loc1909 = loc("-":1819:12)
#loc1912 = loc("-":1821:14)
#loc1913 = loc("-":1822:14)
#loc1914 = loc("-":1823:7)
#loc1915 = loc("-":1825:12)
#loc1918 = loc("-":1827:14)
#loc1919 = loc("-":1828:7)
#loc1920 = loc("-":1830:12)
#loc1923 = loc("-":1832:7)
#loc1924 = loc("-":1834:12)
#loc1928 = loc("-":1836:14)
#loc1929 = loc("-":1837:7)
#loc1930 = loc("-":1839:12)
#loc1934 = loc("-":1841:14)
#loc1935 = loc("-":1842:7)
#loc1936 = loc("-":1844:12)
#loc1940 = loc("-":1846:14)
#loc1941 = loc("-":1847:7)
#loc1942 = loc("-":1849:12)
#loc1945 = loc("-":1851:7)
#loc1946 = loc("-":1853:12)
#loc1949 = loc("-":1855:7)
#loc1950 = loc("-":1857:12)
#loc1953 = loc("-":1859:7)
#loc1954 = loc("-":1861:12)
#loc1955 = loc("-":1862:12)
#loc1959 = loc("-":1864:14)
#loc1960 = loc("-":1865:7)
#loc1961 = loc("-":1867:12)
#loc1964 = loc("-":1869:14)
#loc1965 = loc("-":1870:14)
#loc1966 = loc("-":1871:14)
#loc1967 = loc("-":1872:14)
#loc1968 = loc("-":1873:14)
#loc1969 = loc("-":1874:7)
#loc1970 = loc("-":1876:12)
#loc1973 = loc("-":1878:7)
#loc1974 = loc("-":1880:12)
#loc1977 = loc("-":1882:7)
#loc1978 = loc("-":1884:12)
#loc1981 = loc("-":1886:7)
#loc1982 = loc("-":1888:12)
#loc1983 = loc("-":1889:12)
#loc1987 = loc("-":1891:14)
#loc1988 = loc("-":1892:7)
#loc1989 = loc("-":1894:12)
#loc1993 = loc("-":1896:14)
#loc1994 = loc("-":1897:7)
#loc1995 = loc("-":1899:12)
#loc1998 = loc("-":1901:14)
#loc1999 = loc("-":1902:7)
#loc2000 = loc("-":1904:12)
#loc2003 = loc("-":1906:14)
#loc2004 = loc("-":1907:7)
#loc2005 = loc("-":1909:12)
#loc2008 = loc("-":1911:7)
#loc2009 = loc("-":1913:12)
#loc2013 = loc("-":1915:14)
#loc2014 = loc("-":1916:7)
#loc2015 = loc("-":1918:12)
#loc2019 = loc("-":1920:14)
#loc2020 = loc("-":1921:7)
#loc2021 = loc("-":1923:12)
#loc2024 = loc("-":1925:14)
#loc2025 = loc("-":1926:7)
#loc2026 = loc("-":1928:12)
#loc2029 = loc("-":1930:14)
#loc2030 = loc("-":1931:7)
#loc2031 = loc("-":1933:12)
#loc2034 = loc("-":1935:14)
#loc2035 = loc("-":1936:14)
#loc2036 = loc("-":1937:7)
#loc2037 = loc("-":1939:12)
#loc2040 = loc("-":1941:14)
#loc2041 = loc("-":1942:7)
#loc2042 = loc("-":1944:12)
#loc2045 = loc("-":1946:7)
#loc2046 = loc("-":1948:12)
#loc2050 = loc("-":1950:14)
#loc2051 = loc("-":1951:7)
#loc2052 = loc("-":1953:12)
#loc2056 = loc("-":1955:14)
#loc2057 = loc("-":1956:7)
#loc2058 = loc("-":1958:12)
#loc2062 = loc("-":1960:14)
#loc2063 = loc("-":1961:7)
#loc2064 = loc("-":1963:12)
#loc2067 = loc("-":1965:7)
#loc2068 = loc("-":1967:12)
#loc2071 = loc("-":1969:7)
#loc2072 = loc("-":1971:12)
#loc2075 = loc("-":1973:7)
#loc2076 = loc("-":1975:12)
#loc2077 = loc("-":1976:12)
#loc2081 = loc("-":1978:14)
#loc2082 = loc("-":1979:7)
#loc2083 = loc("-":1981:12)
#loc2086 = loc("-":1983:7)
#loc2087 = loc("-":1985:12)
#loc2090 = loc("-":1987:7)
#loc2091 = loc("-":1989:12)
#loc2092 = loc("-":1990:12)
#loc2096 = loc("-":1992:14)
#loc2097 = loc("-":1993:7)
#loc2098 = loc("-":1995:21)
#loc2099 = loc("-":1996:12)
#loc2102 = loc("-":1998:7)
#loc2103 = loc("-":2000:12)
#loc2106 = loc("-":2002:7)
#loc2107 = loc("-":2004:12)
#loc2110 = loc("-":2006:7)
#loc2111 = loc("-":2008:12)
#loc2112 = loc("-":2009:12)
#loc2116 = loc("-":2011:14)
#loc2117 = loc("-":2012:7)
#loc2118 = loc("-":2014:21)
#loc2119 = loc("-":2015:12)
#loc2122 = loc("-":2017:7)
#loc2123 = loc("-":2019:21)
#loc2124 = loc("-":2020:12)
#loc2127 = loc("-":2022:7)
#loc2128 = loc("-":2024:12)
#loc2131 = loc("-":2026:7)
#loc2132 = loc("-":2028:12)
#loc2135 = loc("-":2030:7)
#loc2136 = loc("-":2032:12)
#loc2139 = loc("-":2034:7)
#loc2140 = loc("-":2036:22)
#loc2141 = loc("-":2037:22)
#loc2142 = loc("-":2038:12)
#loc2143 = loc("-":2039:21)
#loc2144 = loc("-":2040:12)
#loc2148 = loc("-":2042:14)
#loc2149 = loc("-":2043:14)
#loc2150 = loc("-":2044:7)
#loc2151 = loc("-":2046:14)
#loc2155 = loc("-":2048:14)
#loc2156 = loc("-":2049:14)
#loc2157 = loc("-":2050:14)
#loc2158 = loc("-":2051:14)
#loc2159 = loc("-":2052:14)
#loc2160 = loc("-":2053:7)
#loc2161 = loc("-":2055:12)
#loc2165 = loc("-":2057:14)
#loc2166 = loc("-":2058:7)
#loc2167 = loc("-":2060:12)
#loc2170 = loc("-":2062:14)
#loc2171 = loc("-":2063:7)
#loc2172 = loc("-":2065:12)
#loc2175 = loc("-":2067:14)
#loc2176 = loc("-":2068:7)
#loc2177 = loc("-":2070:12)
#loc2181 = loc("-":2072:14)
#loc2182 = loc("-":2073:7)
#loc2183 = loc("-":2075:12)
#loc2186 = loc("-":2077:7)
#loc2187 = loc("-":2079:12)
#loc2190 = loc("-":2081:7)
#loc2191 = loc("-":2083:22)
#loc2192 = loc("-":2084:22)
#loc2193 = loc("-":2085:12)
#loc2194 = loc("-":2086:21)
#loc2195 = loc("-":2087:12)
#loc2198 = loc("-":2089:7)
#loc2199 = loc("-":2091:22)
#loc2200 = loc("-":2092:12)
#loc2203 = loc("-":2094:7)
#loc2204 = loc("-":2096:12)
#loc2207 = loc("-":2098:7)
#loc2208 = loc("-":2100:12)
#loc2211 = loc("-":2102:7)
#loc2212 = loc("-":2104:12)
#loc2213 = loc("-":2105:12)
#loc2217 = loc("-":2107:14)
#loc2218 = loc("-":2108:7)
#loc2219 = loc("-":2110:12)
#loc2223 = loc("-":2112:14)
#loc2224 = loc("-":2113:7)
#loc2225 = loc("-":2115:12)
#loc2228 = loc("-":2117:14)
#loc2229 = loc("-":2118:7)
#loc2230 = loc("-":2120:12)
#loc2233 = loc("-":2122:14)
#loc2234 = loc("-":2123:7)
#loc2235 = loc("-":2125:12)
#loc2238 = loc("-":2127:7)
#loc2239 = loc("-":2129:12)
#loc2243 = loc("-":2131:14)
#loc2244 = loc("-":2132:7)
#loc2245 = loc("-":2134:12)
#loc2249 = loc("-":2136:14)
#loc2250 = loc("-":2137:7)
#loc2251 = loc("-":2139:12)
#loc2254 = loc("-":2141:14)
#loc2255 = loc("-":2142:7)
#loc2256 = loc("-":2144:12)
#loc2259 = loc("-":2146:14)
#loc2260 = loc("-":2147:7)
#loc2261 = loc("-":2149:12)
#loc2264 = loc("-":2151:14)
#loc2265 = loc("-":2152:14)
#loc2266 = loc("-":2153:7)
#loc2267 = loc("-":2155:12)
#loc2270 = loc("-":2157:14)
#loc2271 = loc("-":2158:7)
#loc2272 = loc("-":2160:12)
#loc2275 = loc("-":2162:7)
#loc2276 = loc("-":2164:12)
#loc2280 = loc("-":2166:14)
#loc2281 = loc("-":2167:7)
#loc2282 = loc("-":2169:12)
#loc2286 = loc("-":2171:14)
#loc2287 = loc("-":2172:7)
#loc2288 = loc("-":2174:12)
#loc2292 = loc("-":2176:14)
#loc2293 = loc("-":2177:7)
#loc2294 = loc("-":2179:12)
#loc2297 = loc("-":2181:7)
#loc2298 = loc("-":2183:12)
#loc2301 = loc("-":2185:7)
#loc2302 = loc("-":2187:12)
#loc2305 = loc("-":2189:7)
#loc2306 = loc("-":2191:12)
#loc2307 = loc("-":2192:12)
#loc2311 = loc("-":2194:14)
#loc2312 = loc("-":2195:7)
#loc2313 = loc("-":2197:12)
#loc2316 = loc("-":2199:14)
#loc2317 = loc("-":2200:14)
#loc2318 = loc("-":2201:14)
#loc2319 = loc("-":2202:14)
#loc2320 = loc("-":2203:14)
#loc2321 = loc("-":2204:7)
#loc2322 = loc("-":2206:12)
#loc2325 = loc("-":2208:7)
#loc2326 = loc("-":2210:12)
#loc2329 = loc("-":2212:7)
#loc2330 = loc("-":2214:12)
#loc2333 = loc("-":2216:7)
#loc2334 = loc("-":2218:12)
#loc2335 = loc("-":2219:12)
#loc2339 = loc("-":2221:14)
#loc2340 = loc("-":2222:7)
#loc2341 = loc("-":2224:12)
#loc2345 = loc("-":2226:14)
#loc2346 = loc("-":2227:7)
#loc2347 = loc("-":2229:12)
#loc2350 = loc("-":2231:14)
#loc2351 = loc("-":2232:7)
#loc2352 = loc("-":2234:12)
#loc2355 = loc("-":2236:14)
#loc2356 = loc("-":2237:7)
#loc2357 = loc("-":2239:12)
#loc2360 = loc("-":2241:7)
#loc2361 = loc("-":2243:12)
#loc2365 = loc("-":2245:14)
#loc2366 = loc("-":2246:7)
#loc2367 = loc("-":2248:12)
#loc2371 = loc("-":2250:14)
#loc2372 = loc("-":2251:7)
#loc2373 = loc("-":2253:12)
#loc2376 = loc("-":2255:14)
#loc2377 = loc("-":2256:7)
#loc2378 = loc("-":2258:12)
#loc2381 = loc("-":2260:14)
#loc2382 = loc("-":2261:7)
#loc2383 = loc("-":2263:12)
#loc2386 = loc("-":2265:14)
#loc2387 = loc("-":2266:14)
#loc2388 = loc("-":2267:7)
#loc2389 = loc("-":2269:12)
#loc2392 = loc("-":2271:14)
#loc2393 = loc("-":2272:7)
#loc2394 = loc("-":2274:12)
#loc2397 = loc("-":2276:7)
#loc2398 = loc("-":2278:12)
#loc2402 = loc("-":2280:14)
#loc2403 = loc("-":2281:7)
#loc2404 = loc("-":2283:12)
#loc2408 = loc("-":2285:14)
#loc2409 = loc("-":2286:7)
#loc2410 = loc("-":2288:12)
#loc2414 = loc("-":2290:14)
#loc2415 = loc("-":2291:7)
#loc2416 = loc("-":2293:12)
#loc2419 = loc("-":2295:7)
#loc2420 = loc("-":2297:12)
#loc2423 = loc("-":2299:7)
#loc2424 = loc("-":2301:12)
#loc2427 = loc("-":2303:7)
#loc2428 = loc("-":2305:12)
#loc2429 = loc("-":2306:12)
#loc2433 = loc("-":2308:14)
#loc2434 = loc("-":2309:7)
#loc2435 = loc("-":2311:12)
#loc2438 = loc("-":2313:7)
#loc2439 = loc("-":2315:12)
#loc2442 = loc("-":2317:7)
#loc2443 = loc("-":2319:12)
#loc2444 = loc("-":2320:12)
#loc2448 = loc("-":2322:14)
#loc2449 = loc("-":2323:7)
#loc2450 = loc("-":2325:21)
#loc2451 = loc("-":2326:12)
#loc2454 = loc("-":2328:7)
#loc2455 = loc("-":2330:12)
#loc2458 = loc("-":2332:7)
#loc2459 = loc("-":2334:12)
#loc2462 = loc("-":2336:7)
#loc2463 = loc("-":2338:12)
#loc2464 = loc("-":2339:12)
#loc2468 = loc("-":2341:14)
#loc2469 = loc("-":2342:7)
#loc2470 = loc("-":2344:21)
#loc2471 = loc("-":2345:12)
#loc2474 = loc("-":2347:7)
#loc2475 = loc("-":2349:21)
#loc2476 = loc("-":2350:12)
#loc2479 = loc("-":2352:7)
#loc2480 = loc("-":2354:12)
#loc2483 = loc("-":2356:7)
#loc2484 = loc("-":2358:12)
#loc2487 = loc("-":2360:7)
#loc2488 = loc("-":2362:12)
#loc2491 = loc("-":2364:7)
#loc2492 = loc("-":2366:22)
#loc2493 = loc("-":2367:22)
#loc2494 = loc("-":2368:12)
#loc2495 = loc("-":2369:21)
#loc2496 = loc("-":2370:12)
#loc2500 = loc("-":2372:14)
#loc2501 = loc("-":2373:14)
#loc2502 = loc("-":2374:7)
#loc2503 = loc("-":2376:14)
#loc2507 = loc("-":2378:14)
#loc2508 = loc("-":2379:14)
#loc2509 = loc("-":2380:14)
#loc2510 = loc("-":2381:14)
#loc2511 = loc("-":2382:14)
#loc2512 = loc("-":2383:7)
#loc2513 = loc("-":2385:12)
#loc2517 = loc("-":2387:14)
#loc2518 = loc("-":2388:7)
#loc2519 = loc("-":2390:12)
#loc2522 = loc("-":2392:14)
#loc2523 = loc("-":2393:7)
#loc2524 = loc("-":2395:12)
#loc2527 = loc("-":2397:14)
#loc2528 = loc("-":2398:7)
#loc2529 = loc("-":2400:12)
#loc2533 = loc("-":2402:14)
#loc2534 = loc("-":2403:7)
#loc2535 = loc("-":2405:12)
#loc2538 = loc("-":2407:7)
#loc2539 = loc("-":2409:12)
#loc2542 = loc("-":2411:7)
#loc2543 = loc("-":2413:22)
#loc2544 = loc("-":2414:22)
#loc2545 = loc("-":2415:12)
#loc2546 = loc("-":2416:21)
#loc2547 = loc("-":2417:12)
#loc2550 = loc("-":2419:7)
#loc2551 = loc("-":2421:22)
#loc2552 = loc("-":2422:12)
#loc2555 = loc("-":2424:7)
#loc2556 = loc("-":2426:12)
#loc2559 = loc("-":2428:7)
#loc2560 = loc("-":2430:12)
#loc2563 = loc("-":2432:7)
#loc2564 = loc("-":2434:12)
#loc2565 = loc("-":2435:12)
#loc2569 = loc("-":2437:14)
#loc2570 = loc("-":2438:7)
#loc2571 = loc("-":2440:12)
#loc2575 = loc("-":2442:14)
#loc2576 = loc("-":2443:7)
#loc2577 = loc("-":2445:12)
#loc2580 = loc("-":2447:14)
#loc2581 = loc("-":2448:7)
#loc2582 = loc("-":2450:12)
#loc2585 = loc("-":2452:14)
#loc2586 = loc("-":2453:7)
#loc2587 = loc("-":2455:12)
#loc2590 = loc("-":2457:7)
#loc2591 = loc("-":2459:12)
#loc2595 = loc("-":2461:14)
#loc2596 = loc("-":2462:7)
#loc2597 = loc("-":2464:12)
#loc2601 = loc("-":2466:14)
#loc2602 = loc("-":2467:7)
#loc2603 = loc("-":2469:12)
#loc2606 = loc("-":2471:14)
#loc2607 = loc("-":2472:7)
#loc2608 = loc("-":2474:12)
#loc2611 = loc("-":2476:14)
#loc2612 = loc("-":2477:7)
#loc2613 = loc("-":2479:12)
#loc2616 = loc("-":2481:14)
#loc2617 = loc("-":2482:14)
#loc2618 = loc("-":2483:7)
#loc2619 = loc("-":2485:12)
#loc2622 = loc("-":2487:14)
#loc2623 = loc("-":2488:7)
#loc2624 = loc("-":2490:12)
#loc2627 = loc("-":2492:7)
#loc2628 = loc("-":2494:12)
#loc2632 = loc("-":2496:14)
#loc2633 = loc("-":2497:7)
#loc2634 = loc("-":2499:12)
#loc2638 = loc("-":2501:14)
#loc2639 = loc("-":2502:7)
#loc2640 = loc("-":2504:12)
#loc2644 = loc("-":2506:14)
#loc2645 = loc("-":2507:7)
#loc2646 = loc("-":2509:12)
#loc2649 = loc("-":2511:7)
#loc2650 = loc("-":2513:12)
#loc2653 = loc("-":2515:7)
#loc2654 = loc("-":2517:12)
#loc2657 = loc("-":2519:7)
#loc2658 = loc("-":2521:12)
#loc2659 = loc("-":2522:12)
#loc2663 = loc("-":2524:14)
#loc2664 = loc("-":2525:7)
#loc2665 = loc("-":2527:12)
#loc2668 = loc("-":2529:14)
#loc2669 = loc("-":2530:14)
#loc2670 = loc("-":2531:14)
#loc2671 = loc("-":2532:14)
#loc2672 = loc("-":2533:14)
#loc2673 = loc("-":2534:7)
#loc2674 = loc("-":2536:12)
#loc2677 = loc("-":2538:7)
#loc2678 = loc("-":2540:12)
#loc2681 = loc("-":2542:7)
#loc2682 = loc("-":2544:12)
#loc2685 = loc("-":2546:7)
#loc2686 = loc("-":2548:12)
#loc2687 = loc("-":2549:12)
#loc2691 = loc("-":2551:14)
#loc2692 = loc("-":2552:7)
#loc2693 = loc("-":2554:12)
#loc2697 = loc("-":2556:14)
#loc2698 = loc("-":2557:7)
#loc2699 = loc("-":2559:12)
#loc2702 = loc("-":2561:14)
#loc2703 = loc("-":2562:7)
#loc2704 = loc("-":2564:12)
#loc2707 = loc("-":2566:14)
#loc2708 = loc("-":2567:7)
#loc2709 = loc("-":2569:12)
#loc2712 = loc("-":2571:7)
#loc2713 = loc("-":2573:12)
#loc2717 = loc("-":2575:14)
#loc2718 = loc("-":2576:7)
#loc2719 = loc("-":2578:12)
#loc2723 = loc("-":2580:14)
#loc2724 = loc("-":2581:7)
#loc2725 = loc("-":2583:12)
#loc2728 = loc("-":2585:14)
#loc2729 = loc("-":2586:7)
#loc2730 = loc("-":2588:12)
#loc2733 = loc("-":2590:14)
#loc2734 = loc("-":2591:7)
#loc2735 = loc("-":2593:12)
#loc2738 = loc("-":2595:14)
#loc2739 = loc("-":2596:14)
#loc2740 = loc("-":2597:7)
#loc2741 = loc("-":2599:12)
#loc2744 = loc("-":2601:14)
#loc2745 = loc("-":2602:7)
#loc2746 = loc("-":2604:12)
#loc2749 = loc("-":2606:7)
#loc2750 = loc("-":2608:12)
#loc2754 = loc("-":2610:14)
#loc2755 = loc("-":2611:7)
#loc2756 = loc("-":2613:12)
#loc2760 = loc("-":2615:14)
#loc2761 = loc("-":2616:7)
#loc2762 = loc("-":2618:12)
#loc2766 = loc("-":2620:14)
#loc2767 = loc("-":2621:7)
#loc2768 = loc("-":2623:12)
#loc2771 = loc("-":2625:7)
#loc2772 = loc("-":2627:12)
#loc2775 = loc("-":2629:7)
#loc2776 = loc("-":2631:12)
#loc2779 = loc("-":2633:7)
#loc2780 = loc("-":2635:12)
#loc2781 = loc("-":2636:12)
#loc2785 = loc("-":2638:14)
#loc2786 = loc("-":2639:7)
#loc2787 = loc("-":2641:12)
#loc2790 = loc("-":2643:7)
#loc2791 = loc("-":2645:12)
#loc2794 = loc("-":2647:7)
#loc2795 = loc("-":2649:12)
#loc2796 = loc("-":2650:12)
#loc2800 = loc("-":2652:14)
#loc2801 = loc("-":2653:7)
#loc2802 = loc("-":2655:21)
#loc2803 = loc("-":2656:12)
#loc2806 = loc("-":2658:7)
#loc2807 = loc("-":2660:12)
#loc2810 = loc("-":2662:7)
#loc2811 = loc("-":2664:12)
#loc2814 = loc("-":2666:7)
#loc2815 = loc("-":2668:12)
#loc2816 = loc("-":2669:12)
#loc2820 = loc("-":2671:14)
#loc2821 = loc("-":2672:7)
#loc2822 = loc("-":2674:21)
#loc2823 = loc("-":2675:12)
#loc2826 = loc("-":2677:7)
#loc2827 = loc("-":2679:21)
#loc2828 = loc("-":2680:12)
#loc2831 = loc("-":2682:7)
#loc2832 = loc("-":2684:12)
#loc2835 = loc("-":2686:7)
#loc2836 = loc("-":2688:12)
#loc2839 = loc("-":2690:7)
#loc2840 = loc("-":2692:12)
#loc2843 = loc("-":2694:7)
#loc2844 = loc("-":2696:22)
#loc2845 = loc("-":2697:22)
#loc2846 = loc("-":2698:12)
#loc2847 = loc("-":2699:21)
#loc2848 = loc("-":2700:12)
#loc2852 = loc("-":2702:14)
#loc2853 = loc("-":2703:14)
#loc2854 = loc("-":2704:7)
#loc2855 = loc("-":2706:14)
#loc2859 = loc("-":2708:14)
#loc2860 = loc("-":2709:14)
#loc2861 = loc("-":2710:14)
#loc2862 = loc("-":2711:14)
#loc2863 = loc("-":2712:14)
#loc2864 = loc("-":2713:7)
#loc2865 = loc("-":2715:12)
#loc2869 = loc("-":2717:14)
#loc2870 = loc("-":2718:7)
#loc2871 = loc("-":2720:12)
#loc2874 = loc("-":2722:14)
#loc2875 = loc("-":2723:7)
#loc2876 = loc("-":2725:12)
#loc2879 = loc("-":2727:14)
#loc2880 = loc("-":2728:7)
#loc2881 = loc("-":2730:12)
#loc2885 = loc("-":2732:14)
#loc2886 = loc("-":2733:7)
#loc2887 = loc("-":2735:12)
#loc2890 = loc("-":2737:7)
#loc2891 = loc("-":2739:12)
#loc2894 = loc("-":2741:7)
#loc2895 = loc("-":2743:22)
#loc2896 = loc("-":2744:22)
#loc2897 = loc("-":2745:12)
#loc2898 = loc("-":2746:21)
#loc2899 = loc("-":2747:12)
#loc2902 = loc("-":2749:7)
#loc2903 = loc("-":2751:22)
#loc2904 = loc("-":2752:12)
#loc2907 = loc("-":2754:7)
#loc2908 = loc("-":2756:12)
#loc2911 = loc("-":2758:7)
#loc2912 = loc("-":2760:12)
#loc2915 = loc("-":2762:7)
#loc2916 = loc("-":2764:12)
#loc2917 = loc("-":2765:12)
#loc2921 = loc("-":2767:14)
#loc2922 = loc("-":2768:7)
#loc2923 = loc("-":2770:12)
#loc2927 = loc("-":2772:14)
#loc2928 = loc("-":2773:7)
#loc2929 = loc("-":2775:12)
#loc2932 = loc("-":2777:14)
#loc2933 = loc("-":2778:7)
#loc2934 = loc("-":2780:12)
#loc2937 = loc("-":2782:14)
#loc2938 = loc("-":2783:7)
#loc2939 = loc("-":2785:12)
#loc2942 = loc("-":2787:7)
#loc2943 = loc("-":2789:12)
#loc2947 = loc("-":2791:14)
#loc2948 = loc("-":2792:7)
#loc2949 = loc("-":2794:12)
#loc2953 = loc("-":2796:14)
#loc2954 = loc("-":2797:7)
#loc2955 = loc("-":2799:12)
#loc2958 = loc("-":2801:14)
#loc2959 = loc("-":2802:7)
#loc2960 = loc("-":2804:12)
#loc2963 = loc("-":2806:14)
#loc2964 = loc("-":2807:7)
#loc2965 = loc("-":2809:12)
#loc2968 = loc("-":2811:14)
#loc2969 = loc("-":2812:14)
#loc2970 = loc("-":2813:7)
#loc2971 = loc("-":2815:12)
#loc2974 = loc("-":2817:14)
#loc2975 = loc("-":2818:7)
#loc2976 = loc("-":2820:12)
#loc2979 = loc("-":2822:7)
#loc2980 = loc("-":2824:12)
#loc2984 = loc("-":2826:14)
#loc2985 = loc("-":2827:7)
#loc2986 = loc("-":2829:12)
#loc2990 = loc("-":2831:14)
#loc2991 = loc("-":2832:7)
#loc2992 = loc("-":2834:12)
#loc2996 = loc("-":2836:14)
#loc2997 = loc("-":2837:7)
#loc2998 = loc("-":2839:12)
#loc3001 = loc("-":2841:7)
#loc3002 = loc("-":2843:12)
#loc3005 = loc("-":2845:7)
#loc3006 = loc("-":2847:12)
#loc3009 = loc("-":2849:7)
#loc3010 = loc("-":2851:12)
#loc3011 = loc("-":2852:12)
#loc3015 = loc("-":2854:14)
#loc3016 = loc("-":2855:7)
#loc3017 = loc("-":2857:12)
#loc3020 = loc("-":2859:14)
#loc3021 = loc("-":2860:14)
#loc3022 = loc("-":2861:14)
#loc3023 = loc("-":2862:14)
#loc3024 = loc("-":2863:14)
#loc3025 = loc("-":2864:7)
#loc3026 = loc("-":2866:12)
#loc3029 = loc("-":2868:7)
#loc3030 = loc("-":2870:12)
#loc3033 = loc("-":2872:7)
#loc3034 = loc("-":2874:12)
#loc3037 = loc("-":2876:7)
#loc3038 = loc("-":2878:12)
#loc3039 = loc("-":2879:12)
#loc3043 = loc("-":2881:14)
#loc3044 = loc("-":2882:7)
#loc3045 = loc("-":2884:12)
#loc3049 = loc("-":2886:14)
#loc3050 = loc("-":2887:7)
#loc3051 = loc("-":2889:12)
#loc3054 = loc("-":2891:14)
#loc3055 = loc("-":2892:7)
#loc3056 = loc("-":2894:12)
#loc3059 = loc("-":2896:14)
#loc3060 = loc("-":2897:7)
#loc3061 = loc("-":2899:12)
#loc3064 = loc("-":2901:7)
#loc3065 = loc("-":2903:12)
#loc3069 = loc("-":2905:14)
#loc3070 = loc("-":2906:7)
#loc3071 = loc("-":2908:12)
#loc3075 = loc("-":2910:14)
#loc3076 = loc("-":2911:7)
#loc3077 = loc("-":2913:12)
#loc3080 = loc("-":2915:14)
#loc3081 = loc("-":2916:7)
#loc3082 = loc("-":2918:12)
#loc3085 = loc("-":2920:14)
#loc3086 = loc("-":2921:7)
#loc3087 = loc("-":2923:12)
#loc3090 = loc("-":2925:14)
#loc3091 = loc("-":2926:14)
#loc3092 = loc("-":2927:7)
#loc3093 = loc("-":2929:12)
#loc3096 = loc("-":2931:14)
#loc3097 = loc("-":2932:7)
#loc3098 = loc("-":2934:12)
#loc3101 = loc("-":2936:7)
#loc3102 = loc("-":2938:12)
#loc3106 = loc("-":2940:14)
#loc3107 = loc("-":2941:7)
#loc3108 = loc("-":2943:12)
#loc3112 = loc("-":2945:14)
#loc3113 = loc("-":2946:7)
#loc3114 = loc("-":2948:12)
#loc3118 = loc("-":2950:14)
#loc3119 = loc("-":2951:7)
#loc3120 = loc("-":2953:12)
#loc3123 = loc("-":2955:7)
#loc3124 = loc("-":2957:12)
#loc3127 = loc("-":2959:7)
#loc3128 = loc("-":2961:12)
#loc3131 = loc("-":2963:7)
#loc3132 = loc("-":2965:12)
#loc3133 = loc("-":2966:12)
#loc3137 = loc("-":2968:14)
#loc3138 = loc("-":2969:7)
#loc3139 = loc("-":2971:12)
#loc3142 = loc("-":2973:7)
#loc3143 = loc("-":2975:12)
#loc3146 = loc("-":2977:7)
#loc3147 = loc("-":2979:12)
#loc3148 = loc("-":2980:12)
#loc3152 = loc("-":2982:14)
#loc3153 = loc("-":2983:7)
#loc3154 = loc("-":2985:21)
#loc3155 = loc("-":2986:12)
#loc3158 = loc("-":2988:7)
#loc3159 = loc("-":2990:12)
#loc3162 = loc("-":2992:7)
#loc3163 = loc("-":2994:12)
#loc3166 = loc("-":2996:7)
#loc3167 = loc("-":2998:12)
#loc3168 = loc("-":2999:12)
#loc3172 = loc("-":3001:14)
#loc3173 = loc("-":3002:7)
#loc3174 = loc("-":3004:21)
#loc3175 = loc("-":3005:12)
#loc3178 = loc("-":3007:7)
#loc3179 = loc("-":3009:21)
#loc3180 = loc("-":3010:12)
#loc3183 = loc("-":3012:7)
#loc3184 = loc("-":3014:12)
#loc3187 = loc("-":3016:7)
#loc3188 = loc("-":3018:12)
#loc3191 = loc("-":3020:7)
#loc3192 = loc("-":3022:12)
#loc3195 = loc("-":3024:7)
#loc3196 = loc("-":3026:22)
#loc3197 = loc("-":3027:22)
#loc3198 = loc("-":3028:12)
#loc3199 = loc("-":3029:21)
#loc3200 = loc("-":3030:12)
#loc3204 = loc("-":3032:14)
#loc3205 = loc("-":3033:14)
#loc3206 = loc("-":3034:7)
#loc3207 = loc("-":3036:14)
#loc3211 = loc("-":3038:14)
#loc3212 = loc("-":3039:14)
#loc3213 = loc("-":3040:14)
#loc3214 = loc("-":3041:14)
#loc3215 = loc("-":3042:14)
#loc3216 = loc("-":3043:7)
#loc3217 = loc("-":3045:12)
#loc3221 = loc("-":3047:14)
#loc3222 = loc("-":3048:7)
#loc3223 = loc("-":3050:12)
#loc3226 = loc("-":3052:14)
#loc3227 = loc("-":3053:7)
#loc3228 = loc("-":3055:12)
#loc3231 = loc("-":3057:14)
#loc3232 = loc("-":3058:7)
#loc3233 = loc("-":3060:12)
#loc3237 = loc("-":3062:14)
#loc3238 = loc("-":3063:7)
#loc3239 = loc("-":3065:12)
#loc3242 = loc("-":3067:7)
#loc3243 = loc("-":3069:12)
#loc3246 = loc("-":3071:7)
#loc3247 = loc("-":3073:22)
#loc3248 = loc("-":3074:22)
#loc3249 = loc("-":3075:12)
#loc3250 = loc("-":3076:21)
#loc3251 = loc("-":3077:12)
#loc3254 = loc("-":3079:7)
#loc3255 = loc("-":3081:22)
#loc3256 = loc("-":3082:12)
#loc3259 = loc("-":3084:7)
#loc3260 = loc("-":3086:12)
#loc3263 = loc("-":3088:7)
#loc3264 = loc("-":3090:12)
#loc3267 = loc("-":3092:7)
#loc3268 = loc("-":3094:12)
#loc3269 = loc("-":3095:12)
#loc3273 = loc("-":3097:14)
#loc3274 = loc("-":3098:7)
#loc3275 = loc("-":3100:12)
#loc3279 = loc("-":3102:14)
#loc3280 = loc("-":3103:7)
#loc3281 = loc("-":3105:12)
#loc3284 = loc("-":3107:14)
#loc3285 = loc("-":3108:7)
#loc3286 = loc("-":3110:12)
#loc3289 = loc("-":3112:14)
#loc3290 = loc("-":3113:7)
#loc3291 = loc("-":3115:12)
#loc3294 = loc("-":3117:7)
#loc3295 = loc("-":3119:12)
#loc3299 = loc("-":3121:14)
#loc3300 = loc("-":3122:7)
#loc3301 = loc("-":3124:12)
#loc3305 = loc("-":3126:14)
#loc3306 = loc("-":3127:7)
#loc3307 = loc("-":3129:12)
#loc3310 = loc("-":3131:14)
#loc3311 = loc("-":3132:7)
#loc3312 = loc("-":3134:12)
#loc3315 = loc("-":3136:14)
#loc3316 = loc("-":3137:7)
#loc3317 = loc("-":3139:12)
#loc3320 = loc("-":3141:14)
#loc3321 = loc("-":3142:14)
#loc3322 = loc("-":3143:7)
#loc3323 = loc("-":3145:12)
#loc3326 = loc("-":3147:14)
#loc3327 = loc("-":3148:7)
#loc3328 = loc("-":3150:12)
#loc3331 = loc("-":3152:7)
#loc3332 = loc("-":3154:12)
#loc3336 = loc("-":3156:14)
#loc3337 = loc("-":3157:7)
#loc3338 = loc("-":3159:12)
#loc3342 = loc("-":3161:14)
#loc3343 = loc("-":3162:7)
#loc3344 = loc("-":3164:12)
#loc3348 = loc("-":3166:14)
#loc3349 = loc("-":3167:7)
#loc3350 = loc("-":3169:12)
#loc3353 = loc("-":3171:7)
#loc3354 = loc("-":3173:12)
#loc3357 = loc("-":3175:7)
#loc3358 = loc("-":3177:12)
#loc3361 = loc("-":3179:7)
#loc3362 = loc("-":3181:12)
#loc3363 = loc("-":3182:12)
#loc3367 = loc("-":3184:14)
#loc3368 = loc("-":3185:7)
#loc3369 = loc("-":3187:12)
#loc3372 = loc("-":3189:14)
#loc3373 = loc("-":3190:14)
#loc3374 = loc("-":3191:14)
#loc3375 = loc("-":3192:14)
#loc3376 = loc("-":3193:14)
#loc3377 = loc("-":3194:7)
#loc3378 = loc("-":3196:12)
#loc3381 = loc("-":3198:7)
#loc3382 = loc("-":3200:12)
#loc3385 = loc("-":3202:7)
#loc3386 = loc("-":3204:12)
#loc3389 = loc("-":3206:7)
#loc3390 = loc("-":3208:12)
#loc3391 = loc("-":3209:12)
#loc3395 = loc("-":3211:14)
#loc3396 = loc("-":3212:7)
#loc3397 = loc("-":3214:12)
#loc3401 = loc("-":3216:14)
#loc3402 = loc("-":3217:7)
#loc3403 = loc("-":3219:12)
#loc3406 = loc("-":3221:14)
#loc3407 = loc("-":3222:7)
#loc3408 = loc("-":3224:12)
#loc3411 = loc("-":3226:14)
#loc3412 = loc("-":3227:7)
#loc3413 = loc("-":3229:12)
#loc3416 = loc("-":3231:7)
#loc3417 = loc("-":3233:12)
#loc3421 = loc("-":3235:14)
#loc3422 = loc("-":3236:7)
#loc3423 = loc("-":3238:12)
#loc3427 = loc("-":3240:14)
#loc3428 = loc("-":3241:7)
#loc3429 = loc("-":3243:12)
#loc3432 = loc("-":3245:14)
#loc3433 = loc("-":3246:7)
#loc3434 = loc("-":3248:12)
#loc3437 = loc("-":3250:14)
#loc3438 = loc("-":3251:7)
#loc3439 = loc("-":3253:12)
#loc3442 = loc("-":3255:14)
#loc3443 = loc("-":3256:14)
#loc3444 = loc("-":3257:7)
#loc3445 = loc("-":3259:12)
#loc3448 = loc("-":3261:14)
#loc3449 = loc("-":3262:7)
#loc3450 = loc("-":3264:12)
#loc3453 = loc("-":3266:7)
#loc3454 = loc("-":3268:12)
#loc3458 = loc("-":3270:14)
#loc3459 = loc("-":3271:7)
#loc3460 = loc("-":3273:12)
#loc3464 = loc("-":3275:14)
#loc3465 = loc("-":3276:7)
#loc3466 = loc("-":3278:12)
#loc3470 = loc("-":3280:14)
#loc3471 = loc("-":3281:7)
#loc3472 = loc("-":3283:12)
#loc3475 = loc("-":3285:7)
#loc3476 = loc("-":3287:12)
#loc3479 = loc("-":3289:7)
#loc3480 = loc("-":3291:12)
#loc3483 = loc("-":3293:7)
#loc3484 = loc("-":3295:12)
#loc3485 = loc("-":3296:12)
#loc3489 = loc("-":3298:14)
#loc3490 = loc("-":3299:7)
#loc3491 = loc("-":3301:12)
#loc3494 = loc("-":3303:7)
#loc3495 = loc("-":3305:12)
#loc3498 = loc("-":3307:7)
#loc3499 = loc("-":3309:12)
#loc3500 = loc("-":3310:12)
#loc3504 = loc("-":3312:14)
#loc3505 = loc("-":3313:7)
#loc3506 = loc("-":3315:21)
#loc3507 = loc("-":3316:12)
#loc3510 = loc("-":3318:7)
#loc3511 = loc("-":3320:12)
#loc3514 = loc("-":3322:7)
#loc3515 = loc("-":3324:12)
#loc3518 = loc("-":3326:7)
#loc3519 = loc("-":3328:12)
#loc3520 = loc("-":3329:12)
#loc3524 = loc("-":3331:14)
#loc3525 = loc("-":3332:7)
#loc3526 = loc("-":3334:21)
#loc3527 = loc("-":3335:12)
#loc3530 = loc("-":3337:7)
#loc3531 = loc("-":3339:21)
#loc3532 = loc("-":3340:12)
#loc3535 = loc("-":3342:7)
#loc3536 = loc("-":3344:12)
#loc3539 = loc("-":3346:7)
#loc3540 = loc("-":3348:12)
#loc3543 = loc("-":3350:7)
#loc3544 = loc("-":3352:12)
#loc3547 = loc("-":3354:7)
#loc3548 = loc("-":3356:22)
#loc3549 = loc("-":3357:22)
#loc3550 = loc("-":3358:12)
#loc3551 = loc("-":3359:21)
#loc3552 = loc("-":3360:12)
#loc3556 = loc("-":3362:14)
#loc3557 = loc("-":3363:14)
#loc3558 = loc("-":3364:7)
#loc3559 = loc("-":3366:14)
#loc3563 = loc("-":3368:14)
#loc3564 = loc("-":3369:14)
#loc3565 = loc("-":3370:14)
#loc3566 = loc("-":3371:14)
#loc3567 = loc("-":3372:14)
#loc3568 = loc("-":3373:7)
#loc3569 = loc("-":3375:12)
#loc3573 = loc("-":3377:14)
#loc3574 = loc("-":3378:7)
#loc3575 = loc("-":3380:12)
#loc3578 = loc("-":3382:14)
#loc3579 = loc("-":3383:7)
#loc3580 = loc("-":3385:12)
#loc3583 = loc("-":3387:14)
#loc3584 = loc("-":3388:7)
#loc3585 = loc("-":3390:12)
#loc3589 = loc("-":3392:14)
#loc3590 = loc("-":3393:7)
#loc3591 = loc("-":3395:12)
#loc3594 = loc("-":3397:7)
#loc3595 = loc("-":3399:12)
#loc3598 = loc("-":3401:7)
#loc3599 = loc("-":3403:22)
#loc3600 = loc("-":3404:22)
#loc3601 = loc("-":3405:12)
#loc3602 = loc("-":3406:21)
#loc3603 = loc("-":3407:12)
#loc3606 = loc("-":3409:7)
#loc3607 = loc("-":3411:22)
#loc3608 = loc("-":3412:12)
#loc3611 = loc("-":3414:7)
#loc3612 = loc("-":3416:12)
#loc3615 = loc("-":3418:7)
#loc3616 = loc("-":3420:12)
#loc3619 = loc("-":3422:7)
#loc3620 = loc("-":3424:12)
#loc3621 = loc("-":3425:12)
#loc3625 = loc("-":3427:14)
#loc3626 = loc("-":3428:7)
#loc3627 = loc("-":3430:12)
#loc3631 = loc("-":3432:14)
#loc3632 = loc("-":3433:7)
#loc3633 = loc("-":3435:12)
#loc3636 = loc("-":3437:14)
#loc3637 = loc("-":3438:7)
#loc3638 = loc("-":3440:12)
#loc3641 = loc("-":3442:14)
#loc3642 = loc("-":3443:7)
#loc3643 = loc("-":3445:12)
#loc3646 = loc("-":3447:7)
#loc3647 = loc("-":3449:12)
#loc3651 = loc("-":3451:14)
#loc3652 = loc("-":3452:7)
#loc3653 = loc("-":3454:12)
#loc3657 = loc("-":3456:14)
#loc3658 = loc("-":3457:7)
#loc3659 = loc("-":3459:12)
#loc3662 = loc("-":3461:14)
#loc3663 = loc("-":3462:7)
#loc3664 = loc("-":3464:12)
#loc3667 = loc("-":3466:14)
#loc3668 = loc("-":3467:7)
#loc3669 = loc("-":3469:12)
#loc3672 = loc("-":3471:14)
#loc3673 = loc("-":3472:14)
#loc3674 = loc("-":3473:7)
#loc3675 = loc("-":3475:12)
#loc3678 = loc("-":3477:14)
#loc3679 = loc("-":3478:7)
#loc3680 = loc("-":3480:12)
#loc3683 = loc("-":3482:7)
#loc3684 = loc("-":3484:12)
#loc3688 = loc("-":3486:14)
#loc3689 = loc("-":3487:7)
#loc3690 = loc("-":3489:12)
#loc3694 = loc("-":3491:14)
#loc3695 = loc("-":3492:7)
#loc3696 = loc("-":3494:12)
#loc3700 = loc("-":3496:14)
#loc3701 = loc("-":3497:7)
#loc3702 = loc("-":3499:12)
#loc3705 = loc("-":3501:7)
#loc3706 = loc("-":3503:12)
#loc3709 = loc("-":3505:7)
#loc3710 = loc("-":3507:12)
#loc3713 = loc("-":3509:7)
#loc3714 = loc("-":3511:12)
#loc3715 = loc("-":3512:12)
#loc3719 = loc("-":3514:14)
#loc3720 = loc("-":3515:7)
#loc3721 = loc("-":3517:12)
#loc3724 = loc("-":3519:14)
#loc3725 = loc("-":3520:14)
#loc3726 = loc("-":3521:14)
#loc3727 = loc("-":3522:14)
#loc3728 = loc("-":3523:14)
#loc3729 = loc("-":3524:7)
#loc3730 = loc("-":3526:12)
#loc3733 = loc("-":3528:7)
#loc3734 = loc("-":3530:12)
#loc3737 = loc("-":3532:7)
#loc3738 = loc("-":3534:12)
#loc3741 = loc("-":3536:7)
#loc3742 = loc("-":3538:12)
#loc3743 = loc("-":3539:12)
#loc3747 = loc("-":3541:14)
#loc3748 = loc("-":3542:7)
#loc3749 = loc("-":3544:12)
#loc3753 = loc("-":3546:14)
#loc3754 = loc("-":3547:7)
#loc3755 = loc("-":3549:12)
#loc3758 = loc("-":3551:14)
#loc3759 = loc("-":3552:7)
#loc3760 = loc("-":3554:12)
#loc3763 = loc("-":3556:14)
#loc3764 = loc("-":3557:7)
#loc3765 = loc("-":3559:12)
#loc3768 = loc("-":3561:7)
#loc3769 = loc("-":3563:12)
#loc3773 = loc("-":3565:14)
#loc3774 = loc("-":3566:7)
#loc3775 = loc("-":3568:12)
#loc3779 = loc("-":3570:14)
#loc3780 = loc("-":3571:7)
#loc3781 = loc("-":3573:12)
#loc3784 = loc("-":3575:14)
#loc3785 = loc("-":3576:7)
#loc3786 = loc("-":3578:12)
#loc3789 = loc("-":3580:14)
#loc3790 = loc("-":3581:7)
#loc3791 = loc("-":3583:12)
#loc3794 = loc("-":3585:14)
#loc3795 = loc("-":3586:14)
#loc3796 = loc("-":3587:7)
#loc3797 = loc("-":3589:12)
#loc3800 = loc("-":3591:14)
#loc3801 = loc("-":3592:7)
#loc3802 = loc("-":3594:12)
#loc3805 = loc("-":3596:7)
#loc3806 = loc("-":3598:12)
#loc3810 = loc("-":3600:14)
#loc3811 = loc("-":3601:7)
#loc3812 = loc("-":3603:12)
#loc3816 = loc("-":3605:14)
#loc3817 = loc("-":3606:7)
#loc3818 = loc("-":3608:12)
#loc3822 = loc("-":3610:14)
#loc3823 = loc("-":3611:7)
#loc3824 = loc("-":3613:12)
#loc3827 = loc("-":3615:7)
#loc3828 = loc("-":3617:12)
#loc3831 = loc("-":3619:7)
#loc3832 = loc("-":3621:12)
#loc3835 = loc("-":3623:7)
#loc3836 = loc("-":3625:12)
#loc3837 = loc("-":3626:12)
#loc3841 = loc("-":3628:14)
#loc3842 = loc("-":3629:7)
#loc3843 = loc("-":3631:12)
#loc3846 = loc("-":3633:7)
#loc3847 = loc("-":3635:12)
#loc3850 = loc("-":3637:7)
#loc3851 = loc("-":3639:12)
#loc3852 = loc("-":3640:12)
#loc3856 = loc("-":3642:14)
#loc3857 = loc("-":3643:7)
#loc3858 = loc("-":3645:21)
#loc3859 = loc("-":3646:12)
#loc3862 = loc("-":3648:7)
#loc3863 = loc("-":3650:12)
#loc3866 = loc("-":3652:7)
#loc3867 = loc("-":3654:12)
#loc3870 = loc("-":3656:7)
#loc3871 = loc("-":3658:12)
#loc3872 = loc("-":3659:12)
#loc3876 = loc("-":3661:14)
#loc3877 = loc("-":3662:7)
#loc3878 = loc("-":3664:21)
#loc3879 = loc("-":3665:12)
#loc3882 = loc("-":3667:7)
#loc3883 = loc("-":3669:21)
#loc3884 = loc("-":3670:12)
#loc3887 = loc("-":3672:7)
#loc3888 = loc("-":3674:12)
#loc3891 = loc("-":3676:7)
#loc3892 = loc("-":3678:12)
#loc3895 = loc("-":3680:7)
#loc3896 = loc("-":3682:12)
#loc3899 = loc("-":3684:7)
#loc3900 = loc("-":3686:22)
#loc3901 = loc("-":3687:22)
#loc3902 = loc("-":3688:12)
#loc3903 = loc("-":3689:21)
#loc3904 = loc("-":3690:12)
#loc3908 = loc("-":3692:14)
#loc3909 = loc("-":3693:14)
#loc3910 = loc("-":3694:7)
#loc3911 = loc("-":3696:14)
#loc3915 = loc("-":3698:14)
#loc3916 = loc("-":3699:14)
#loc3917 = loc("-":3700:14)
#loc3918 = loc("-":3701:14)
#loc3919 = loc("-":3702:14)
#loc3920 = loc("-":3703:7)
#loc3921 = loc("-":3705:12)
#loc3925 = loc("-":3707:14)
#loc3926 = loc("-":3708:7)
#loc3927 = loc("-":3710:12)
#loc3930 = loc("-":3712:14)
#loc3931 = loc("-":3713:7)
#loc3932 = loc("-":3715:12)
#loc3935 = loc("-":3717:14)
#loc3936 = loc("-":3718:7)
#loc3937 = loc("-":3720:12)
#loc3941 = loc("-":3722:14)
#loc3942 = loc("-":3723:7)
#loc3943 = loc("-":3725:12)
#loc3946 = loc("-":3727:7)
#loc3947 = loc("-":3729:12)
#loc3950 = loc("-":3731:7)
#loc3951 = loc("-":3733:22)
#loc3952 = loc("-":3734:22)
#loc3953 = loc("-":3735:12)
#loc3954 = loc("-":3736:21)
#loc3955 = loc("-":3737:12)
#loc3958 = loc("-":3739:7)
#loc3959 = loc("-":3741:22)
#loc3960 = loc("-":3742:12)
#loc3963 = loc("-":3744:7)
#loc3964 = loc("-":3746:12)
#loc3967 = loc("-":3748:7)
#loc3968 = loc("-":3750:12)
#loc3971 = loc("-":3752:7)
#loc3972 = loc("-":3754:12)
#loc3973 = loc("-":3755:12)
#loc3977 = loc("-":3757:14)
#loc3978 = loc("-":3758:7)
#loc3979 = loc("-":3760:12)
#loc3983 = loc("-":3762:14)
#loc3984 = loc("-":3763:7)
#loc3985 = loc("-":3765:12)
#loc3988 = loc("-":3767:14)
#loc3989 = loc("-":3768:7)
#loc3990 = loc("-":3770:12)
#loc3993 = loc("-":3772:14)
#loc3994 = loc("-":3773:7)
#loc3995 = loc("-":3775:12)
#loc3998 = loc("-":3777:7)
#loc3999 = loc("-":3779:12)
#loc4003 = loc("-":3781:14)
#loc4004 = loc("-":3782:7)
#loc4005 = loc("-":3784:12)
#loc4009 = loc("-":3786:14)
#loc4010 = loc("-":3787:7)
#loc4011 = loc("-":3789:12)
#loc4014 = loc("-":3791:14)
#loc4015 = loc("-":3792:7)
#loc4016 = loc("-":3794:12)
#loc4019 = loc("-":3796:14)
#loc4020 = loc("-":3797:7)
#loc4021 = loc("-":3799:12)
#loc4024 = loc("-":3801:14)
#loc4025 = loc("-":3802:14)
#loc4026 = loc("-":3803:7)
#loc4027 = loc("-":3805:12)
#loc4030 = loc("-":3807:14)
#loc4031 = loc("-":3808:7)
#loc4032 = loc("-":3810:12)
#loc4035 = loc("-":3812:7)
#loc4036 = loc("-":3814:12)
#loc4040 = loc("-":3816:14)
#loc4041 = loc("-":3817:7)
#loc4042 = loc("-":3819:12)
#loc4046 = loc("-":3821:14)
#loc4047 = loc("-":3822:7)
#loc4048 = loc("-":3824:12)
#loc4052 = loc("-":3826:14)
#loc4053 = loc("-":3827:7)
#loc4054 = loc("-":3829:12)
#loc4057 = loc("-":3831:7)
#loc4058 = loc("-":3833:12)
#loc4061 = loc("-":3835:7)
#loc4062 = loc("-":3837:12)
#loc4065 = loc("-":3839:7)
#loc4066 = loc("-":3841:12)
#loc4067 = loc("-":3842:12)
#loc4071 = loc("-":3844:14)
#loc4072 = loc("-":3845:7)
#loc4073 = loc("-":3847:12)
#loc4076 = loc("-":3849:14)
#loc4077 = loc("-":3850:14)
#loc4078 = loc("-":3851:14)
#loc4079 = loc("-":3852:14)
#loc4080 = loc("-":3853:14)
#loc4081 = loc("-":3854:7)
#loc4082 = loc("-":3856:12)
#loc4085 = loc("-":3858:7)
#loc4086 = loc("-":3860:12)
#loc4089 = loc("-":3862:7)
#loc4090 = loc("-":3864:12)
#loc4093 = loc("-":3866:7)
#loc4094 = loc("-":3868:12)
#loc4095 = loc("-":3869:12)
#loc4099 = loc("-":3871:14)
#loc4100 = loc("-":3872:7)
#loc4101 = loc("-":3874:12)
#loc4105 = loc("-":3876:14)
#loc4106 = loc("-":3877:7)
#loc4107 = loc("-":3879:12)
#loc4110 = loc("-":3881:14)
#loc4111 = loc("-":3882:7)
#loc4112 = loc("-":3884:12)
#loc4115 = loc("-":3886:14)
#loc4116 = loc("-":3887:7)
#loc4117 = loc("-":3889:12)
#loc4120 = loc("-":3891:7)
#loc4121 = loc("-":3893:12)
#loc4125 = loc("-":3895:14)
#loc4126 = loc("-":3896:7)
#loc4127 = loc("-":3898:12)
#loc4131 = loc("-":3900:14)
#loc4132 = loc("-":3901:7)
#loc4133 = loc("-":3903:12)
#loc4136 = loc("-":3905:14)
#loc4137 = loc("-":3906:7)
#loc4138 = loc("-":3908:12)
#loc4141 = loc("-":3910:14)
#loc4142 = loc("-":3911:7)
#loc4143 = loc("-":3913:12)
#loc4146 = loc("-":3915:14)
#loc4147 = loc("-":3916:14)
#loc4148 = loc("-":3917:7)
#loc4149 = loc("-":3919:12)
#loc4152 = loc("-":3921:14)
#loc4153 = loc("-":3922:7)
#loc4154 = loc("-":3924:12)
#loc4157 = loc("-":3926:7)
#loc4158 = loc("-":3928:12)
#loc4162 = loc("-":3930:14)
#loc4163 = loc("-":3931:7)
#loc4164 = loc("-":3933:12)
#loc4168 = loc("-":3935:14)
#loc4169 = loc("-":3936:7)
#loc4170 = loc("-":3938:12)
#loc4174 = loc("-":3940:14)
#loc4175 = loc("-":3941:7)
#loc4176 = loc("-":3943:12)
#loc4179 = loc("-":3945:7)
#loc4180 = loc("-":3947:12)
#loc4183 = loc("-":3949:7)
#loc4184 = loc("-":3951:12)
#loc4187 = loc("-":3953:7)
#loc4188 = loc("-":3955:12)
#loc4189 = loc("-":3956:12)
#loc4193 = loc("-":3958:14)
#loc4194 = loc("-":3959:7)
#loc4195 = loc("-":3961:12)
#loc4198 = loc("-":3963:7)
#loc4199 = loc("-":3965:12)
#loc4202 = loc("-":3967:7)
#loc4203 = loc("-":3969:12)
#loc4204 = loc("-":3970:12)
#loc4208 = loc("-":3972:14)
#loc4209 = loc("-":3973:7)
#loc4210 = loc("-":3975:21)
#loc4211 = loc("-":3976:12)
#loc4214 = loc("-":3978:7)
#loc4215 = loc("-":3980:12)
#loc4218 = loc("-":3982:7)
#loc4219 = loc("-":3984:12)
#loc4222 = loc("-":3986:7)
#loc4223 = loc("-":3988:12)
#loc4224 = loc("-":3989:12)
#loc4228 = loc("-":3991:14)
#loc4229 = loc("-":3992:7)
#loc4230 = loc("-":3994:21)
#loc4231 = loc("-":3995:12)
#loc4234 = loc("-":3997:7)
#loc4235 = loc("-":3999:21)
#loc4236 = loc("-":4000:12)
#loc4239 = loc("-":4002:7)
#loc4240 = loc("-":4004:12)
#loc4243 = loc("-":4006:7)
#loc4244 = loc("-":4008:12)
#loc4247 = loc("-":4010:7)
#loc4248 = loc("-":4012:12)
#loc4251 = loc("-":4014:7)
#loc4252 = loc("-":4016:22)
#loc4253 = loc("-":4017:22)
#loc4254 = loc("-":4018:12)
#loc4255 = loc("-":4019:21)
#loc4256 = loc("-":4020:12)
#loc4260 = loc("-":4022:14)
#loc4261 = loc("-":4023:14)
#loc4262 = loc("-":4024:7)
#loc4263 = loc("-":4026:14)
#loc4267 = loc("-":4028:14)
#loc4268 = loc("-":4029:14)
#loc4269 = loc("-":4030:14)
#loc4270 = loc("-":4031:14)
#loc4271 = loc("-":4032:14)
#loc4272 = loc("-":4033:7)
#loc4273 = loc("-":4035:12)
#loc4277 = loc("-":4037:14)
#loc4278 = loc("-":4038:7)
#loc4279 = loc("-":4040:12)
#loc4282 = loc("-":4042:14)
#loc4283 = loc("-":4043:7)
#loc4284 = loc("-":4045:12)
#loc4287 = loc("-":4047:14)
#loc4288 = loc("-":4048:7)
#loc4289 = loc("-":4050:12)
#loc4293 = loc("-":4052:14)
#loc4294 = loc("-":4053:7)
#loc4295 = loc("-":4055:12)
#loc4298 = loc("-":4057:7)
#loc4299 = loc("-":4059:12)
#loc4302 = loc("-":4061:7)
#loc4303 = loc("-":4063:22)
#loc4304 = loc("-":4064:22)
#loc4305 = loc("-":4065:12)
#loc4306 = loc("-":4066:21)
#loc4307 = loc("-":4067:12)
#loc4310 = loc("-":4069:7)
#loc4311 = loc("-":4071:22)
#loc4312 = loc("-":4072:12)
#loc4315 = loc("-":4074:7)
#loc4316 = loc("-":4076:12)
#loc4319 = loc("-":4078:7)
#loc4320 = loc("-":4080:12)
#loc4323 = loc("-":4082:7)
#loc4324 = loc("-":4084:12)
#loc4325 = loc("-":4085:12)
#loc4329 = loc("-":4087:14)
#loc4330 = loc("-":4088:7)
#loc4331 = loc("-":4090:12)
#loc4335 = loc("-":4092:14)
#loc4336 = loc("-":4093:7)
#loc4337 = loc("-":4095:12)
#loc4340 = loc("-":4097:14)
#loc4341 = loc("-":4098:7)
#loc4342 = loc("-":4100:12)
#loc4345 = loc("-":4102:14)
#loc4346 = loc("-":4103:7)
#loc4347 = loc("-":4105:12)
#loc4350 = loc("-":4107:7)
#loc4351 = loc("-":4109:12)
#loc4355 = loc("-":4111:14)
#loc4356 = loc("-":4112:7)
#loc4357 = loc("-":4114:12)
#loc4361 = loc("-":4116:14)
#loc4362 = loc("-":4117:7)
#loc4363 = loc("-":4119:12)
#loc4366 = loc("-":4121:14)
#loc4367 = loc("-":4122:7)
#loc4368 = loc("-":4124:12)
#loc4371 = loc("-":4126:14)
#loc4372 = loc("-":4127:7)
#loc4373 = loc("-":4129:12)
#loc4376 = loc("-":4131:14)
#loc4377 = loc("-":4132:14)
#loc4378 = loc("-":4133:7)
#loc4379 = loc("-":4135:12)
#loc4382 = loc("-":4137:14)
#loc4383 = loc("-":4138:7)
#loc4384 = loc("-":4140:12)
#loc4387 = loc("-":4142:7)
#loc4388 = loc("-":4144:12)
#loc4392 = loc("-":4146:14)
#loc4393 = loc("-":4147:7)
#loc4394 = loc("-":4149:12)
#loc4398 = loc("-":4151:14)
#loc4399 = loc("-":4152:7)
#loc4400 = loc("-":4154:12)
#loc4404 = loc("-":4156:14)
#loc4405 = loc("-":4157:7)
#loc4406 = loc("-":4159:12)
#loc4409 = loc("-":4161:7)
#loc4410 = loc("-":4163:12)
#loc4413 = loc("-":4165:7)
#loc4414 = loc("-":4167:12)
#loc4417 = loc("-":4169:7)
#loc4418 = loc("-":4171:12)
#loc4419 = loc("-":4172:12)
#loc4423 = loc("-":4174:14)
#loc4424 = loc("-":4175:7)
#loc4425 = loc("-":4177:12)
#loc4428 = loc("-":4179:14)
#loc4429 = loc("-":4180:14)
#loc4430 = loc("-":4181:14)
#loc4431 = loc("-":4182:14)
#loc4432 = loc("-":4183:14)
#loc4433 = loc("-":4184:7)
#loc4434 = loc("-":4186:12)
#loc4437 = loc("-":4188:7)
#loc4438 = loc("-":4190:12)
#loc4441 = loc("-":4192:7)
#loc4442 = loc("-":4194:12)
#loc4445 = loc("-":4196:7)
#loc4446 = loc("-":4198:12)
#loc4447 = loc("-":4199:12)
#loc4451 = loc("-":4201:14)
#loc4452 = loc("-":4202:7)
#loc4453 = loc("-":4204:12)
#loc4457 = loc("-":4206:14)
#loc4458 = loc("-":4207:7)
#loc4459 = loc("-":4209:12)
#loc4462 = loc("-":4211:14)
#loc4463 = loc("-":4212:7)
#loc4464 = loc("-":4214:12)
#loc4467 = loc("-":4216:14)
#loc4468 = loc("-":4217:7)
#loc4469 = loc("-":4219:12)
#loc4472 = loc("-":4221:7)
#loc4473 = loc("-":4223:12)
#loc4477 = loc("-":4225:14)
#loc4478 = loc("-":4226:7)
#loc4479 = loc("-":4228:12)
#loc4483 = loc("-":4230:14)
#loc4484 = loc("-":4231:7)
#loc4485 = loc("-":4233:12)
#loc4488 = loc("-":4235:14)
#loc4489 = loc("-":4236:7)
#loc4490 = loc("-":4238:12)
#loc4493 = loc("-":4240:14)
#loc4494 = loc("-":4241:7)
#loc4495 = loc("-":4243:12)
#loc4498 = loc("-":4245:14)
#loc4499 = loc("-":4246:14)
#loc4500 = loc("-":4247:7)
#loc4501 = loc("-":4249:12)
#loc4504 = loc("-":4251:14)
#loc4505 = loc("-":4252:7)
#loc4506 = loc("-":4254:12)
#loc4509 = loc("-":4256:7)
#loc4510 = loc("-":4258:12)
#loc4514 = loc("-":4260:14)
#loc4515 = loc("-":4261:7)
#loc4516 = loc("-":4263:12)
#loc4520 = loc("-":4265:14)
#loc4521 = loc("-":4266:7)
#loc4522 = loc("-":4268:12)
#loc4526 = loc("-":4270:14)
#loc4527 = loc("-":4271:7)
#loc4528 = loc("-":4273:12)
#loc4529 = loc("-":4274:12)
#loc4532 = loc("-":4276:7)
#loc4533 = loc("-":4278:12)
#loc4536 = loc("-":4280:7)
#loc4537 = loc("-":4282:12)
#loc4538 = loc("-":4283:12)
#loc4541 = loc("-":4285:7)
#loc4542 = loc("-":4287:12)
#loc4543 = loc("-":4288:12)
#loc4544 = loc("-":4289:12)
#loc4545 = loc("-":4290:12)
#loc4549 = loc("-":4292:14)
#loc4550 = loc("-":4293:7)
#loc4551 = loc("-":4295:5)
