module attributes {torch.debug_module_name = "simple"} {
  func.func @forward(%arg0: tensor<1x3x16x16xf32>) -> tensor<1x8x16x4xf32> {
    %0 = "tosa.const"() <{value = dense<1.000010e+00> : tensor<8x1x1xf32>}> : () -> tensor<8x1x1xf32>
    %1 = "tosa.const"() <{value = dense<[1, 0]> : tensor<2xi32>}> : () -> tensor<2xi32>
    %2 = "tosa.const"() <{value = dense<[0, 3, 1, 2]> : tensor<4xi32>}> : () -> tensor<4xi32>
    %3 = "tosa.const"() <{value = dense<[0, 2, 3, 1]> : tensor<4xi32>}> : () -> tensor<4xi32>
    %4 = "tosa.const"() <{value = dense<[-0.0717707872, -0.0423891321, 0.00969634484, -0.0271288622, -0.130245402, -0.150103226, -0.0827921405, -0.0530781448]> : tensor<8xf32>}> : () -> tensor<8xf32>
    %5 = "tosa.const"() <{value = dense<"…"> : tensor<8x3x3x3xf32>}> : () -> tensor<8x3x3x3xf32>
    %6 = "tosa.const"() <{value = dense<[-0.132966399, -0.10632199, -6.313750e-02, 0.111462414, -0.0230877101, -2.71707773E-4, -0.102463722, -0.227972597]> : tensor<8xf32>}> : () -> tensor<8xf32>
    %7 = "tosa.const"() <{value = dense<"…"> : tensor<8x16xf32>}> : () -> tensor<8x16xf32>
    %8 = "tosa.const"() <{value = dense<[-0.121429406, 0.0909240693, 0.0867559984, 0.169947132]> : tensor<4xf32>}> : () -> tensor<4xf32>
    %9 = "tosa.const"() <{value = dense<[[… > : tensor<4x8xf32>}> : () -> tensor<4x8xf32>
    %10 = "tosa.transpose"(%arg0, %3) : (tensor<1x3x16x16xf32>, tensor<4xi32>) -> tensor<1x16x16x3xf32>
    %11 = "tosa.transpose"(%5, %3) : (tensor<8x3x3x3xf32>, tensor<4xi32>) -> tensor<8x3x3x3xf32>
    %12 = "tosa.conv2d"(%10, %11, %4) <{dilation = array<i64: 1, 1>, pad = array<i64: 1, 1, 1, 1>, stride = array<i64: 1, 1>}> : (tensor<1x16x16x3xf32>, tensor<8x3x3x3xf32>, tensor<8xf32>) -> tensor<1x16x16x8xf32>
    %13 = "tosa.transpose"(%12, %2) : (tensor<1x16x16x8xf32>, tensor<4xi32>) -> tensor<1x8x16x16xf32>
    %14 = "tosa.rsqrt"(%0) : (tensor<8x1x1xf32>) -> tensor<8x1x1xf32>
    %15 = "tosa.mul"(%13, %14) <{shift = 0 : i32}> : (tensor<1x8x16x16xf32>, tensor<8x1x1xf32>) -> tensor<1x8x16x16xf32>
    %16 = "tosa.clamp"(%15) <{max_fp = 3.40282347E+38 : f32, max_int = 2147483647 : i64, min_fp = 0.000000e+00 : f32, min_int = 0 : i64}> : (tensor<1x8x16x16xf32>) -> tensor<1x8x16x16xf32>
    %17 = "tosa.transpose"(%7, %1) : (tensor<8x16xf32>, tensor<2xi32>) -> tensor<16x8xf32>
    %18 = "tosa.reshape"(%16) <{new_shape = array<i64: 1, 128, 16>}> : (tensor<1x8x16x16xf32>) -> tensor<1x128x16xf32>
    %19 = "tosa.reshape"(%17) <{new_shape = array<i64: 1, 16, 8>}> : (tensor<16x8xf32>) -> tensor<1x16x8xf32>
    %20 = "tosa.matmul"(%18, %19) : (tensor<1x128x16xf32>, tensor<1x16x8xf32>) -> tensor<1x128x8xf32>
    %21 = "tosa.reshape"(%20) <{new_shape = array<i64: 1, 8, 16, 8>}> : (tensor<1x128x8xf32>) -> tensor<1x8x16x8xf32>
    %22 = "tosa.add"(%21, %6) : (tensor<1x8x16x8xf32>, tensor<8xf32>) -> tensor<1x8x16x8xf32>
    %23 = "tosa.clamp"(%22) <{max_fp = 3.40282347E+38 : f32, max_int = 2147483647 : i64, min_fp = 0.000000e+00 : f32, min_int = 0 : i64}> : (tensor<1x8x16x8xf32>) -> tensor<1x8x16x8xf32>
    %24 = "tosa.transpose"(%9, %1) : (tensor<4x8xf32>, tensor<2xi32>) -> tensor<8x4xf32>
    %25 = "tosa.reshape"(%23) <{new_shape = array<i64: 1, 128, 8>}> : (tensor<1x8x16x8xf32>) -> tensor<1x128x8xf32>
    %26 = "tosa.reshape"(%24) <{new_shape = array<i64: 1, 8, 4>}> : (tensor<8x4xf32>) -> tensor<1x8x4xf32>
    %27 = "tosa.matmul"(%25, %26) : (tensor<1x128x8xf32>, tensor<1x8x4xf32>) -> tensor<1x128x4xf32>
    %28 = "tosa.reshape"(%27) <{new_shape = array<i64: 1, 8, 16, 4>}> : (tensor<1x128x4xf32>) -> tensor<1x8x16x4xf32>
    %29 = "tosa.add"(%28, %8) : (tensor<1x8x16x4xf32>, tensor<4xf32>) -> tensor<1x8x16x4xf32>
    return %29 : tensor<1x8x16x4xf32>
  }
}

